old_data/oltp_leaky_relu/latency.pth (torch, 25778 bytes, 11 tensors)

weights.0.weight f4 [16, 32]
-0.47954422 -0.710489 0.42214736 -0.5785045 -0.33159485 -0.2807764 -0.10161563 -0.47310475
0.0910361 -0.21736556 -0.19420204 -0.4529542 -0.197505 -0.25062016 -0.79703814 -0.06584933
0.1968769 -0.019657096 0.19761208 -0.56314105 -0.10964466 0.014220337 -0.30786535 0.17331785
-0.16683847 -0.06509416 -0.5757847 -0.044577762 -0.16006753 -0.06522169 -0.0980882 -3.2977793
0.25755784 0.17856257 0.1143844 -0.0004900234 0.026943494 -0.23039366 -0.34765524 -0.19101577
0.04955413 -0.09732564 -0.09815415 -0.07452349 -0.13156328 -0.1272622 0.35233673 -0.45461714
-0.33744586 0.01746296 -0.2696169 -0.039707646 0.19815435 -0.29626608 -0.11967198 -0.12577122
0.23009732 0.036268085 0.3057972 -0.33212113 0.04837591 0.19026877 0.02018053 4.104479
0.059684366 0.16677898 0.035880834 0.16604298 -0.059835896 0.21759853 -0.16641834 -0.042041637
0.00011111489 0.08969586 -0.10319009 0.15351143 -0.111997426 -0.045575924 -0.12633765 -0.0008681877
0.21648452 0.056698106 -0.07358227 0.0578587 0.087261505 0.11428656 0.25634468 0.03632121
0.18095328 0.25449142 0.026001861 -0.035675388 0.120304644 0.0756921 -0.1782814 7.523976
0.04679402 0.036601566 0.09560873 -0.02581187 -0.73623127 0.03448308 -0.8722904 -0.28619513
-0.64286965 -0.011849906 -0.8638562 -0.29544348 -0.2659857 -0.2633325 -0.37599853 -1.1500653
-0.2364862 -0.140371 -0.5639727 -0.27972537 -0.2390985 -0.3209582 -0.009455964 -0.31824815
-0.080601476 0.10227692 -0.029077945 -0.27473852 -0.116496846 -0.6122671 -0.28319287 0.3484536
-0.06332008 0.22594115 0.08376833 -0.6173081 -0.22978032 -0.3787154 -0.6245704 -0.20034644
-0.62964207 -0.12787557 -0.14640518 -0.52347827 -0.23448466 0.3187305 -0.41807428 -0.1980258
-0.26780066 -0.12916581 -0.08852655 -0.30162835 0.028334403 -1.3702068 0.014692635 -0.4406136
0.25620377 -0.46541992 -0.2793101 -0.7815018 -0.22278753 -0.25863436 -0.358362 0.7045359
0.013620447 -0.10151464 0.025666371 -0.00083792733 0.07859559 -0.0016866643 0.017775739 0.013638115
0.08124779 0.048284445 -0.028552169 -0.00082670426 0.09217701 0.0042297454 0.10570809 -0.017982956
0.04446291 0.007851845 0.09929274 0.04669957 0.011210885 -0.048784174 0.013697957 0.036458474
-0.03185773 -0.0035338467 -0.04737289 0.07836488 -0.043707065 -0.026074467 0.020157287 6.594647
-0.05818156 -0.16109715 -0.10818773 -0.13375913 -0.04247044 0.056888543 0.0003505015 0.005693766
-0.058745217 -0.10441056 -0.0513212 -0.1324629 -0.0342117 -0.13730699 0.65900916 0.20438865
0.011456478 -0.15311332 -0.039242562 -0.08868498 -0.17592911 -0.004942732 -0.37409034 -0.020074299
-0.1960584 -0.08404752 -0.20369059 0.03636978 -0.18337457 -0.41382852 -0.093286775 4.4165134
-0.10837541 -0.069295384 0.040832005 0.08900698 0.14681077 0.14423405 -0.09042977 0.05908435
0.10956086 0.010530615 -0.19382334 0.08948164 -0.013733166 -0.14635977 0.18136936 -0.11334989
0.4295527 0.11255051 0.15295833 0.12528542 0.12976761 0.16664101 0.25892574 0.037191052
0.03816199 0.14633678 -0.14499554 0.108108036 0.0072892667 0.1557619 -0.018985095 -0.39918816
00000000: d286 f5be 9be2 35bf b323 d83e df18 14bf
00000010: cdc6 a9be edc1 8fbe db1b d0bd c93a f2be
00000020: 2371 ba3d 1495 5ebe e6dc 46be 9de9 e7be
00000030: c03e 4abe 4951 80be b10a 4cbf 03dc 86bd
00000040: 199a 493e eb07 a1bc d25a 4a3e 032a 10bf
00000050: 618d e0bd 6bfc 683c 87a0 9dbe 3c7a 313e
00000060: b4d7 2abe 1650 85bd a066 13bf 2c97 36bd
00000070: bee8 23be f392 85bd 77e2 c8bd d10e 53c0
00000080: 9fde 833e 1bd9 363e 5e42 ea3d ea74 00ba
00000090: 9ab8 dc3c 51ec 6bbe deff b1be a399 43be
000000a0: 45f9 4a3d aa52 c7bd 0b05 c9bd c69f 98bd
000000b0: 86b8 06be 0651 02be 7b65 b43e 94c3 e8be
000000c0: b4c5 acbe 7b0e 8f3c 3a0b 8abe 7ca4 22bd
000000d0: f9e8 4a3e 30b0 97be 9516 f5bd 2cca 00be
000000e0: a29e 6b3e d88d 143d 7391 9c3e c80b aabe
000000f0: d125 463d d1d5 423e a451 a53c e457 8340
00000100: 9877 743d 1cc8 2a3e c8f7 123d 2c07 2a3e
00000110: 7c16 75bd 26d2 5e3e 9269 2abe da33 2cbd
00000120: 5a06 e938 77b2 b73d 5355 d3bd 1a32 1d3e
00000130: e85e e5bd d2ad 3abd a85e 01be 1797 63ba
00000140: 1eae 5d3e 463c 683d 4db2 96bd 3ffd 6c3d
00000150: 29b6 b23d 120f ea3d 9c3f 833e 8dc5 143d
00000160: d14b 393e b34c 823e db01 d53c 5b20 12bd
00000170: 4862 f63d 7604 9b3d 668f 36be 69c4 f040
00000180: 16ab 3f3d 86eb 153d 83ce c33d 6a73 d3bc
00000190: a779 3cbf 213e 0d3d 6c4e 5fbf 2b88 92be
000001a0: 1b93 24bf 1c26 42bc ae25 5dbf 5e44 97be
000001b0: 472f 88be 84d3 86be e182 c0be 5735 93bf
000001c0: 7029 72be 6abd 0fbe 8460 10bf 2a38 8fbe
000001d0: 3dd6 74be a254 a4be 30ed 1abc 6cf1 a2be
000001e0: 6312 a5bd 9076 d13d df34 eebc 87aa 8cbe
000001f0: e695 eebd 89bd 1cbf a8fe 90be 8368 b23e
00000200: f5ad 81bd 1e5d 673e bb8e ab3d e707 1ebf
00000210: 884b 6bbe fce6 c1be d9e3 1fbf 9e27 4dbe
00000220: 3930 21bf d0f1 02be 3deb 15be ac02 06bf
00000230: bf1c 70be a530 a33e d50d d6be 46c7 4abe
00000240: 2b1d 89be 0b44 04be 684d b5bd 086f 9abe
00000250: 8d1d e83c f062 afbf 61b9 703c 1b98 e1be
00000260: 242d 833e 854b eebe bc01 8fbe 8110 48bf
00000270: 6a22 64be b96b 84be 397b b7be 775c 343f
00000280: 4c28 5f3c e8e6 cfbd 4842 d23c 5aa8 5bba
00000290: baf6 a03d 1013 ddba 6d9e 913c 6672 5f3c
000002a0: 3e65 a63d e9c5 453d 3de6 e9bc 2fb7 58ba
000002b0: 4dc7 bc3d ad99 8a3b 7c7d d83d fe50 93bc
000002c0: be1e 363d 06a5 003c fe59 cb3d 0c48 3f3d
000002d0: dcad 373c ead1 47bd 656d 603c 7b55 153d
000002e0: 407d 02bd 1c98 67bb 130a 42bd c47d a03d
000002f0: 2e06 33bd 1f9a d5bc e520 a53c 5907 d340
00000300: ca4f 6ebd a7f6 24be 8791 ddbd 27f8 08be
00000310: 7cf5 2dbd f603 693d 84c3 b739 c592 ba3b
00000320: d39e 70bd 34d5 d5bd 2e36 52bd 5ba4 07be
00000330: 9121 0cbd 349a 0cbe d3b4 283f 424b 513e
00000340: f4b3 3b3c bdc9 1cbe cfbc 20bd 79a0 b5bd
00000350: c326 34be a4f6 a1bb c588 bfbe db72 a4bc
00000360: 89c3 48be 1b21 acbd 4494 50be 7af8 143d
00000370: 8bc6 3bbe 55e1 d3be 230d bfbd 1454 8d40
00000380: edf3 ddbd bdea 8dbd 763f 273d 4b49 b63d
00000390: 9055 163e 17b2 133e 3e33 b9bd 6e02 723d
000003a0: 7261 e03d 9a88 2c3c a079 46be 2642 b73d
000003b0: 1301 61bc 56df 15be e4b8 393e fd23 e8bd
000003c0: 55ee db3e e280 e63d 1ca1 1c3e d24a 003e
000003d0: cde1 043e f1a3 2a3e ea91 843e a555 183d
000003e0: bf4f 1c3d 4fd9 153e b679 14be bf67 dd3d
000003f0: cdda ee3b 0c80 1f3e a186 9bbc 6462 ccbe

weights.0.bias f4 [16]
2.7802236 -15.879028 -7.8505683 -11.539628 -9.743593 8.226791 -24.056961 -3.4491763
21.030172 -6.4576817 13.861759 6.039971 -15.662171 -10.921424 10.181766 7.607622
00000000: 2fef 3140 8010 7ec1 db37 fbc0 51a2 38c1
00000010: c2e5 1bc1 f0a0 0341 a874 c0c1 4ebf 5cc0
00000020: cb3d a841 54a5 cec0 c4c9 5d41 7147 c140
00000030: 4198 7ac1 27be 2ec1 83e8 2241 a471 f340

weights.1.weight f4 [8, 16]
-1.5392421 -0.13746019 0.022122981 0.9672015 0.4775986 0.09106262 -1.8655255 -0.35157913
0.30265474 0.7357833 -0.21524076 -0.47157392 0.31455708 -0.49055633 0.34668577 0.20839624
0.5006745 -0.17329827 -0.1081739 -0.36470497 -0.76486725 -0.40744138 0.14712486 -0.078464866
-1.6153423 -0.48629636 0.55247676 0.24923591 0.096123286 -0.10028385 -0.3033343 -0.30940047
-0.022715334 -0.18743514 -0.14269622 -0.23686257 -0.13639942 -0.55064607 0.6099317 0.06736394
0.16584474 -0.3859369 -0.4452502 0.15140148 -0.05284237 0.05463489 -0.49928784 0.06975158
0.56854945 -0.05770353 -0.008344024 0.4298854 0.16772507 0.070555225 -1.1785147 -0.45952913
1.217645 0.24699458 0.22309959 -0.29919782 0.35693693 -0.45353517 0.17660515 -0.40747163
-0.15935875 -0.29364452 -0.29818797 -0.36365888 -1.2625904 -0.7603666 1.0127307 -0.13159443
-2.202746 -0.34286317 0.2346879 -0.07469284 -0.5814226 -0.0799119 -0.43687332 -0.10519187
0.4507418 -0.29636726 -0.41450173 -0.078316234 -0.96461546 -0.48476335 1.3828607 -0.22433454
-2.7588959 -0.44723374 0.59085816 0.0121454615 -0.5958634 -0.2973699 -0.6333183 -0.3414581
-0.3350356 0.31394708 -0.16653748 0.7073591 0.32685032 -0.51187634 -1.9254748 -0.07534663
0.5859653 0.45240846 -0.8824343 -0.57309306 0.4810423 -0.045063123 0.32126436 0.41370538
-0.11300442 -0.5598984 -0.36731198 -0.51147765 -0.48418704 -1.9337003 0.8749756 0.17331418
0.12519532 -0.4934226 -0.1700326 0.44794276 -0.18478434 0.11213327 -1.066824 -0.0141199995
00000000: e305 c5bf 5dc2 0cbe 413b b53c 849a 773f
00000010: ce87 f43e 0a7f ba3d 8ac9 eebf 2e02 b4be
00000020: 90f5 9a3e 4b5c 3c3f 1368 5cbe 2372 f1be
00000030: a00d a13e 332a fbbe cc80 b13e d365 553e
00000040: 342c 003f 1a75 31be 478a ddbd 9cba babe
00000050: 57ce 43bf 289c d0be e6a7 163e 30b2 a0bd
00000060: 89c3 cebf d6fb f8be 1e6f 0d3f b337 7f3e
00000070: 49dc c43d 9f61 cdbd a24e 9bbe bd69 9ebe
00000080: 8215 babc ffee 3fbe f51e 12be 1a8c 72be
00000090: 4aac 0bbe 24f7 0cbf 7c24 1c3f 1bf6 893d
000000a0: 34d3 293e 8599 c5be d6f7 e3be fd08 1b3e
000000b0: 3e71 58bd d6c8 5f3d a8a2 ffbe ebd9 8e3d
000000c0: 758c 113f 895a 6cbd 60b5 08bc f019 dc3e
000000d0: 1fc0 2b3e 427f 903d 92d9 96bf 6747 ebbe
000000e0: cbdb 9b3f 26ec 7c3e 3874 643e 7530 99be
000000f0: 70c0 b63e c335 e8be fbd7 343e 1fa0 d0be
00000100: f12e 23be 9358 96be 18ac 98be 7f31 babe
00000110: 909c a1bf 63a7 42bf 29a1 813f b1c0 06be
00000120: caf9 0cc0 c38b afbe 0652 703e 8ff8 98bd
00000130: 1dd8 14bf daa8 a3bd dcad dfbe d66e d7bd
00000140: a1c7 e63e 73bd 97be 9239 d4be 4364 a0bd
00000150: 0af1 76bf e732 f8be 9401 b13f f4b7 65be
00000160: c091 30c0 d2fb e4be 7b42 173f c2fd 463c
00000170: 818a 18bf de40 98be 2621 22bf 99d3 aebe
00000180: c989 abbe acbd a03e cd88 2abe 7c15 353f
00000190: ed58 a73e 540a 03bf f575 f6bf 554f 9abd
000001a0: d201 163f 15a2 e73e 37e7 61bf 3ab6 12bf
000001b0: 2d4b f63e 1c94 38bd c37c a43e 31d1 d33e
000001c0: dd6e e7bd 8055 0fbf 5110 bcbe 33f0 02bf
000001d0: 5de7 f7be 7e83 f7bf 67fe 5f3f 4679 313e
000001e0: 3433 003e e3a1 fcbe 071d 2ebe c158 e53e
000001f0: 1b38 3dbe 21a6 e53d b08d 88bf 9257 67bc

weights.1.bias f4 [8]
10.452145 2.8355803 19.152502 17.527376 9.076155 6.0868826 1.3441782 0.21142878
00000000: fc3b 2741 267a 3540 5338 9941 1138 8c41
00000010: ee37 1141 bec7 c240 080e ac3f c980 583e

weights.2.weight f4 [4, 8]
0.13877493 -0.26792288 -0.0054059187 -0.09891109 0.091452256 0.056754213 -0.017208146 0.008107067
-0.30897668 -0.0077332514 0.23654084 -0.3128638 0.40204847 0.14902188 -0.21521623 0.8571996
-0.17162454 -0.053988907 -0.04377525 -0.06543244 0.3022051 0.5233662 0.26100945 0.057972305
-0.118065685 -0.0460342 -0.19392158 0.16430955 0.042576727 0.2209481 -0.42444488 -0.5137583
00000000: 041b 0e3e 302d 89be 2224 b1bb e691 cabd
00000010: 524b bb3d 1b77 683d 19f8 8cbc 81d3 043c
00000020: 3132 9ebe 3767 fdbb c337 723e af2f a0be
00000030: 4cd9 cd3e 3199 183e a561 5cbe 6f71 5b3f
00000040: 58be 2fbe 7923 5dbd ad4d 33bd 7101 86bd
00000050: a0ba 9a3e 54fb 053f 08a3 853e 5e74 6d3d
00000060: 6ccc f1bd 5b8e 3cbd 6193 46be c340 283e
00000070: ef64 2e3d 3840 623e d750 d9be aa85 03bf

weights.2.bias f4 [4]
27.527246 -3.1868489 6.7589703 0.8351058
00000000: cd37 dc41 55f5 4bc0 7c49 d840 7ec9 553f

weights.3.weight f4 [2, 4]
-1.3695662 0.8281686 0.06241642 0.1672267 -0.25136894 -0.65784645 0.30009544 0.26110354
00000000: f24d afbf db02 543f 5ca8 7f3d 7a3d 2b3e
00000010: 6eb3 80be a068 28bf 1ca6 993e 5daf 853e

weights.3.bias f4 [2]
-14.341227 8.689494
00000000: aa75 65c1 2b08 0b41

start.weight f4 [32, 144]
-1.8835521 -0.012578934 0.080393285 0.06384339 -22.023382 -4.756503 13.153027 -23.012764
53.89764 -2.5995166 -0.013588349 0.11657195 0.06931543 -21.970722 -5.873672 14.522082
-23.591131 17.506977 4.7976346 -0.0741709 -0.03888314 -0.035068344 -11.226958 0.7291657
21.1304 -26.802956 43.377018 2.7254217 -0.026146164 -0.009651757 0.00093754136 -10.6573
1.6809961 20.973162 -25.133858 29.765512 7.276151 -0.05846145 0.0947504 -0.035149496
-15.398798 -6.135383 11.038036 -28.976826 18.982367 3.7074144 -0.02413123 0.18603845
-0.07077812 -19.24373 -5.6572986 9.586586 -33.186626 22.170513 3.1969943 0.04202835
-0.025258066 0.06071643 -21.85967 -5.840969 11.271892 -29.231998 46.308334 8.226709
-0.05855631 0.024769614 -0.06889272 -19.057394 -6.1690054 11.955355 -28.817513 46.411224
4.932705 -0.07342838 0.0059382236 0.057676535 -21.449959 -5.617984 11.643969 -29.673517
39.733078 1.8488922 0.070857935 -0.07663463 -0.060054015 -23.059803 -5.344038 11.478054
-31.991417 39.12016 2.1226096 -0.026428103 -0.038422212 -0.082163885 -20.693613 -5.788872
12.623448 -30.276457 41.03385 5.407153 -0.01054888 -0.3421664 -0.05332039 -15.275604
-1.0877987 14.781717 -31.242895 46.28345 5.2162595 -0.04453391 0.0056065633 0.02406038
-18.404186 0.11827855 16.980263 -30.439384 39.10589 8.809339 -0.044242077 -0.17907374
0.061825335 -11.60726 -1.4402992 19.167116 -40.424545 49.68859 6.8781905 -0.010398179
-0.021581108 0.040853493 -20.707943 2.9693944 10.04162 -33.80159 29.871645 8.68724
0.039650463 -0.013888733 0.05670523 -9.160636 -2.7937183 17.55319 -38.122818 39.16599
11.424976 0.04243102 0.06575606 0.048977733 8.491447 -34.611984 39.650303 10.360387
6.899339 16.209816 0.03753891 -0.03436698 -0.022245517 6.99401 -33.08347 41.240112
10.8636055 13.885201 4.870898 -0.070630334 0.042176433 0.043574017 6.954184 -32.19094
39.880676 9.6952915 21.219366 13.65442 0.02837803 0.10294316 0.049060494 7.001024
-30.5116 38.10036 6.1126995 18.7941 -16.526451 -0.0012683372 0.038127445 -0.005263637
10.06776 -31.336452 45.03107 -2.845427 20.428377 -8.978946 0.021183979 0.08717966
-0.039407007 7.7333426 -30.86677 43.26937 -5.471077 19.273354 -13.531388 0.007665952
0.21844341 -0.04510811 12.364427 -29.023495 42.019745 -7.289283 21.395798 -25.941624
-0.010820627 0.08043224 0.065640174 9.354185 -29.311373 42.447525 -8.33173 26.635136
-28.1994 -0.05954976 0.15314996 -0.005262544 9.704447 -29.70952 41.703724 -2.0651479
14.67844 -23.408443 0.050380938 0.08655059 -0.0044992566 11.7901945 -28.461157 42.264057
-4.22621 28.495062 -23.734955 0.01529791 -0.07002323 0.049027264 9.317967 -28.578651
42.31662 -1.8034171 24.238386 -23.061563 -0.003466656 -0.15477638 -0.03867371 10.689644
-30.18526 35.87225 -3.7089963 15.915692 -19.358278 0.0043239295 0.06905787 0.011763613
00000000: 3c18 f1bf e017 4ebc 3ca5 a43d 53c0 823d
00000010: e32f b0c1 4635 98c0 cc72 5241 241a b8c1
00000020: 2f97 5742 7b5e 26c0 aba1 5ebc 46bd ee3d
00000030: 40f5 8d3d 0ac4 afc1 1ff5 bbc0 735a 6841
00000040: a3ba bcc1 4a0e 8c41 3986 9940 eae6 97bd
00000050: ed43 1fbd d3a3 0fbd 9fa1 33c1 9aaa 3a3f
00000060: 0f0b a941 746c d6c1 1182 2d42 4f6d 2e40
00000070: 7b30 d6bc 6722 1ebc 56c5 753a 4d84 2ac1
00000080: e12a d73f 09c9 a741 2412 c9c1 c51f ee41
00000090: 3bd6 e840 4675 6fbd 7f0c c23d ebf8 0fbd
000000a0: 7a61 76c1 0f55 c4c0 cc9b 3041 8ad0 e7c1
000000b0: e3db 9741 4746 6d40 dbae c5bc dd80 3e3e
000000c0: 1ef4 90bd 29f3 99c1 9708 b5c0 a862 1941
000000d0: 1bbf 04c2 365d b141 8e9b 4c40 eb25 2c3d
000000e0: 01ea cebc cbb1 783d 9be0 aec1 38e9 bac0
000000f0: ab59 3441 22db e9c1 bc3b 3942 9aa0 0341
00000100: bed8 6fbd a5e9 ca3c a017 8dbd 8b75 98c1
00000110: 7e68 c5c0 2249 3f41 448a e6c1 18a5 3942
00000120: b8d8 9d40 9e61 96bd 6e95 c23b 3b3e 6c3d
00000130: 8499 abc1 86c6 b3c0 b24d 3a41 5d63 edc1
00000140: acee 1e42 80a8 ec3f f71d 913d 9ef2 9cbd
00000150: 33fb 75bd 7a7a b8c1 5c02 abc0 1ca6 3741
00000160: 6cee ffc1 0b7b 1c42 d6d8 0740 c07f d8bc
00000170: 9c60 1dbd 8a45 a8bd 858c a5c1 703e b9c0
00000180: a5f9 4941 2f36 f2c1 aa22 2442 6607 ad40
00000190: 36d5 2cbc 6f30 afbe 7b66 5abd e068 74c1
000001a0: fd3c 8bbf ea81 6c41 73f1 f9c1 4122 3942
000001b0: 99eb a640 3069 36bd 43b7 b73b 461a c53c
000001c0: c63b 93c1 063c f23d 94d7 8741 dc83 f3c1
000001d0: 6e6c 1c42 0df3 0c41 2e37 35bd 1b5f 37be
000001e0: 903c 7d3d 56b7 39c1 b95b b8bf 4156 9941
000001f0: bcb2 21c2 1ec1 4642 231a dc40 205d 2abc
00000200: ddca b0bc fe55 273d dea9 a5c1 8f0a 3e40
00000210: 7aaa 2041 d434 07c2 21f9 ee41 effe 0a41
00000220: 8668 223d 928d 63bc be43 683d f791 12c1
00000230: 48cc 32c0 ef6c 8c41 c47d 18c2 f9a9 1c42
00000240: b4cc 3641 26cc 2d3d 1dab 863d e09c 483d
00000250: f8dc 0741 ac72 0ac2 e999 1e42 25c4 2541
00000260: 63c7 dc40 b4ad 8141 66c2 193d 64c4 0cbd
00000270: 3b3c b6bc eece df40 7955 04c2 e0f5 2442
00000280: 54d1 2d41 c929 5e41 65de 9b40 a3a6 90bd
00000290: 32c1 2c3d ab7a 323d ad88 de40 86c3 00c2
000002a0: d085 1f42 ea1f 1b41 43c1 a941 8178 5a41
000002b0: 0b79 e83c ddd3 d23d a8f3 483d 6308 e040
000002c0: c217 f4c1 c566 1842 3c9b c340 515a 9641
000002d0: 2c36 84c1 563e a6ba 862b 1c3d 967a acbb
000002e0: 8c15 2141 0eb1 fac1 d11f 3442 7a1b 36c0
000002f0: 516d a341 c3a9 0fc1 068a ad3c 408b b23d
00000300: 3e69 21bd 8b77 f740 25ef f6c1 d613 2d42
00000310: 1013 afc0 d42f 9a41 9180 58c1 ab32 fb3b
00000320: a1af 5f3e 48c3 38bd b1d4 4541 1e30 e8c1
00000330: 3814 2842 ce41 e9c0 982a ab41 7288 cfc1
00000340: 0049 31bc a9b9 a43d 5b6e 863d beaa 1541
00000350: b17d eac1 44ca 2942 c44e 05c1 c214 d541
00000360: 5f98 e1c1 73ea 73bd 58d3 1c3e 6b71 acbb
00000370: 6a45 1b41 19ad edc1 9dd0 2642 622b 04c0
00000380: e4da 6a41 7e44 bbc1 3e5c 4e3d 7041 b13d
00000390: 806e 93bb a3a4 3c41 73b0 e3c1 650e 2942
000003a0: 1d3d 87c0 e3f5 e341 30e1 bdc1 16a4 7a3c
000003b0: 5768 8fbd d0d0 483d 6516 1541 14a1 e4c1
000003c0: 3844 2942 5fd6 e6bf 37e8 c141 157e b8c1
000003d0: d630 63bb b37d 1ebe 5368 1ebd c808 2b41
000003e0: 6a7b f1c1 2f7d 0f42 3260 6dc0 ada6 7e41
000003f0: c1dd 9ac1 c0af 8d3b 366e 8d3d 2bbc 403c

start.bias f4 [32]
-27.00397 2.7753737 5.07317 -15.9486 7.671801 26.239264 -23.2414 -6.007095
-20.920582 -17.405046 7.070407 -32.289474 3.9198098 -28.945019 15.941116 18.791649
-7.9156466 -5.8577113 28.917038 -16.265064 -13.558109 -17.097471 -37.860485 -26.044199
-24.711357 -17.32877 -14.019336 -15.927421 6.476084 -24.635445 33.851776 65.780876
00000000: 2108 d8c1 b99f 3140 6957 a240 772d 7fc1
00000010: 657f f540 03ea d141 63ee b9c1 1f3a c0c0
00000020: 5a5d a7c1 893d 8bc1 c640 e240 6c28 01c2
00000030: 2ade 7a40 668f e7c1 d00e 7f41 4c55 9641
00000040: fa4c fdc0 5f72 bbc0 1856 e741 da1e 82c1
00000050: 04ee 58c1 9fc7 88c1 2371 17c2 855a d0c1
00000060: dcb0 c5c1 52a1 8ac1 334f 60c1 b7d6 7ec1
00000070: 153c cf40 6415 c5c1 3868 0742 cf8f 8342

end.weight f4 [1, 2]
-0.43404335 0.26465425
00000000: ee3a debe c380 873e
