old_data/mixgraph/latency_mixgraph_best.pth (torch, 122674 bytes, 11 tensors)

weights.0.weight f4 [64, 128]
00000000: 025c 8f3d d953 993d 79c7 e9bc f412 953d
00000010: 7cf8 e1bb 9cbf 0c3b c411 95bd ca49 7e3d
00000020: 507e e33d c5e5 f8bd 4b4d bb3d 485a 003d
00000030: aa48 2e3d 657c ac3d 07ba 863d 8d4f 86bb
00000040: db75 8d3d 8463 383d 3373 ecbc 6b7e 6439
00000050: 4715 2ebd f9d7 62bd 3496 83bb 1658 663d
00000060: 7a25 36be 644e 3e3b d482 4cbb 397f 1fbd
00000070: 27c2 513d b9ca 71bd a7e6 c63d 5b73 a2bd
00000080: a9dc e33c 5a31 1e3d d510 c63b 1a9b 7e3d
00000090: b199 273d 57d8 3c3d 3110 9e3c 04f4 0fbd
000000a0: 49b1 673d d4bf d63c 42d3 023d f0ae c03d
000000b0: 5812 383d 1f5e e6bc fc85 e23d 36a5 d03c
000000c0: 5d17 da3c b2f6 90bd a5a8 0abe 69d8 64bd
000000d0: dd68 d5bc a06c ad3d aaa9 413d be89 ba3c
000000e0: 1308 de3c 8321 173c ef19 583d 6476 40bc
000000f0: 182b bc3c ac71 f4bc 7372 983c e410 c2bc
00000100: a23b a73d 62f1 31bd 7bad bd3d f0c3 76bd
00000110: c1c8 60bd 5abb 2cbd ac2b e23d 251f 873d
00000120: 8b88 ac3d 3201 40bd b1d8 bbbd f3c0 65bd
00000130: 5b20 61bd dc08 5a3c 87b1 de3c 191e 193e
00000140: ada6 3fbd 7119 93bc a8ed 3e3d 9cf7 ba3c
00000150: fad7 133d 90d4 5abd b172 fc3c 1929 75bd
00000160: 0337 97bd d717 3c3d f375 c2bc 4ca6 c53c
00000170: f0b9 783c 3a10 423b 88f6 bebd 2184 7bbc
00000180: 01ca e83d ad66 ffba f43d 3cbd 9f54 fbbd
00000190: 55db 683c c5df 883c e239 84ba 3277 21bd
000001a0: ef89 613d a675 81bd e6e6 50bd c843 36bd
000001b0: 47d8 64bd a417 a63b 2a3c e53d 1376 093d
000001c0: 4485 f93c 169d b6bd 1e5d 22bd c3cb 2abc
000001d0: 4111 9e3c 58da dcbd 3ed9 a0bc 0248 a7bc
000001e0: 7cd1 e6ba 1604 f7bc 549c 0bbe 0709 d5bb
000001f0: 5783 65bd 654b 8ebd b02c d1bb f897 57bd
00000200: eb5f 8d3d 2f2e 0fbd 1d88 a43d 83fe 923c
00000210: e21e a2bd f5dd 783d fdf0 fabc ff22 3cbd
00000220: ca2a a6bd a02e b5bd 2e8b a13c 43d4 e6bc
00000230: 7a9e 2a3d 43af c7bd da05 5b3d d425 58bd
00000240: eab2 c5bc bfeb 373c a385 2a3d c840 803d
00000250: 6abf 933d 8251 c6bd 2e1a 753c 0433 2dbd
00000260: 8f27 7fbc 4b48 8fbd 0872 933d d435 8cbd
00000270: 8bb1 293d 39f5 bf3c bc2f a53c abe3 43bd
00000280: 1a4f 993d e904 3f3c 1785 843b 8a87 adbd
00000290: ea2a c83c f5b6 aebc 4907 4abd 476b 983d
000002a0: 4002 5c3c c189 65bd 5ee1 4fbd 5c46 3ebb
000002b0: edae 363d 078f 05bd 8389 77bd d539 0ebd
000002c0: 8dbe a0bd 9516 c03c 4d10 663d 696e bcbd
000002d0: 068a 953c f409 2b3d fa42 6e3c e274 24bd
000002e0: d943 273d bd50 233d 1a70 cd3c c994 cbbc
000002f0: a14e 03bd 01ed 693a 83b2 cdbc f2b8 09bd
00000300: e2ed 473d 8754 803d 34b7 85bc 6530 ffbc
00000310: 82f9 0ebc add0 1cbc 8a80 aa3c 331f 9e3c
00000320: 37f1 a8bd b2e2 b1bc ed58 a83d 4826 d23c
00000330: 4003 02bc 6d1d 75bd b4d7 65bd 98f4 b5bd
00000340: 8e8e d0bc 03e9 cd3c 0c4e 313d 5c21 033d
00000350: 5849 9ebd c195 5fbd 2269 a5bc 28bd a53d
00000360: cfdc 1b3c 9418 08bd 919b f93c 891b 1cbd
00000370: 064a 82bd 2ffa 743d 8743 34bd 335e c1bc
00000380: e5a9 c6bd f3e0 813d 717f 823d a0a0 a93c
00000390: 2adc 8abd 1907 bebd fbb4 9bbd 6f42 5b3d
000003a0: ec5d fa3c 75f2 8c3d 12d3 4d3d e3ce a93c
000003b0: 8526 04bc decd 97bd 6cd0 9dbd a0ee c0bd
000003c0: 2052 ef3c 5b5b 44bd 9bbf e4bc db56 8abd
000003d0: af58 b6bc 6823 8bbd f42b 81bd 594b d03c
000003e0: 26c6 11bd 025c 363d c48c eabc 4336 9ebd
000003f0: 79ed e1bc 5fd9 43bd ee77 d5bc f51f b6bd
0.06999971 0.07486696 -0.028537499 0.07279006 -0.0068960767 0.0021476513 -0.07278779 0.06208209
0.111080766 -0.121532 0.09145602 0.0313361 0.042549767 0.08422164 0.06578451 -0.0040988387
0.06907245 0.04501678 -0.028863525 0.00021790869 -0.04250076 -0.05538175 -0.0040157083 0.05623635
-0.17787734 0.0029038424 -0.003120591 -0.03893969 0.05121055 -0.059031222 0.09711962 -0.079321586
0.02781518 0.038621284 0.006044487 0.062159635 0.040918056 0.046104755 0.01929483 -0.03514482
0.056565557 0.026214518 0.031939752 0.09408367 0.04493937 -0.028121052 0.11060712 0.025469404
0.026622469 -0.070783034 -0.13540895 -0.055870447 -0.02605098 0.08467984 0.047280945 0.022770759
0.02710346 0.009224298 0.052759107 -0.0117469765 0.022969767 -0.02983936 0.018609261 -0.023689695
0.08165671 -0.04344309 0.092616044 -0.060245454 -0.054878954 -0.04217086 0.11043486 0.06597737
0.08424481 -0.04687614 -0.0917219 -0.056092214 -0.054962497 0.013307776 0.027184261 0.14952888
-0.046789814 -0.017956467 0.046613365 0.022823147 0.036094643 -0.05342537 0.030816408 -0.059853647
-0.073835395 0.045921173 -0.023737883 0.024127148 0.01518105 0.0029611723 -0.09324366 -0.015351326
0.11366654 -0.0019485556 -0.04595752 -0.122719996 0.014212449 0.016708264 -0.0010088051 -0.039420314
0.055063184 -0.06321268 -0.051001452 -0.044498235 -0.05587032 0.005068736 0.11193116 0.03355987
0.030459054 -0.089166805 -0.039639585 -0.010424557 0.019295337 -0.10783833 -0.01963484 -0.020420078
-0.0017610039 -0.030153316 -0.13633853 -0.0065013203 -0.05603346 -0.06947974 -0.006383501 -0.052635163
0.069030605 -0.034956153 0.08033774 0.017943626 -0.07916047 0.06075855 -0.03063249 -0.045931812
-0.0811363 -0.08846784 0.019719686 -0.028177386 0.04165504 -0.097502254 0.053472377 -0.05277045
-0.024133164 0.01122564 0.041631352 0.06262356 0.07214244 -0.09683515 0.014959855 -0.04228498
-0.015573396 -0.06996211 0.07199484 -0.068462044 0.041429084 0.023432361 0.020164363 -0.047824543
0.074857906 0.0116588855 0.004044186 -0.08473118 0.024434526 -0.021327475 -0.049323354 0.074423365
0.013428271 -0.056039575 -0.050752036 -0.0029033637 0.044600416 -0.032607105 -0.060433876 -0.03472312
-0.07848845 0.023448268 0.05616789 -0.092007466 0.018254291 0.04175754 0.014542336 -0.04015053
0.04083619 0.03987192 0.025077868 -0.02485122 -0.03205741 0.0008923561 -0.025109535 -0.033623643
0.048810847 0.06266122 -0.01632271 -0.031151006 -0.0087264795 -0.009571237 0.020813245 0.019301986
-0.08249133 -0.021714542 0.08220086 0.02565302 -0.007935345 -0.059842516 -0.056113914 -0.08884543
-0.0254586 0.025135523 0.043287322 0.032014236 -0.07728833 -0.054586176 -0.020191733 0.08092719
0.009513094 -0.033226565 0.030469688 -0.038112197 -0.06361775 0.059808906 -0.04400971 -0.023604488
-0.097003736 0.06341734 0.06371964 0.020706475 -0.06780274 -0.092786975 -0.07602879 0.053530153
0.030562364 0.068821825 0.05025012 0.020728534 -0.008065824 -0.07412313 -0.07705769 -0.09420514
0.029213965 -0.047938686 -0.027923396 -0.067548476 -0.022259085 -0.067938626 -0.063072115 0.025426554
-0.03558936 0.04452134 -0.028631575 -0.07725193 -0.027579056 -0.047814723 -0.026058163 -0.08892814

weights.0.bias f4 [64]
00000000: 2081 afc0 c98a 913e 380f 013f 7a29 c13d
00000010: 4415 dc3e d223 15bf 4e32 e83f a1b6 7640
00000020: 71e1 773d 4964 e3bf 3179 8fc0 f992 2f3d
00000030: b298 c3be df67 a3bb 6e6a 9840 265b 1f40
00000040: e972 e13f 0bfb 13bf 72b5 23c0 6cd5 ac3f
00000050: f754 bcbf eca8 6a40 4ec2 163e 7c6f 23c0
00000060: 2491 ddbe eea0 c1be 188d 9abf c2b0 6f40
00000070: aad0 87bf e01a c13f 38aa 67c0 26c3 dc3d
00000080: 3ea3 8bbd 5609 c3bc deee 0541 1c21 3ac0
00000090: 9d13 1840 94fd 96bf 6306 3340 e575 843e
000000a0: 3b0c a7bd 9b40 1040 b7a5 1cc0 90c3 43c0
000000b0: c27d 9f40 bf9f 3abe 7502 2c3d 3c27 22bf
000000c0: b08e a7c0 1332 21c0 c387 c8bf 76a4 3c3f
000000d0: f5a1 2e40 599f bbbd 34cd b9bf 3f85 85c0
000000e0: 2fd3 2840 6b33 ec3d 6131 b7bf 19b1 dabc
000000f0: 654b c740 2c98 c1be 5240 81be 3c97 7cbf
-5.4845123 0.28426197 0.50413847 0.09431739 0.42984974 -0.5825778 1.8140352 3.8548968
0.060517732 -1.776498 -4.483544 0.042864773 -0.38202435 -0.0049867476 4.762992 2.4899383
1.7613193 -0.57804936 -2.5579495 1.3502631 -1.4713429 3.6665602 0.14722559 -2.5536795
-0.43274796 -0.37818092 -1.2074308 3.7451634 -1.0610554 1.5086327 -3.6197643 0.10779409
-0.06818245 -0.023808163 8.370817 -2.9082708 2.376197 -1.1796136 2.7972648 0.25871196
-0.0815663 2.2539432 -2.4476144 -3.0588112 4.9841013 -0.18225001 0.04199453 -0.63341117
-5.236168 -2.5186813 -1.5666431 0.7368845 2.728635 -0.091612525 -1.4515748 -4.1725154
2.6378896 0.11533245 -1.4311944 -0.026695775 6.2279534 -0.3781141 -0.25244385 -0.98668265

weights.1.weight f4 [32, 64]
00000000: 863f 233d 1b71 d33d 1e0e 77bd a454 c33c
00000010: 26db cb3c 898f c13d 71a2 7b3d 99fa 8c3c
00000020: 74cb c8bc a5d1 f7bc f2ba 9ebd 1b3f 3b3d
00000030: b57b cd3d aff9 90bd 56d4 babd 109a af3d
00000040: 7067 e63b d437 84bd 1d34 a13d bac0 dcbd
00000050: c42c 8cbd 4f74 41bd aa20 3bbc b7c2 a13c
00000060: 12ac 583d f61b 56bd adbe 9cbc 1544 8abd
00000070: 7711 b8bd addb a33c 5667 ac3d b1b3 cd3d
00000080: dbce d5bd 6c6a 543d 1c0e 573d 2170 52bc
00000090: 507f 4abc 7ca1 ce3d e57b c23d 4efd ddbd
000000a0: d5f5 a23c fa71 873d f9f0 c33c 51f5 1bbc
000000b0: a689 87bd 57c8 c2bd c153 05be 95c6 14bc
000000c0: e543 6abd 16d1 b23c 9f14 76bd b44a c63d
000000d0: 4430 c5bd be3c d53d 0421 69bd 9265 523c
000000e0: 7e6b 58bd 5b20 393d ba65 bc3d 1800 e03d
000000f0: 0446 bebd aa2f 9d3d 8397 9a3d 4e80 e0bd
00000100: 860b 47bd 688a 713c 476d c83d 54ac d03d
00000110: f867 b6bd 7bb3 56bd 1b84 66bd 05a6 a4bb
00000120: 7154 e13c 9df0 f6bd e52e 97bb f72e 963d
00000130: c777 c93d 0254 7c3d f511 70bd 73bd a83c
00000140: 75b7 103d efe2 a9bd 1b52 473c 9263 b03c
00000150: 70e7 ab3b 0e67 f3bc d279 413d f22d ffbd
00000160: cbb6 b03d 4c5c 4f3d 2dee 13be 0dca a4bd
00000170: 2d08 f1bc 7eef b93d 3296 853d 9819 b9bd
00000180: 7932 b0bd 9be1 583d 7854 94bd cad6 813c
00000190: 99eb 553d f2e6 dc3d 873f 9dbd 98a8 983b
000001a0: aa7f ecbd f0a8 1cbd 57de 8bbd fc2a 93bd
000001b0: 519a 6b3d 3eff aa3c 7c38 703d ac8c 993d
000001c0: f705 13be 6093 bebc 615f aa3d 85d1 f5bd
000001d0: e3a2 933d b332 4b3d ca3b d8bd b309 263d
000001e0: 250f b5bb 208a aa3b 5722 5bbd f45a 2e3d
000001f0: a831 5b3c f26e 0b3e 84f1 46bd c97a 40be
00000200: 24bd 023e e958 ef3c 9f1e f43d 7a97 183d
00000210: 9e1e 573c 5d0d 743d fbb9 673d 04df 72bd
00000220: 30e4 1d3c 5d9f 05bc c2f6 3a3d ba0c 403d
00000230: 71d7 54bd b7d3 d53d 8e6e df3d e6db c13d
00000240: 818d 5c3c e835 8e3d 30f7 84bd 91b2 873d
00000250: bff8 c3bd 6b0c e4bd dcf3 f33c 6fb4 11be
00000260: 5cb8 ee3c e89e d2bd 54b5 3abd 4151 bfbd
00000270: 9793 d33d dca8 cdbd 9c75 e33c 63a8 36bb
00000280: 6979 03be 31dc b43d 1c80 68bd cd79 ffbd
00000290: 649f 04be bbd4 4d3d a88e 4b3d e89d f8bc
000002a0: b981 4fbd 2029 f8bd 1918 aa3d a742 4bbd
000002b0: d548 87bd 5ab6 203d a947 cf3d 025f 813d
000002c0: 94ac 3a3c c02d c43d 0315 073c 6ede 033c
000002d0: 13ba b4bc 4134 a9bd 17a7 c43c 9364 97bd
000002e0: 01e9 863d 20cd e4bd 03de d8bd eb7f 09bd
000002f0: 8131 b73d 3abb e1bd 1be0 e3bc 2a64 a6bc
00000300: d37a 5dbd 5cfa 533d 1f51 e53d 5881 7c3d
00000310: 4afb 06bd e6c9 d6bd ad7a e1bd bf13 f4bc
00000320: 4e38 3fbd 32b3 d2bd 0af9 783c f70a 60bd
00000330: 9ee1 f23c c1a5 99bd 53b9 afbc c797 36bd
00000340: 23f3 8a3d a477 d0bd d986 76bd 6989 9f3c
00000350: 1792 2bbd 098d 37bc e18f 9f3d e1b3 2c3c
00000360: f215 123c 8cd7 dc3c d594 98bd 413f 36bd
00000370: f286 863d d651 343c 8e16 9b3d d9f4 b5bc
00000380: 788e e13d 01ee 8b3d b9e6 5fbd 717a 96bd
00000390: bcc3 8e3c 02c5 e4bd 8df2 77bd a7e0 f73c
000003a0: 086c 433b a26c 483d a514 80bd b5e9 c83d
000003b0: a03e 9abd 2340 91bd 0dd7 993d 88c8 02bd
000003c0: 0645 b43c 8c6b f3bc dc89 c0bd 85dd 44bc
000003d0: 2345 513d c6d1 9b3d 8a8b b63d 7bcb 88bc
000003e0: 14bf a53d 28b8 f13c b027 0bbb 0fd8 b4bb
000003f0: ed9f b9bc 6087 e23c ef00 67bc 9cda 943d
0.039855503 0.103243075 -0.060316198 0.02384407 0.024884772 0.09451205 0.061434213 0.017209338
-0.024511077 -0.030251333 -0.07750501 0.04571448 0.10033361 -0.07078873 -0.09122531 0.08574307
0.0070313737 -0.06455961 0.07871268 -0.10778947 -0.06844476 -0.04723006 -0.011421362 0.019746168
0.052898474 -0.05227276 -0.01913389 -0.06751267 -0.08987706 0.02000221 0.08418147 0.10044039
-0.10439845 0.051859304 0.05250369 -0.012844116 -0.012359455 0.100893945 0.09496287 -0.1083933
0.019892612 0.06613536 0.023918616 -0.009518937 -0.06618051 -0.09510868 -0.13020231 -0.009080549
-0.057193656 0.021828216 -0.06007826 0.09682217 -0.096283466 0.10411976 -0.05691625 0.012841599
-0.052836888 0.045196872 0.0919909 0.10937518 -0.09290698 0.07675107 0.0754843 -0.10961972
-0.048594974 0.014742471 0.09786468 0.10189119 -0.08906549 -0.05241726 -0.05627833 -0.005024674
0.027506085 -0.12057612 -0.0046137446 0.073331766 0.09837299 0.061603554 -0.058610875 0.020598149
0.03533121 -0.08295237 0.012165572 0.021531854 0.0052460954 -0.029712226 0.047235318 -0.12459935
0.08628615 0.05062513 -0.14446326 -0.08046351 -0.029422844 0.09078883 0.06522788 -0.09038085
-0.08603377 0.05294953 -0.07242674 0.01584949 0.052226637 0.10786237 -0.076781325 0.00465877
-0.115477875 -0.03824705 -0.06829517 -0.07185933 0.057520214 0.020873662 0.058647618 0.07497534
-0.14357744 -0.023263633 0.08318973 -0.12002853 0.072088026 0.049608897 -0.10558279 0.040536594
-0.005525487 0.005204454 -0.053499546 0.04256721 0.013378538 0.13616541 -0.04857017 -0.18796839
0.12767464 0.0292172 0.11919903 0.037253834 0.013129858 0.059583057 0.05657385 -0.059294716
0.009636924 -0.008155671 0.045645483 0.046887137 -0.051963273 0.10440772 0.109097585 0.094657704
0.013461472 0.069438756 -0.0649246 0.06625856 -0.09568929 -0.11135181 0.029779367 -0.14228986
0.029140644 -0.10284215 -0.045583084 -0.0934167 0.10330885 -0.10041973 0.027766041 -0.0027871362
-0.12839283 0.08831061 -0.0567628 -0.124744035 -0.12951428 0.050251704 0.049696594 -0.030348733
-0.050660823 -0.12117219 0.083053775 -0.04962411 -0.066056885 0.039236404 0.1012109 0.063169494
0.011393685 0.095790386 0.008244756 0.008048637 -0.022061383 -0.0826192 0.024005456 -0.0739223
0.06587411 -0.11171937 -0.105892204 -0.033569258 0.08944989 -0.11022039 -0.027816823 -0.020311434
-0.054072212 0.051752433 0.11197113 0.06164679 -0.03295449 -0.10487728 -0.11009727 -0.029794572
-0.046684556 -0.10288085 0.015196094 -0.054697957 0.029648598 -0.07502318 -0.021450674 -0.04457834
0.06784656 -0.1017907 -0.060187194 0.019474702 -0.04188737 -0.011203059 0.077911146 0.010540933
0.008916365 0.02695825 -0.074502625 -0.044493917 0.065687075 0.011005839 0.07572661 -0.022211479
0.11013502 0.06832505 -0.054663394 -0.073475726 0.017427318 -0.11170389 -0.06053405 0.03025849
0.002981903 0.048931725 -0.06253938 0.09810201 -0.07531476 -0.07092311 0.07511721 -0.031929523
0.02200557 -0.029714368 -0.094012946 -0.012015705 0.051091325 0.076083705 0.08913334 -0.01669859
0.08093086 0.029506758 -0.0021233372 -0.0055189203 -0.022659266 0.027652442 -0.014099344 0.07268259

weights.1.bias f4 [32]
00000000: 66c3 383c 66c0 68bf 0898 01c0 82d9 80bd
00000010: 1ec7 b4be cd0b 0ec0 b994 f6bd 7666 8c40
00000020: 395e 8140 2a17 603e 3305 03c0 95af a3bd
00000030: 25a5 70be 2388 c2c0 dd2d 3d3d a695 2dc0
00000040: 05be df3f 6a20 4fbf 9b3b fcbe 9a07 09bd
00000050: 6167 abbf 3117 d43f 719f 1140 d811 80c0
00000060: 6497 11c0 4994 16c0 b374 0cbe b3e3 dbbc
00000070: 1b23 e93f 08cb 3d40 8c87 75bf 98c3 3740
0.011277055 -0.90918577 -2.0249043 -0.06291486 -0.35308164 -2.2194703 -0.12040085 4.3875074
4.042752 0.21883836 -2.0471923 -0.07992474 -0.23500498 -6.0791183 0.046186317 -2.7122588
1.7479864 -0.80908835 -0.49264225 -0.033454515 -1.3390924 1.6569577 2.2753565 -4.002178
-2.2748652 -2.3528006 -0.13716392 -0.026841974 1.8213838 2.965517 -0.95909953 2.871313

weights.2.weight f4 [16, 32]
00000000: 4dae 23be 8131 22bc 5581 c53d 13bf 73bd
00000010: afa2 083e 72eb cabd 2ba6 983d 3358 3b3e
00000020: 433b c83d 53ae 97bd 56a1 8d3d 1bc5 c6bd
00000030: ac18 5cbe 875f b93d 7d29 2ebe e66c f3bd
00000040: d2f0 0b3d 737f dd3c 3e2a 60be 36a9 6cbd
00000050: bc64 253e bd3b 1abe d816 5a3e cd6f 4ebd
00000060: a2eb adbd 0493 95be dcc3 b2bd 7b96 263d
00000070: f150 f0bc 3763 29be f8f1 80bc b28f 583d
00000080: b50c 26bd cee4 3c3e 17ff 393e 1d2f 1e3e
00000090: 8537 bebd 157a febd 7bbf 22be ce69 fcbc
000000a0: d67d fabd 3bce b83d e52c ce3c 0765 133e
000000b0: ef1d 1fbe bdcd 0cbe 657c cebc 810a 613d
000000c0: c43a 213e 2d5f e4bb 37ab 133e c37e 23bd
000000d0: c5f0 e6bc f947 74bd 464a 91bd f143 62bd
000000e0: 36a0 25be cd2f 05bc 7e26 74bd 3367 dfbd
000000f0: a4f9 09be 4e4a 26be 6f47 02bd b497 06be
00000100: 39f3 183e fac1 64bd 45af ff3c 1406 07be
00000110: 6fe4 08bc 456a 1abe 9810 9f3d 12a1 e73d
00000120: ea9b 26bd 8f52 8e3d b00e 8a3c 7c38 f9bd
00000130: 4326 afbd b4c4 fd3d f68e c4bd 2cf2 183e
00000140: dc1f 5f3c 1f15 8b3d 424a d4bd 6730 513d
00000150: b18f 0d3c 2307 0f3e a8eb 1abe c87a dbbd
00000160: 4827 a6ba e2d3 d7bd 73cc 0e3d 5077 d03d
00000170: fcbd 8f3d f427 6ebd b6b4 843d 0cb8 07be
00000180: 8be9 f03d 985b 12be b8d6 33be 9710 7f3d
00000190: 87f9 d2bb 491e feba 8796 2b3e 4f31 253e
000001a0: 6975 823d 9952 1cbe 6696 afbc 723a cf3c
000001b0: 4241 2cbe 77cd b43d b031 f53d 6622 9cbd
000001c0: e19c 10bd 0bb7 c0bd e2b4 8f3d 29ca 143d
000001d0: eb80 cfbd 2934 b53d 458c d4bc e6bc 173c
000001e0: d3b2 fa3d 7749 dabd f94a 22be 31e6 853d
000001f0: c1f6 00be 3f60 8f3d f2e4 3dbd 52b5 f23d
00000200: 26c0 63bc cfd7 b1bd 6402 05be fe88 e43d
00000210: 029b f0bd 2826 433d 97c2 023e 3ce3 17be
00000220: b048 22be 74e2 1b3c 88ea a2bd 8605 0cbe
00000230: a5f8 dd3d 4d23 43be ee4a b4bd ea5d 1dbe
00000240: 61b0 1f3d e383 013c 2066 883d 1552 883d
00000250: 1882 febb 33bd 7abd c92c 193e f234 38ba
00000260: b425 0b3d 0e2f 1cbe 97c7 38be f7d3 c2bd
00000270: 1ee8 d2bd 9dfa 343d 83fc aebd 6829 0d3c
00000280: 0930 2f3e ecd6 2fbd 00b7 de3c 6dc2 103c
00000290: 935e 2d3e 3036 8e3d c5b8 96b9 0755 bf3d
000002a0: 0d99 423d f1aa bcbc f80d 9cbc 0ea0 0bbe
000002b0: 8890 143e 54d6 e0bc ec0d 23be 9180 82bd
000002c0: e05a 373d 6000 6c3c f401 d03d e3ec df3d
000002d0: 2c1a cb3d 06f5 d4bd ab5c a03d 1f28 db3d
000002e0: 9939 acbd 5470 06bc e91f e23c efcb 913c
000002f0: ffa3 763d dc5c 143e cfe1 333e ff62 383d
00000300: 4f2a fc3d 55d8 953d ea4e 003e 6c29 093e
00000310: a152 a23c 7ae0 3c3d acfe e7bd c876 d93d
00000320: 7570 053e 12c7 7cbc 71f4 29bd 95b0 08bc
00000330: 01aa 6ebd 6e80 0a3e e8a8 21be e4e8 0c3f
00000340: 8934 aebd 8b74 a23d 9a4a f23b 22a9 0fbd
00000350: b748 c03c 59ba 84bc 1ecf 4bbf 79db d83d
00000360: e1bb 923b 8ae0 d5bd 0780 78bd 0f33 06be
00000370: bcdf e53a 06b3 69be e0d6 b5be 127e 9c3d
00000380: a909 2d3e 7f9d 193e 1edd 10bd d71e 96bd
00000390: 47aa ea3d 5902 913d 8292 fbbd a05a 6fbd
000003a0: 5ea0 573e c9da aabd 0b9d 633d c5e9 0fbe
000003b0: f011 063e 8592 43be e87a 033e 5646 5dbc
000003c0: 54ae ba3d 5c41 193e c42d 0fbd 0526 01be
000003d0: 93b9 0ebe ffd8 d53d 83df f7bd 30bf 23be
000003e0: 4917 1abe 1096 20bd 48e9 493d 8815 eebd
000003f0: b12b 8bbd 3cf9 433e 16e1 bbbc a67d 00bd
-0.15984459 -0.009899498 0.09643809 -0.059508394 0.13343309 -0.09908189 0.07453569 0.18295364
0.09776928 -0.074062966 0.06915538 -0.09705564 -0.21493787 0.090514235 -0.17008014 -0.11886005
0.03416521 0.027038312 -0.21891114 -0.05777856 0.16151708 -0.15061851 0.21297777 -0.05039959
-0.08492209 -0.29213727 -0.087287635 0.040670853 -0.02933547 -0.16541754 -0.01574038 0.052871414
-0.040539462 0.18446657 0.18163715 0.1544766 -0.09287933 -0.12425629 -0.15893357 -0.03081217
-0.122310326 0.0902371 0.025167892 0.14394008 -0.15538763 -0.13750358 -0.0252058 0.054941658
0.15745074 -0.0069693536 0.14420782 -0.03991581 -0.02819098 -0.05963895 -0.07094245 -0.055240575
-0.16174397 -0.008129072 -0.05960702 -0.109083556 -0.13474137 -0.16239282 -0.031806406 -0.13143808
0.14936532 -0.055849053 0.031211505 -0.13185912 -0.008355244 -0.15079601 0.07766837 0.113100186
-0.040676035 0.069493406 0.016852707 -0.12168977 -0.0855222 0.12391034 -0.0959758 0.14936131
0.013618436 0.06791138 -0.10365726 0.05107155 0.008640216 0.13967566 -0.15128958 -0.10716778
-0.0012676502 -0.1053846 0.034862947 0.10179007 0.070186585 -0.05814357 0.064797804 -0.13253802
0.11763295 -0.14292753 -0.17562377 0.06227168 -0.0064384374 -0.0019387688 0.1675664 0.16132091
0.063700505 -0.15265884 -0.02143402 0.025296424 -0.16821769 0.08828252 0.11972368 -0.076237485
-0.03530586 -0.09409913 0.070169225 0.036325607 -0.10132011 0.088478394 -0.025945792 0.0092613455
0.12241139 -0.106585436 -0.15848912 0.06538046 -0.12594129 0.07000779 -0.046360917 0.1185099
-0.013900792 -0.0868374 -0.12989193 0.11158942 -0.117483154 0.04764381 0.12769543 -0.14832777
-0.1584804 0.00951444 -0.079548895 -0.13673982 0.10838441 -0.19056435 -0.08803354 -0.15367857
0.038986567 0.007904979 0.06660104 0.06656281 -0.007766973 -0.06121559 0.1495849 -0.00070269324
0.033971503 -0.15252325 -0.18044887 -0.09513085 -0.10298179 0.044184316 -0.085442565 0.008615829
0.17108168 -0.042929575 0.02718687 0.008835417 0.16930608 0.06943929 -0.00028747894 0.093423896
0.04750924 -0.02303073 -0.01904963 -0.13635275 0.1450826 -0.02744595 -0.1592328 -0.06372178
0.0447644 0.014404386 0.101566225 0.109338544 0.09917101 -0.10398297 0.07830175 0.10701012
-0.084094234 -0.008205492 0.027603107 0.017797438 0.060214993 0.14488548 0.17566608 0.045016285
0.12312757 0.07316653 0.12530103 0.13394707 0.019814791 0.046112515 -0.11327872 0.10618359
0.1303118 -0.015428321 -0.041492883 -0.008342882 -0.058267597 0.13525555 -0.15787089 0.5504286
-0.08506114 0.07932385 0.007394147 -0.035073407 0.023472173 -0.016202139 -0.7961291 0.10588736
0.0044779633 -0.10443218 -0.06066897 -0.13105415 0.0017537992 -0.22822198 -0.355155 0.076412335
0.16898216 0.15001486 -0.035367124 -0.07330101 0.11458259 0.07080526 -0.122838035 -0.058436036
0.21057269 -0.08342511 0.05556969 -0.1405402 0.1309278 -0.19098862 0.12839854 -0.013505539
0.09115282 0.14966339 -0.034955755 -0.1261216 -0.13937978 0.10441779 -0.12103178 -0.15990901
-0.15047945 -0.03920561 0.04929474 -0.116252005 -0.06795443 0.19138044 -0.022934478 -0.031369828

weights.2.bias f4 [16]
00000000: 5b46 6140 4034 b53d 4961 8cc0 e074 4b40
00000010: 31ea b33d a667 2040 8691 98c0 d7ea 6c40
00000020: 7472 66bd 2752 21c0 fda8 a6bd 9447 f3bd
00000030: a17a 5340 69ad 0a40 7c39 48bf 09d0 ec40
3.5199192 0.088478565 -4.3868756 3.1790085 0.08784903 2.5063262 -4.767764 3.7018335
-0.056261495 -2.5206392 -0.08137701 -0.11878887 3.3043597 2.166834 -0.78212714 7.400395

weights.3.weight f4 [8, 16]
00000000: efa5 f3bd a69a 723e 6370 70bd c2a2 6d3e
00000010: 3a69 473d c177 2bbd b8c7 c4bd 08a1 07be
00000020: c264 81be b633 13be e552 f1bc f413 513e
00000030: d8ff 023e b7c3 ad3c 6269 7dbe b2dd 013e
00000040: 8330 1e3e 455d f4bd 29a0 ab3d 8284 5abe
00000050: eb32 09be 7696 07be fe4c 6fbe 0d3c e0bc
00000060: b0fa 343d 24b3 853d 7928 683e 9a59 0c3e
00000070: f044 71be 25ef 8ebd a398 f73d 66bf 80be
00000080: 42ea 81bb 439d d03d af83 24be 9480 5f3e
00000090: 811e 21be 10a2 2dbe cb1f 2fbe 515a 1dbd
000000a0: 3287 b93d 6d80 a23d 3742 eebd b9be 663e
000000b0: 885e 02be bd4b 483e 48e1 b03d 0eff b0bd
000000c0: b73a 353e b710 9b3d 4914 61be 3353 f53d
000000d0: 5739 6a3e a096 47be 4e73 86bd 4cf6 55be
000000e0: d992 243e 2a0d 003e c360 333e 571c 813d
000000f0: d73b 47bd 0c0f 09bd 3070 46be 2409 1a3e
00000100: a661 d6bd 1882 9f3c 426d 053b 84cb 8d3d
00000110: 9443 55be 324d 51bd 5624 d33d a401 42be
00000120: 514e eabd 9b61 14be deb8 5fbe bf0c 733e
00000130: 54b8 553e 183e 063e 648a 59be 53d6 31bc
00000140: 8eca c63d 0710 d53d e218 d03c a1b8 1ebe
00000150: 52c8 143a 9fae 64be cfb9 233f 0ea9 433e
00000160: bfb8 c5bd a9df 64be 3f13 9ebb dddd f73d
00000170: 2dc8 33be dba9 1e3e 6f39 2e3e ea0d 28be
00000180: 778b 9f3e a740 d93d 7d5e 52bb 16a6 7f3d
00000190: a9b2 00be efad b239 94dc 9cbe 060f b03c
000001a0: 0394 7abd 479d c9bd 5221 013e 13a8 3cbc
000001b0: cc88 d53c 79d5 6f3a d19c 7fba 313b 563b
000001c0: b60a 4fbe 9b0c 6dbe 169e 02be 3620 e3bd
000001d0: f35b 81be 88e7 b3bc 0b7e 2dbd b90a 1dbd
000001e0: d814 b1bc b9a0 d03d 83c0 d3bd fc8a c33c
000001f0: fbe7 51bd 4bcd 933d 4e23 9fbd 6e4c f43c
-0.11896884 0.23691806 -0.05870093 0.23206618 0.048684336 -0.041862253 -0.09608406 -0.13245022
-0.25272185 -0.14375195 -0.029458473 0.20417768 0.12792909 0.021211488 -0.24747232 0.12682226
0.15448193 -0.11931852 0.083801575 -0.2133961 -0.1339833 -0.1324099 -0.23369214 -0.027372384
0.044184387 0.06528309 0.22671689 0.13706055 -0.23561454 -0.06979207 0.1208966 -0.25146025
-0.0039646933 0.10186245 -0.16065858 0.21826392 -0.15734293 -0.16956353 -0.17101972 -0.03841621
0.090589896 0.079346515 -0.11633723 0.22533692 -0.12731373 0.19560142 0.08636719 -0.08642398
0.17698179 0.075715475 -0.21980394 0.119787596 0.22873436 -0.19491053 -0.065649614 -0.20894736
0.16071643 0.12505022 0.1751738 0.063042335 -0.048641052 -0.033461615 -0.19378734 0.1504255
-0.10467844 0.019471213 0.0020359312 0.06923583 -0.2082656 -0.05109901 0.10309665 -0.18945938
-0.11440719 -0.14490359 -0.21847865 0.23735331 0.20871097 0.13109624 -0.21244198 -0.0108543215
0.09706603 0.104034476 0.02540249 -0.15500118 0.0005675602 -0.22332238 0.63955396 0.19107458
-0.09654378 -0.22350945 -0.0048240717 0.12102864 -0.1755683 0.15494482 0.17014097 -0.16411558
0.3116109 0.106080346 -0.0032099776 0.06241425 -0.12568153 0.00034080396 -0.30637038 0.021491539
-0.06117631 -0.098444514 0.12610367 -0.011514681 0.026066206 0.00091489364 -0.00097508455 0.003268909
-0.2021893 -0.2314934 -0.12755617 -0.11090128 -0.25265464 -0.021960989 -0.042356532 -0.038340304
-0.021616384 0.101869054 -0.10339453 0.023869984 -0.051246624 0.07216891 -0.07770406 0.0298216

weights.3.bias f4 [8]
00000000: d708 7ebe 7f58 163e 62f1 353d 3f0d 0d3d
00000010: bfb5 dc3d 6c47 8cbf 8432 5c41 5f3d bbbd
-0.2480806 0.14682196 0.044419654 0.03443646 0.10776853 -1.0959296 13.762333 -0.09142565

start.weight f4 [128, 144]
00000000: 31a3 34c0 06a6 5d3d 6f7d 63bd 28b8 933d
00000010: b75f 863f beea 28bf 2450 8ebf 77d3 5f3f
00000020: 6fcd 51c0 1d29 16c0 00ee ab3b 8f34 443d
00000030: d7dd 96bd 1bba 593f 88bd 25be 977d 91bf
00000040: 177f 163f fd91 50c0 0122 1ac0 7399 593d
00000050: 6b77 7bbd 469a 18bd 509e 633f 1b7b a6be
00000060: 3588 6cbf 0e62 3f3f 0013 4ac0 f5b1 09c0
00000070: 101f 53bd e434 abbd c616 aa3c 6cce 533f
00000080: 3901 9dbe d850 4ebf 8a68 233f fedc 3cc0
00000090: 317c 02c0 3087 0cbd dad5 a53d 40f7 8f3d
000000a0: f563 643f 44e9 ccbe 7e8a 6fbf 9d54 3e3f
000000b0: c3d0 45c0 1fea ddbf e604 d9bc af04 bd3c
000000c0: 6010 cebc 132b 5b3f c152 a6be 6e30 c0bf
000000d0: 441e 533f bc05 32c0 ca36 dbbf 60e8 253d
000000e0: c3c3 cdba db27 473d 6731 663f 2e68 c8be
000000f0: 64aa 94bf 076d 373f d35a 44c0 9849 05c0
00000100: c2f1 95bd 2f65 05bb 2bb8 7a3b 39ea 3e3f
00000110: ccf5 95bd df02 57bf 8600 383f d168 37c0
00000120: 548b 06c0 7fd7 93bd 8f4a a3bc a8ba 50bd
00000130: 79a0 363f 5f60 34be 5080 04bf 83f7 0c3f
00000140: d875 51c0 48a0 09c0 1bdc 11bd e400 5f3c
00000150: cb68 47bd a6b1 263f 224d f4bd 3417 77bf
00000160: bc8b 1a3f 5943 3cc0 c583 02c0 4e7e 613d
00000170: fd86 363d 1b88 85bd f9ce 393f 74bb 993d
00000180: 435c 34bf 781d 1b3f 1d35 43c0 d2d3 34c0
00000190: d66c 453c 38bf 30bd 366c 4c3c 8a71 493f
000001a0: 3c86 2d3e 6f9b 2bbf 1910 fa3e d172 40c0
000001b0: db68 24c0 0353 49bd f238 653d d345 473d
000001c0: 15e6 383f fd1b 383e 42b3 5dbf 8536 093f
000001d0: 4498 31c0 c0c1 3cc0 9662 983c 36bc 5c3c
000001e0: d0e8 11bd b2c5 333f 2cd3 823e 66e9 97bf
000001f0: 8cfc 163f b352 37c0 9caa 2bc0 16aa d9bc
00000200: eb0d eebc 00a9 55bb 78a8 173f 667c 373f
00000210: 7ede 0ebf 3647 c03e 0971 2bc0 e23a 38c0
00000220: e61f 84bd 069e d33c d6c2 edbb 38e0 063f
00000230: 702f 853f 2d28 3dbf 65a4 033f ace3 2fc0
00000240: 9bb4 3bc0 b63d f0bc dabe d5bb 5e1f 86bd
00000250: a7ec 22c0 8631 c43d d25f 8fbc a278 17c0
00000260: 618c 54c0 c114 32c0 abbb 293b 305f 42b8
00000270: ab49 4bbc e6c1 22c0 de03 efbd 06b5 b1be
00000280: 6f3a 13c0 1d36 4fc0 3c31 27c0 03d4 653d
00000290: 3d9e 313d cbfa 15bc 21c8 24c0 dd72 04be
000002a0: b285 30bd 9c2b 1cc0 27f9 59c0 cedd 2cc0
000002b0: 53bd 12bd 4f4a 533d 5ca4 92bd 03a8 22c0
000002c0: 7ba5 b63c aeb5 733d 54db 1cc0 e39c 52c0
000002d0: 7d23 12c0 daf8 803d afa5 fe39 00f9 e1bb
000002e0: e93a 22c0 a49e 2b3e 6fab 3e3e 5ec9 11c0
000002f0: 5470 60c0 8e1d 21c0 7b96 e2bc 8cb7 a93b
00000300: 3c85 9a3d 9d68 28c0 2eb3 593d de7b 13bf
00000310: 1063 0dc0 2bcc 50c0 31cb 1fc0 960a 4b3c
00000320: c323 d0bb db95 9e3c 2388 20c0 2a89 653e
00000330: 4580 06be 3a38 18c0 72e4 54c0 3173 29c0
00000340: abf2 54bd 8213 e9bd 2663 a8bd 4c99 1ec0
00000350: 69dc 8c3e cda2 143d 9300 1ac0 bca8 58c0
00000360: 669e 2bc0 fbae e03c 97a4 63bc d6c1 e1bb
00000370: 5727 22c0 76a3 013e 235d 1e3e 00cd 11c0
00000380: cc79 71c0 7fcc 10c0 86ce b33c 5576 553d
00000390: f0ff 703d cd59 27c0 a25e 133e 0775 e83c
000003a0: c35d 15c0 da4a 60c0 d3fb 2ac0 ab19 43bd
000003b0: 801a 6c3d 5ee6 973d 2b52 2ac0 b9e7 803e
000003c0: 9f11 a2be b3b8 19c0 26a2 5ec0 885d 1fc0
000003d0: 58a0 99bd a08b 893b 4b3d 3c3c d36f 20c0
000003e0: ea60 29bd f232 d4bc bac6 0bc0 3a5e 5ec0
000003f0: 4dae 2fc0 2e65 323d 266c da3b 2603 913d
-2.8224604 0.05411341 -0.055539545 0.072128594 1.049796 -0.6598319 -1.1118207 0.87432045
-3.2781637 -2.3462594 0.0052468777 0.047901686 -0.07366531 0.850496 -0.16185582 -1.1366452
0.58787674 -3.2589104 -2.4083254 0.053124856 -0.061393183 -0.0372565 0.8891344 -0.32515797
-0.92395335 0.74758995 -3.1574097 -2.1514866 -0.051543295 -0.083596975 0.020762812 0.8273685
-0.30664995 -0.8059211 0.6383139 -2.9509883 -2.03883 -0.034308612 0.080974296 0.07029581
0.8921502 -0.40021718 -0.935707 0.7434786 -3.0908668 -1.7337073 -0.026491594 0.023073522
-0.025154293 0.856126 -0.3248501 -1.501478 0.82468057 -2.7816 -1.7126095 0.040504813
-0.00156986 0.048621994 0.8991913 -0.39141983 -1.1614499 0.7165074 -3.0680435 -2.0826168
-0.07321502 -0.00203545 0.0038256745 0.74576145 -0.07322273 -0.83988756 0.718758 -2.8657725
-2.102254 -0.07218837 -0.019933013 -0.05095926 0.7133861 -0.17614888 -0.5175829 0.5506517
-3.2728176 -2.1504078 -0.0356103 0.013611052 -0.048683923 0.6511482 -0.119287744 -0.9651978
0.6036947 -2.9416106 -2.0392926 0.055052094 0.04456233 -0.06520101 0.7258144 0.07506457
-0.7045328 0.6059184 -3.0501168 -2.8254285 0.012049874 -0.04315111 0.012476971 0.7868887
0.16945738 -0.6703405 0.48840407 -3.0070078 -2.5688999 -0.04915143 0.05596251 0.048650574
0.7222608 0.17979427 -0.8660165 0.53598815 -2.7749186 -2.9493256 0.018601697 0.013472607
-0.035622418 0.70223534 0.25551736 -1.1868103 0.58979106 -2.8644226 -2.6822882 -0.026570361
-0.029059371 -0.0032601953 0.5924144 0.7167419 -0.55808246 0.3755433 -2.678774 -2.878594
-0.06451397 0.025832187 -0.0072558923 0.5268588 1.0405102 -0.7388943 0.5142272 -2.748271
-2.9328983 -0.029326301 -0.0065229954 -0.065489516 -2.545694 0.09579758 -0.017501745 -2.3667378
-3.321068 -2.7825167 0.0025899212 -4.6341855e-05 -0.0124077005 -2.5430846 -0.116706595 -0.34708422
-2.3004415 -3.2376778 -2.61238 0.056110393 0.0433638 -0.009154032 -2.574715 -0.12934442
-0.04309625 -2.4401617 -3.405832 -2.701038 -0.035825085 0.051584538 -0.07160255 -2.5415046
0.022295704 0.059499435 -2.4508867 -3.2908256 -2.283416 0.06297465 0.000485701 -0.006896138
-2.5348456 0.16759735 0.18620084 -2.2779155 -3.506856 -2.5174289 -0.027659645 0.005179351
0.07544944 -2.631385 0.053149395 -0.5761088 -2.2091713 -3.2624614 -2.4967768 0.012392661
-0.0063519194 0.019358566 -2.5083091 0.22415605 -0.13134868 -2.3784318 -3.3264432 -2.6476557
-0.05198924 -0.11380674 -0.08222036 -2.4781065 0.2751191 0.03628807 -2.406285 -3.3852987
-2.6815429 0.027427187 -0.013894222 -0.006889562 -2.533651 0.12660012 0.15465216 -2.2781372
-3.773059 -2.2624815 0.021949064 0.052114803 0.05883783 -2.614856 0.14391568 0.028376115
-2.3338478 -3.5045686 -2.6716201 -0.0476319 0.05764246 0.07416986 -2.6612651 0.2517679
-0.3165407 -2.4018981 -3.4786468 -2.4900837 -0.07501286 0.004197553 0.011489223 -2.5068252
-0.04135219 -0.025903199 -2.1840043 -3.4745011 -2.7450135 0.043553524 0.0066657243 0.07080679

start.bias f4 [128]
00000000: a797 133f a019 d9bf a763 69c0 d8ab 0cc0
00000010: 83b3 30c0 7ba2 163f ca84 7f40 749d de3f
00000020: b165 c2bd 96c2 a7bf 5a2f b1c0 d964 8cc0
00000030: 4004 4940 a432 7ec0 6696 a0bf 41cd c740
00000040: 2da6 7ebf f180 cd3f e2d3 6140 08b8 233f
00000050: 0fa6 7740 a496 fd3f 6438 52c0 ec14 8640
00000060: 7b26 c540 6736 0bc0 6a8b 0fbf 5dbe 60be
00000070: fb98 0040 2bb4 1940 e7fa 65c0 0c0c 8e40
00000080: 5a88 ed3f 76ed 15c0 5518 c73f ea0c 08c0
00000090: faaa aebd d758 e9bf a7ef 3140 5a13 fbbf
000000a0: 3dff 0e40 f4f6 80c0 7d24 b340 a296 0ec0
000000b0: 4b01 d1be a194 993f 3534 53c0 5f24 1fc0
000000c0: 6dcc 873f 8948 66bf c785 eb3f 08a6 07c0
000000d0: 34de 8840 6b48 92c0 832f 1dc0 d608 9140
000000e0: c95a 9940 572e 2740 a1f4 6ec0 0258 32be
000000f0: ef95 b140 84b5 69bf 10b9 eebf d13d d040
00000100: 6ac4 80be 47b0 9e40 c882 1b3f 3a73 603f
00000110: bea0 8640 ba9b ca3e b2f7 9ec0 660e 6fbf
00000120: cad3 2fc0 aca4 eabe 3c22 44bf 41fd 403e
00000130: dffd 983f 7ce1 8ac0 f1e1 9a40 3425 6c40
00000140: c23d 0140 1063 9f3f ac92 61c0 0a1e ce3f
00000150: b74b 95c0 88da bf40 16d1 c140 853c a340
00000160: 5046 a640 f442 80c0 e272 ca3f 598a ab40
00000170: 4061 6540 42b2 a23e 7ceb 8240 8553 6abe
00000180: da3e 95c0 3f31 04c0 2af0 8940 21a9 9640
00000190: 9034 babf b8a2 1fc0 ca7c 97c0 5f55 19be
000001a0: 5b12 82c0 b46b d13f d5a4 2140 50fd 50c0
000001b0: dd14 a040 1ddd 98bf 1fc0 c5c0 1a46 4c40
000001c0: fa0d ec3f 5fca 0840 17a8 5ec0 7ce9 cdbf
000001d0: f3db 9fbe ed3c 9740 63cc 943f cd5b c5bf
000001e0: c461 683f 4397 833e 722c 5b40 bfee e5bf
000001f0: ad49 9dbf dff7 debd 9ae8 bebf 4714 e2bf
0.5765328 -1.6960945 -3.6467073 -2.1979885 -2.7609565 0.58841676 3.9924798 1.7391801
-0.09492052 -1.3106258 -5.53703 -4.3873105 3.1408844 -3.9718409 -1.2545898 6.2438054
-0.99472314 1.6054975 3.5285573 0.63952684 3.8695104 1.9811597 -3.2846918 4.190054
6.1609473 -2.1751955 -0.56072104 -0.21947618 2.0093372 2.4016216 -3.5934389 4.4389706
1.8557236 -2.3426185 1.55543 -2.1257882 -0.08528705 -1.8230237 2.7802522 -1.9615281
2.2343285 -4.0301456 5.598204 -2.227944 -0.408213 1.1998483 -3.3000615 -2.486595
1.0609261 -0.8995443 1.8400201 -2.1195087 4.2771244 -4.57134 -2.456025 4.5323286
4.792332 2.6122034 -3.733681 -0.17416385 5.5495524 -0.91292596 -1.8650227 6.507546
-0.25149852 4.959018 0.6074643 0.8767582 4.207122 0.39571935 -4.9677362 -0.93381345
-2.7473016 -0.4582876 -0.7661474 0.18846609 1.1952475 -4.340025 4.8400807 3.6897707
2.0193944 1.2452106 -3.5245771 1.6102917 -4.6654925 5.995426 6.056773 5.1011376
5.196083 -4.008173 1.581631 5.360638 3.5840607 0.31776625 4.0912457 -0.22883423
-4.6639223 -2.0655057 4.310567 4.7081456 -1.4547291 -2.4943066 -4.733983 -0.14973973
-4.0647407 1.6360993 2.5256855 -3.265461 5.002547 -1.1942478 -6.1797023 3.1917787
1.8441765 2.1373518 -3.4790094 -1.6086879 -0.31222495 4.726187 1.1624874 -1.541864
0.9077418 0.2570134 3.4245877 -1.7963485 -1.2288109 -0.108871214 -1.4914734 -1.7662438

end.weight f4 [1, 8]
00000000: 3747 e2bd 47cd 9bbe 6c3c 583e ffbf 6bbe
00000010: cf90 68be 8db4 6fbb d76e a33d 78bc 84be
-0.110487394 -0.30430052 0.21116799 -0.2302246 -0.2271149 -0.0036576123 0.079801254 -0.2592504
