old_data/varmail/latency_90.pth (torch, 76328 bytes, 3 tensors)

start.weight f4 [128, 144]
00000000: 5232 7641 0694 23bd 9a2d 2f3d 9807 44bd
00000010: fcd0 a03d a384 e840 0244 9741 3ce4 9541
00000020: 9ae0 9441 95a6 6141 707b 923d 3506 8fbc
00000030: cbd0 7cbd a240 e33c d089 ea40 4513 9841
00000040: d29b 9141 41ad 8941 7077 5f41 fbbe b63c
00000050: fee1 3dbd 1b86 37bd 5bbd 233e bff6 e740
00000060: 53c0 9741 3eae 8e41 f6d7 8641 896f 6641
00000070: 96b9 793c 3e14 13bd 0083 413c 09ed 3e3e
00000080: f957 e740 63cd 9641 e5dc 8b41 ebf4 6541
00000090: eadf 7241 1a82 813d a27a 9f3d 0e84 623d
000000a0: dcb1 2b3e b5fc e940 4774 9641 4053 8b41
000000b0: ed62 8241 9bb7 6341 0b3b f1bc cb98 513c
000000c0: 4678 13bd 6720 c63c c559 e740 4bb6 9741
000000d0: f818 8f41 21b6 6b41 883c 5541 9a88 8abd
000000e0: 925e 09bc b0c6 75bd bf9c 043e c823 e840
000000f0: 4b5f 9841 80fd 8d41 a111 7841 3427 5f41
00000100: eb81 d53b e56e 11bd a8be 2cbd 682c 553e
00000110: baec e740 8641 9541 71f8 8c41 7979 7041
00000120: 8dcc 6d41 7890 6f3d f59b 333d 3bbf 483d
00000130: 9fa7 513d 562f e540 c297 9741 ca10 8f41
00000140: f640 8a41 e014 6c41 f0fa 623d 3d07 27bd
00000150: 609a 463c bc4b f83d 6321 e340 7280 9741
00000160: 3cc2 8f41 bbca 7b41 c54d 5b41 f016 23bd
00000170: 22bc 303c f480 a13d 8a41 acbe 74a0 f540
00000180: 94d7 9341 7672 8e41 8b32 8241 39ec 6741
00000190: 26d9 903c 4cd5 6dbd 3669 053d 4d3e 93be
000001a0: 2178 e240 d1c0 9641 02af 9141 c2c0 8941
000001b0: 040d 7041 d6d8 43bd bfc3 a23c 6642 283d
000001c0: 909b 35be 92d7 e440 f48b 9741 ade9 9441
000001d0: e36e 8941 4d57 6e41 e085 28bc ab97 0c3d
000001e0: d7ff 96bd 2b04 97bd 4b1b e040 53b2 9541
000001f0: c81f 9141 17ab 9741 d13e 7941 56db 93bb
00000200: a6f6 65bc 9654 aabd d61b e9bb efe2 e040
00000210: 969d 9641 57b8 9741 a2c5 9741 61b9 8841
00000220: 4096 aebc 61da cfbc 1ef5 463d 6c37 853d
00000230: 9958 dd40 6439 9741 2b0c 9a41 fa6a a441
00000240: 73ac 4240 6b2d 833b 4095 b43c e77b 8f3d
00000250: 5179 93bd 7a42 de40 35d1 86c1 e888 94c1
00000260: 400f f9c0 10a8 b03f b67c 4dbc 919d 5d3a
00000270: c60a 893c faad 71bd f5ff d940 2a34 8fc1
00000280: 2b2a 9dc1 7c92 2ac0 aca8 8240 102b 003d
00000290: 6954 ab3b 6f15 a1bd 4631 11bc 45e5 de40
000002a0: 8102 8ac1 0656 99c1 41ec a2c0 0585 8040
000002b0: 8858 2dbd 7fb3 803c 6e89 303d f2c8 51bc
000002c0: 3511 da40 a7f7 8ac1 8f1d 9bc1 c5c3 d9bf
000002d0: 92df 2440 563f 443d 04d6 04bb a8ce 4dbd
000002e0: 5a4a cc3c 0cc3 d940 7c0e 8bc1 9d71 97c1
000002f0: 7dc0 2dc0 4610 4b40 2b5f 0e3b 42af f53c
00000300: 5397 07bd ea3b e03d f8b6 db40 9aa5 89c1
00000310: c84c 97c1 71c0 7c3e c24b 7040 5b14 82bd
00000320: dfe9 9d3d 0073 2ebc 7a14 00bd 3f96 d740
00000330: 9bdc 88c1 d0ab 95c1 7243 4cc0 f605 5940
00000340: 4bcd a0bc c0b1 a6bc 5818 4dbd 4326 ddba
00000350: 8e5b e940 7f17 91c1 4b2c 9dc1 a760 9bbf
00000360: 7e27 4340 36f0 54bd 3acf 00bd ce7b 43bd
00000370: a8e3 f3bd 35fb de40 9653 87c1 8aeb 94c1
00000380: 9029 9fc0 5106 3440 b6d9 2cbd b016 2139
00000390: 00a6 b8ba d03b 58be 4041 de40 7099 8bc1
000003a0: 982b 9ac1 2d63 95c0 c3f4 9840 16fc a2bb
000003b0: a1d4 0cbd f63a 36bc 4be0 a0bb 6be4 da40
000003c0: c0e7 8ec1 8094 9ec1 8aeb 0bc0 47bd 6140
000003d0: 8635 4fbd 74e0 203d 1e26 5fbd ba8b adbd
000003e0: a8a8 dd40 e199 89c1 18ae 95c1 e56e 91c0
000003f0: 2ff6 66bd 3064 a7bc 1db5 8ebd f337 8e3d
15.387285 -0.039936088 0.0427681 -0.047858804 0.078523606 7.266191 18.908207 18.736443
18.609669 14.103169 0.0715245 -0.017459014 -0.061722558 0.02774078 7.329323 19.009409
18.201084 17.209597 13.96666 0.022307863 -0.0463581 -0.044805627 0.15990202 7.2488704
18.968908 17.83508 16.85545 14.40223 0.015242001 -0.035907976 0.011811018 0.18645109
7.229489 18.850286 17.482859 14.372294 15.1796665 0.06323643 0.07787062 0.05530172
0.16767067 7.312098 18.806776 17.41565 16.298304 14.232326 -0.0294471 0.012792776
-0.036003374 0.024185373 7.229708 18.96401 17.887192 14.731965 13.327278 -0.06764336
-0.008384364 -0.060003936 0.12950419 7.254368 19.04653 17.74878 15.504304 13.947071
0.0065157316 -0.035506148 -0.04217401 0.20817721 7.2476473 18.656994 17.62131 15.029656
14.862439 0.058487386 0.043849904 0.049010497 0.051185247 7.1620283 18.9491 17.883198
17.28172 14.755096 0.055415094 -0.040778387 0.012121767 0.1212382 7.0978255 18.937717
17.969841 15.736995 13.706487 -0.039816797 0.010787042 0.07885924 -0.33643752 7.6758366
18.480263 17.80589 16.27468 14.495172 0.01768167 -0.058064744 0.03257104 -0.2875847
7.077164 18.844149 18.210453 17.21912 15.003178 -0.047814213 0.01986873 0.041078947
-0.17735124 7.1513147 18.943336 18.6141 17.179144 14.896314 -0.010285825 0.03432433
-0.07373016 -0.07373842 7.0033317 18.712072 18.140518 18.95854 15.577836 -0.004512231
-0.014035856 -0.08316915 -0.007113914 7.027702 18.826946 18.96501 18.9715 17.090517
-0.02131188 -0.025372686 0.048573606 0.065047115 6.917065 18.903023 19.255941 20.552235
3.0417755 0.004003217 0.022043824 0.07006054 -0.07200874 6.945615 -16.852152 -18.566849
-7.7831116 1.3801289 -0.01254194 0.000845396 0.01672877 -0.059003808 6.8124948 -17.90047
-19.64559 -2.6651907 4.08309 0.031291068 0.0052285683 -0.07865416 -0.008861845 6.965487
-17.251223 -19.167004 -5.0913396 4.0162377 -0.042320758 0.01571059 0.043099813 -0.012804257
6.8146005 -17.370924 -19.389433 -1.7012869 2.5761456 0.047911964 -0.0020269165 -0.05024591
0.024937797 6.8050594 -17.382072 -18.930475 -2.7148736 3.1728683 0.0021724205 0.029990796
-0.0331033 0.10948928 6.866085 -17.20586 -18.91249 0.24682786 3.754624 -0.06351539
0.07710623 -0.010647535 -0.031269528 6.7370906 -17.107718 -18.708893 -3.1916165 3.3909888
-0.019629141 -0.02034843 -0.050072044 -0.0016872365 7.292426 -18.136473 -19.646627 -1.2138871
3.0492854 -0.051986896 -0.031447627 -0.04772549 -0.11908656 6.968165 -16.915813 -18.61501
-4.9738235 2.8128855 -0.042199813 0.00015362608 -0.0014087558 -0.21116567 6.945465 -17.44992
-19.271286 -4.6683564 4.779878 -0.0049738986 -0.034382466 -0.011122456 -0.0049095503 6.840383
-17.86316 -19.82251 -2.1862512 3.5271776 -0.050588153 0.039276555 -0.05447971 -0.08473916
6.926838 -17.200136 -18.710007 -4.544787 -0.056387123 -0.020433515 -0.06968138 0.06944265

start.bias f4 [128]
00000000: 85ac 5c41 8da2 5cc0 0773 4fc1 9e88 1e41
00000010: 37e4 3141 b9cb 8040 ae02 85c1 a5d8 e340
00000020: 5244 2ec1 8caf 3bc1 ef68 2740 46b0 b240
00000030: 9cca e240 a90d 4ec1 b33f 19c1 b3b8 6dc1
00000040: bb52 7641 89a6 afc0 b490 8640 fef6 ff40
00000050: 0a04 2e41 bfb4 62c1 d5c5 d2c0 f4e2 7941
00000060: 3525 33c1 8368 6e41 dbd3 0041 d707 4041
00000070: 629e 54c1 9177 1041 1f37 30c1 760a 75c0
00000080: 5fb3 e43f 7f3d 26c1 092f 52c1 23b5 37c0
00000090: 2b82 30c1 5f89 7841 c0e0 fac0 21fc 8b3f
000000a0: 89ae b840 70a7 1641 0757 01c1 be17 4bc1
000000b0: 9b55 a73e c85e ca40 1ebb 5f40 4505 943e
000000c0: 536c 51c0 7d82 843f 2665 86c0 56a4 9fbf
000000d0: 4b63 fa40 d30d 5141 1f77 23c1 088e 26c1
000000e0: f7ce be40 e3ab 4cc1 ae6e 00c1 aae0 f5bf
000000f0: bab1 d8c0 b777 ad40 c6df 4a40 37d4 f540
00000100: 9018 78c0 511d b740 2acd 43c1 8637 2ac1
00000110: a5b6 6041 c443 85c1 8e1d fb40 2f5c 6fc1
00000120: 95d3 773f 0cd1 3d3e 584b 1d40 02e8 da40
00000130: 0003 d040 8e4b 8dbd 46e1 d440 031e 33c1
00000140: ff0c f840 d99c 0e41 aae6 73c0 0ab4 4f41
00000150: 2fe0 0841 f225 4240 32c1 02c0 32dd 8ac1
00000160: fc02 b740 7166 543f d417 c63f cc81 1cc1
00000170: 4aa9 1741 70fb 4ec1 ccbb 4541 4519 c440
00000180: 8c45 ee3f 95c7 77c1 75a3 343f 036b 4c40
00000190: df08 5bc1 84e8 09c1 e252 c940 89cd 0a40
000001a0: b5a1 7cc1 fd85 54c1 5ee4 36c1 4000 b1c0
000001b0: df1e a7c0 e5f7 7440 a950 d5bf 099d ffc0
000001c0: 1ca3 3fbf 4ee4 903d 2374 4cc1 4ae0 c9c0
000001d0: a520 4bc1 2920 ddc0 6318 5c40 ccc7 e3c0
000001e0: c16a 33c1 1357 08bf f388 54c1 c730 67c1
000001f0: 96b7 0d41 43fe f740 bb58 1a41 2ba2 aec0
13.792119 -3.4474213 -12.965583 9.908354 11.1182165 4.0248685 -16.626308 7.120196
-10.89168 -11.730358 2.6157796 5.5840178 7.0872326 -12.878335 -9.578052 -14.857593
15.395198 -5.489079 4.205164 7.9989004 10.875986 -14.169127 -6.5866494 15.6179085
-11.196584 14.900516 8.051723 12.001914 -13.288668 9.029191 -11.013457 -3.8287635
1.786724 -10.390014 -13.136483 -2.8704307 -11.031779 15.533538 -7.8399353 1.0936319
5.7713056 9.415878 -8.083747 -12.693296 0.326825 6.32407 3.4957957 0.2891027
-3.2722366 1.0352322 -4.199847 -1.2472026 7.8246207 13.065875 -10.216582 -10.409676
5.9627643 -12.791965 -8.027021 -1.9209187 -6.771695 5.4208636 3.169908 7.682155
-3.8764992 5.7223287 -12.237589 -10.638556 14.044591 -16.658089 7.8473577 -14.960006
0.96807224 0.18536776 2.4577236 6.8408213 6.500366 -0.068991765 6.652499 -11.194827
7.7515864 8.913293 -3.8109536 12.981455 8.554732 3.033566 -2.0430417 -17.358006
5.7191143 0.82968813 1.5476022 -9.781689 9.47883 -12.936386 12.358349 6.1280847
1.8614974 -15.486226 0.70561916 3.1940315 -13.689666 -8.6192665 6.2913675 2.1687949
-15.789479 -13.282712 -11.430754 -5.5312805 -5.2225184 3.8276303 -1.666524 -7.9879193
-0.7485826 0.07074796 -12.778354 -6.308629 -12.69547 -6.910176 3.4389884 -7.1181393
-11.213563 -0.53257865 -13.283435 -14.449409 8.857321 7.749788 9.646663 -5.457296

end.weight f4 [1, 8]
00000000: 3c5a 4a3e 89ca 28bd 0ac2 bc3c 3a12 83be
00000010: 9a39 a43e 1432 ba38 3321 623d e33b 29b7
0.19760984 -0.041208778 0.023041744 -0.25599843 0.32075197 8.878499e-05 0.055207442 -1.0087128e-05
