old_data/varmail/latency_end.pth (torch, 76176 bytes, 3 tensors)

start.weight f4 [128, 144]
000000 1e 01 81 41 06 94 23 bd 86 15 22 3d 98 07 44 bd
       16.125546 -0.039936088 0.039571308 -0.047858804
000010 7f 62 29 bc c7 ae 92 3f ac 7c d2 41 48 59 d3 41
       -0.010338425 1.1459588 26.310875 26.418594
000020 7a 01 88 41 65 bb 43 41 70 7b 92 3d 7f 38 d6 3c
       17.000721 12.233251 0.0715245 0.026149986
000030 cb d0 7c bd c8 19 78 bd 5c 6e a2 3f 7b 32 d3 41
       -0.061722558 -0.060571462 1.2689929 26.399649
000040 69 b3 ce 41 fd ea 85 41 2d b0 7e 41 fb be b6 3c
       25.837603 16.73974 15.918012 0.022307863
000050 38 17 21 bc 1b 86 37 bd 6e d9 92 3d 34 a9 97 3f
       -0.009832196 -0.044805627 0.07170378 1.1848512
000060 31 e0 d2 41 9f 7a cc 41 f6 d2 81 41 8e ef 63 41
       26.359468 25.559874 16.228008 14.245985
000070 96 b9 79 3c f5 fe 86 3c 00 83 41 3c ae f1 c7 3d
       0.015242001 0.016478995 0.011811018 0.097628936
000080 19 e2 98 3f 3e e6 d1 41 78 14 c9 41 3a 5c 41 41
       1.1944 26.237423 25.134995 12.085016
000090 cf a6 6e 41 1a 82 81 3d 96 5f 77 3d 0e 84 62 3d
       14.915725 0.06323643 0.060393892 0.05530172
0000a0 b6 06 c0 3d 61 27 9e 3f e9 99 d1 41 33 ec c8 41
       0.0937628 1.2355767 26.200151 25.115332
0000b0 ed 03 73 41 c3 84 55 41 0b 3b f1 bc 99 b4 29 bd
       15.188458 13.344913 -0.0294471 -0.041431997
0000c0 46 78 13 bd bd 70 50 bd 93 cc 8d 3f 58 d4 d2 41
       -0.036003374 -0.050888766 1.1078056 26.353683
0000d0 2c 55 cc 41 be 8f 4c 41 13 dc 4e 41 9a 88 8a bd
       25.541588 12.785093 12.928729 -0.06764336
0000e0 2d 32 86 3d b0 c6 75 bd 68 17 9c 3d 7d 4c 9a 3f
       0.06552539 -0.060003936 0.07621652 1.2054592
0000f0 2e 7a d3 41 0e e9 cb 41 76 29 68 41 cc a1 5e 41
       26.434658 25.488796 14.510122 13.914501
000100 eb 81 d5 3b d9 ca 14 bd a8 be 2c bd f4 c0 13 3e
       0.0065157316 -0.036326263 -0.04217401 0.14429075
000110 53 5a 91 3f 4f 5d d0 41 47 5d ca 41 a4 24 59 41
       1.135569 26.04556 25.295546 13.571445
000120 97 18 70 41 78 90 6f 3d e9 f1 91 3d 3b bf 48 3d
       15.006003 0.058487386 0.07126219 0.049010497
000130 7b 70 4b bc 59 c8 86 3f e0 bd d2 41 c1 4f cd 41
       -0.012416954 1.0529891 26.342712 25.663942
000140 54 4b 85 41 21 ff 5c 41 f0 fa 62 3d 2e d4 b2 bd
       16.661781 13.812287 0.055415094 -0.08731876
000150 60 9a 46 3c 71 10 5e 3d 07 1c 7e 3f fe 94 d2 41
       0.012121767 0.0542149 0.99261516 26.32275
000160 16 99 cd 41 a1 65 61 41 be 9e 57 41 f0 16 23 bd
       25.699749 14.087312 13.476255 -0.039816797
000170 30 e3 d9 3d f4 80 a1 3d 4b ce c8 be 86 59 cb 3f
       0.10639036 0.07885924 -0.3921989 1.5886695
000180 71 06 cf 41 30 42 cc 41 b3 65 67 41 4c c9 5f 41
       25.878145 25.532318 14.462329 13.986645
000190 26 d9 90 3c ad 30 2a bd 36 69 05 3d 6b 31 af be
       0.01768167 -0.041550327 0.03257104 -0.3421739
0001a0 2d 43 7c 3f fa c4 d1 41 07 ff ce 41 82 5c 86 41
       0.9854 26.22118 25.874525 16.79517
0001b0 c3 a7 6b 41 d6 d8 43 bd 9a 8d 4b bd 66 42 28 3d
       14.728457 -0.047814213 -0.04969559 0.041078947
0001c0 3d 08 6d be ae 17 7b 3f f9 a3 d2 41 b6 41 d2 41
       -0.23147674 0.9808301 26.330065 26.282085
0001d0 3a 25 8e 41 32 46 62 41 e0 85 28 bc 51 dc 93 3d
       17.768177 14.142138 -0.010285825 0.072197564
0001e0 d7 ff 96 bd 2b 04 97 bd 99 a3 52 3f 9f cc d0 41
       -0.07373016 -0.07373842 0.8228088 26.099913
0001f0 49 98 ce 41 f6 be 8e 41 6f 28 85 41 56 db 93 bb
       25.824358 17.843243 16.644743 -0.004512231
000200 c4 8c ae bd 96 54 aa bd d6 1b e9 bb 9b 62 4d 3f
       -0.08522943 -0.08316915 -0.007113914 0.80228585
000210 00 b7 d1 41 61 18 d4 41 ce 86 9f 41 ac 3a 96 41
       26.214355 26.511904 19.940823 18.778648
000220 40 96 ae bc d2 1d a8 3b 1e f5 46 3d 6c 37 85 3d
       -0.02131188 0.005130508 0.048573606 0.065047115
000230 c2 cd 32 3f 76 50 d2 41 de 41 d6 41 74 4f a6 41
       0.6984521 26.289288 26.782162 20.788795
000240 d1 12 0b 41 6b 2d 83 3b e0 f2 b3 bc e7 7b 8f 3d
       8.692094 0.004003217 -0.021966398 0.07006054
000250 74 5b da bd 2b 49 4b 41 14 4a ad c1 86 cb b8 c1
       -0.106619745 12.705363 -21.661171 -23.099377
000260 9b 27 21 c1 20 52 a6 40 b6 7c 4d bc 51 d6 ba bc
       -10.072169 5.197525 -0.01254194 -0.022807272
000270 c6 0a 89 3c d1 76 bc bd 92 aa 49 41 d8 18 b6 c1
       0.01672877 -0.0920235 12.604143 -22.76213
000280 5d 5b c1 c1 56 5b b5 c0 4b fd 15 41 10 2b 00 3d
       -24.169611 -5.6673994 9.374339 0.031291068
000290 04 f0 f4 bb 6f 15 a1 bd 4e 63 3c bd ff 13 4c 41
       -0.007474901 -0.07865416 -0.04599314 12.754882
0002a0 d9 e6 b0 c1 37 ea be c1 45 7d 1b c1 58 b9 1b 41
       -22.112719 -23.864363 -9.718083 9.73275
0002b0 88 58 2d bd 1e a5 c7 bb 6e 89 30 3d 2e 90 52 bd
       -0.042320758 -0.0060926815 0.043099813 -0.05140703
0002c0 b0 8c 49 41 72 70 b1 c1 54 23 c1 c1 86 e1 8e c0
       12.596848 -22.179905 -24.14225 -4.4650297
0002d0 64 78 f4 40 56 3f 44 3d 68 8b 1c 3d a8 ce 4d bd
       7.639696 0.047911964 0.038218886 -0.05024591
0002e0 50 ce e9 3c 6b 6c 49 41 44 92 b1 c1 ab 61 bd c1
       0.02854076 12.588969 -22.196419 -23.67269
0002f0 6c 3d 0c c1 14 d8 fd 40 2b 5f 0e 3b 23 4a 1d be
       -8.764996 7.9326267 0.0021724205 -0.15360312
000300 53 97 07 bd 8b 46 e9 3d 64 6f 4a 41 48 45 b0 c1
       -0.0331033 0.11390408 12.652195 -22.033829
000310 50 7e c2 c1 be 11 43 c0 9f 37 0a 41 5b 14 82 bd
       -24.311676 -3.047958 8.638579 -0.06351539
000320 4b e7 1f 3e 00 73 2e bc ff e0 61 bc 52 57 48 41
       0.15615575 -0.010647535 -0.013786553 12.521318
000330 d3 74 af c1 4e 98 bc c1 b5 89 0c c1 6c 12 13 41
       -21.932043 -23.574368 -8.78362 9.191998
000340 4b cd a0 bc 4a 60 94 bc 58 18 4d bd 3f 63 72 3c
       -0.019629141 -0.01811232 -0.050072044 0.01479417
000350 61 80 50 41 64 78 b6 c1 c7 28 c4 c1 74 3f c9 c0
       13.0313425 -22.808784 -24.51991 -6.2889957
000360 8d 6c c3 40 36 f0 54 bd 7c 2a bc 3d ce 7b 43 bd
       6.107001 -0.051986896 0.09187791 -0.04772549
000370 84 68 ca bd 22 5f 4b 41 cd d4 ac c1 d5 c6 c1 c1
       -0.09883216 12.710726 -21.603907 -24.222086
000380 e9 bf 0f c1 bf d9 f7 40 b6 d9 2c bd 49 93 8c bd
       -8.984353 7.7453303 -0.042199813 -0.0686403
000390 00 a6 b8 ba ce 59 48 be 53 b1 4b 41 f0 2b b2 c1
       -0.0014087558 -0.19565508 12.730792 -22.271454
0003a0 39 d2 bf c1 1a 5c 2e c1 5f 88 21 41 16 fc a2 bb
       -23.977648 -10.897486 10.095794 -0.0049738986
0003b0 7e 15 d3 3c f6 3a 36 bc f6 59 2f bc 2b 18 4a 41
       0.025767084 -0.011122456 -0.010702601 12.6309
0003c0 80 92 b5 c1 77 45 ca c1 27 5d 9f c0 49 b6 18 41
       -22.696533 -25.283918 -4.980121 9.544503
0003d0 86 35 4f bd 03 fc fd 3c 1e 26 5f bd 9e 0b bb bd
       -0.050588153 0.031003958 -0.05447971 -0.09133075
0003e0 74 78 4b 41 f4 63 b0 c1 89 86 ba c1 88 ce 20 c1
       12.7169075 -22.048805 -23.315691 -10.050423
0003f0 9f 2f 98 40 30 64 a7 bc df 4a 1e bd f3 37 8e 3d
       4.755813 -0.020433515 -0.03864562 0.06944265

start.bias f4 [128]
000000 89 63 8e 41 0e a0 08 40 ea d4 7a c1 63 e5 b1 40
       17.798601 2.134769 -15.676981 5.5592513
000010 c8 93 16 41 09 06 e8 3d dc aa b2 c1 bf 71 22 41
       9.411079 0.11329276 -22.333427 10.15277
000020 40 15 77 c1 5f 9d 03 c1 a2 88 52 3e 75 de 6b 3e
       -15.442688 -8.225921 0.20559934 0.2303408
000030 89 cf da 40 20 79 09 c1 aa 25 49 c1 f5 8a 5d c1
       6.837834 -8.592072 -12.571695 -13.846425
000040 51 ab 94 41 87 c6 32 c0 99 bc 29 c0 35 74 54 40
       18.58365 -2.7933671 -2.652136 3.3195927
000050 a8 e7 63 41 f3 e7 29 c1 b9 f7 c9 c0 3a 80 8b 41
       14.244057 -10.619128 -6.3114896 17.43761
000060 58 ad 31 c1 a3 34 6f 41 72 bb 43 40 72 71 6f 41
       -11.10482 14.950351 3.0583158 14.965197
000070 91 ac f0 c0 1b 11 1f 41 3a d3 93 c1 a2 59 89 bf
       -7.521065 9.941676 -18.478138 -1.0730479
000080 cd ca 44 c0 44 45 56 c1 8d f9 bc c0 3c e7 e0 c0
       -3.074878 -13.391911 -5.9054627 -7.028227
000090 77 14 59 c1 d5 67 8c 41 b8 be a1 bf be 1c 7d 40
       -13.567496 17.5507 -1.2636328 3.9548793
0000a0 16 37 50 3f 8c 39 80 40 c5 e8 62 c0 7a a9 46 c1
       0.81334054 4.007025 -3.5454571 -12.416376
0000b0 21 fc 87 c0 84 e1 25 be 52 be c5 40 e2 b6 b5 40
       -4.2495275 -0.16199309 6.1794825 5.6785746
0000c0 bc e3 3c c0 c8 80 28 40 23 a4 0b c1 ff ca 26 c0
       -2.9513998 2.6328602 -8.727572 -2.60614
0000d0 95 5c f2 40 5e 05 77 41 aa 2c 22 c1 b0 d8 50 c1
       7.5738015 15.43881 -10.135904 -13.052902
0000e0 84 c8 48 40 e7 a4 72 c1 df 81 91 c0 c7 5a cf be
       3.1372385 -15.165259 -4.5471034 -0.40498945
0000f0 bb 31 08 c1 c4 18 aa 40 6e 33 88 bf 0a f2 43 3e
       -8.512141 5.315523 -1.0640695 0.191353
000100 e6 47 38 c1 92 72 d2 40 55 17 4e c1 87 fe 4c c1
       -11.517553 6.5764856 -12.880696 -12.81214
000110 2f 4e 29 41 f6 9e b2 c1 3e a0 11 40 74 46 a3 c1
       10.581588 -22.327618 2.2754054 -20.4094
000120 1e 45 fe 3f 9b 11 a9 c0 f2 52 ee 40 b2 c7 34 3e
       1.9864843 -5.283399 7.447625 0.17654303
000130 48 32 93 3f db c8 90 c0 41 ac 2d 40 b1 d6 23 c1
       1.149972 -4.5245185 2.7136385 -10.239915
000140 2f 30 9a 3f d5 2e 17 41 7a 58 12 c1 89 e5 23 41
       1.2045954 9.448934 -9.146601 10.243539
000150 e6 2e 8b 40 c9 29 cf 40 74 9c c2 3e e0 19 a4 c1
       4.349475 6.4738507 0.3800999 -20.512634
000160 e5 d5 2f 40 8b a5 71 c0 69 ed 0f c0 f1 05 0e c1
       2.74743 -3.775729 -2.2488654 -8.876451
000170 63 e9 16 40 9d 88 3b c1 4d 51 a1 41 92 80 64 40
       2.3579948 -11.720853 20.164698 3.5703473
000180 19 d6 13 40 be 86 87 c1 82 75 20 c0 42 1f 6e 40
       2.3099425 -16.940792 -2.507172 3.7206578
000190 f6 1e 8d c1 ce 62 50 c1 b7 fd 5e 3f 37 88 cd 40
       -17.640118 -13.024122 0.8710589 6.422878
0001a0 b9 b3 ab c1 1d 5a a0 c1 1b 28 6a c1 4c 2f 68 3e
       -21.462755 -20.044 -14.634791 0.22674292
0001b0 ab eb e0 c0 d6 63 16 41 1b cb cd 3e 8a 4b 69 c0
       -7.028768 9.399374 0.4019402 -3.6452355
0001c0 72 03 88 40 92 be 54 3f e9 7a 30 c1 cf e0 38 c1
       4.2504206 0.8310329 -11.030007 -11.554885
0001d0 61 52 80 c1 12 00 d0 be 2f 48 e6 40 10 c5 4c c0
       -16.040224 -0.40625054 7.1963115 -3.1995277
0001e0 68 ba 80 c1 1e 04 e8 3f 77 df 9b c1 35 f0 39 c1
       -16.091019 1.8126256 -19.484114 -11.621144
0001f0 3b d2 c2 40 99 f4 12 41 21 35 14 41 0a 82 0a c1
       6.088163 9.184716 9.262971 -8.656748

end.weight f4 [1, 8]
000000 3c 5a 4a 3e 6f 4a 60 bf 8a 66 cd 38 68 95 99 be
       0.19760984 -0.87613577 9.794261e-05 -0.299968
000010 30 3a 9f 3e af a6 00 b9 3a 16 a1 3d 2a 33 cb b8
       0.3109908 -0.00012269126 0.078655675 -9.689324e-05
