old_data/oltp/latency_63.pth (torch, 76328 bytes, 3 tensors)

start.weight f4 [128, 144]
000000 02 36 08 41 06 94 23 bd f6 7d ff 3d 98 07 44 bd
       8.5131855 -0.039936088 0.12475197 -0.047858804
000010 e6 80 02 3e 47 a8 0b 41 ab 37 5c 41 fa 5a 50 41
       0.12744483 8.728583 13.763591 13.022211
000020 8e f4 e3 40 5e ee e0 40 70 7b 92 3d df aa e9 bc
       7.123603 7.0290976 0.0715245 -0.02852386
000030 cb d0 7c bd ad 02 dc bf ab 4c 20 41 db f0 5b 41
       -0.061722558 -1.7188317 10.018718 13.746303
000040 3f ba 51 41 ca 9f 1a 41 fb ad e7 40 fb be b6 3c
       13.10797 9.664011 7.239988 0.022307863
000050 e7 db 31 bd 1b 86 37 bd e3 00 f0 bf 23 d5 1d 41
       -0.043422606 -0.044805627 -1.8750271 9.864535
000060 c7 a1 5c 41 9c af 50 41 08 cd 10 41 a5 d4 e9 40
       13.789496 13.042873 9.050056 7.3072076
000070 96 b9 79 3c d8 ce 86 3c 00 83 41 3c 5b 79 e4 bf
       0.015242001 0.016456053 0.011811018 -1.7849535
000080 76 23 17 41 15 21 5e 41 53 59 57 41 77 1f d4 40
       9.446157 13.883077 13.459308 6.628841
000090 c2 d8 25 41 1a 82 81 3d bc 5e c1 bd 0e 84 62 3d
       10.365419 0.06323643 -0.09441897 0.05530172
0000a0 d2 fd e2 bf f8 5f 25 41 35 1b 5c 41 e6 ae 53 41
       -1.773371 10.33593 13.756642 13.2302
0000b0 39 9c cc 40 94 1a 57 41 0b 3b f1 bc 89 55 3e 3c
       6.39407 13.443989 -0.0294471 0.011617073
0000c0 46 78 13 bd db 49 d9 bf d5 b6 22 41 67 41 5b 41
       -0.036003374 -1.6975664 10.169637 13.703467
0000d0 e3 80 51 41 db cf d4 40 4f 38 5e 41 9a 88 8a bd
       13.0939665 6.650373 13.888747 -0.06764336
0000e0 6c 0a 8f 3c b0 c6 75 bd 78 f4 5f bf 76 78 1c 41
       0.017461024 -0.060003936 -0.87482405 9.779409
0000f0 8d 02 58 41 e2 fd 4d 41 0d 00 b8 40 62 f0 d7 40
       13.500623 12.874483 5.750006 6.7480936
000100 eb 81 d5 3b ab b3 b0 bc a8 be 2c bd ca 57 40 bf
       0.0065157316 -0.021570047 -0.04217401 -0.75133955
000110 11 db 23 41 40 68 5d 41 bf a2 54 41 31 2b c8 40
       10.240983 13.837952 13.289733 6.2552724
000120 a6 2b 11 41 78 90 6f 3d e0 2d 76 bc 3b bf 48 3d
       9.073156 0.058487386 -0.015025586 0.049010497
000130 2e 95 b6 be 13 e4 23 41 67 06 5e 41 21 e4 51 41
       -0.3566069 10.243182 13.876563 13.118196
000140 ec 87 f9 40 36 ec 86 40 f0 fa 62 3d a6 7e d2 bb
       7.797842 4.2163343 0.055415094 -0.006423789
000150 60 9a 46 3c 66 fb 41 bf 47 0b 1c 41 b8 59 58 41
       0.012121767 -0.7577423 9.752753 13.521904
000160 1b dd 51 41 7d c6 bf 40 99 a0 c0 40 f0 16 23 bd
       13.116481 5.9929795 6.019604 -0.039816797
000170 9a 13 50 3d f4 80 a1 3d 0e 8c 00 bf d8 1e 27 41
       0.050799944 0.07885924 -0.50213706 10.44503
000180 9d 6d 59 41 41 a3 52 41 33 c6 f9 40 f0 13 27 41
       13.589261 13.164857 7.8054442 10.442368
000190 26 d9 90 3c 59 03 89 bd 36 69 05 3d b4 1a 24 bf
       0.01768167 -0.06690092 0.03257104 -0.64103246
0001a0 da 6f 24 41 ef 1f 59 41 f9 98 4d 41 72 36 ec 40
       10.2773075 13.570296 12.849847 7.381646
0001b0 0f 62 39 41 d6 d8 43 bd 0e c4 96 3d 66 42 28 3d
       11.58644 -0.047814213 0.07361613 0.041078947
0001c0 47 aa 76 bf 16 40 1f 41 93 b4 57 41 bb 2d 4e 41
       -0.9635357 9.953146 13.4815855 12.886165
0001d0 a2 8b c4 40 0a f8 38 41 e0 85 28 bc a7 d3 0e bb
       6.142045 11.560556 -0.010285825 -0.0021793635
0001e0 d7 ff 96 bd ea 71 82 be 29 97 1e 41 f1 22 58 41
       -0.07373016 -0.25477535 9.911904 13.508531
0001f0 5f b5 4f 41 74 81 b3 40 39 21 3b 41 56 db 93 bb
       12.98178 5.6095524 11.695611 -0.004512231
000200 5b ca 37 3c 96 54 aa bd 65 b6 bc bf de d3 29 41
       0.011217679 -0.08316915 -1.4743162 10.614225
000210 9c 3b 5a 41 b0 6d 50 41 61 ed d5 40 4d 21 60 41
       13.639553 13.026779 6.685227 14.00813
000220 40 96 ae bc 25 d4 0d bd 1e f5 46 3d de 71 8c be
       -0.02131188 -0.034626145 0.048573606 -0.27430624
000230 e6 3a 1e 41 b3 14 59 41 d5 a5 4e 41 a6 95 f5 40
       9.8893795 13.5675535 12.915486 7.6745176
000240 90 69 f6 3f 6b 2d 83 3b 04 89 aa bc e7 7b 8f 3d
       1.9250965 0.004003217 -0.020817287 0.07006054
000250 62 9c d0 3f 6e c5 27 40 35 f9 b7 bf b2 0a 1a bf
       1.6297724 2.6214252 -1.4372927 -0.6017257
000260 96 5e 00 40 27 b0 c0 40 b6 7c 4d bc 78 7a 99 bd
       2.005773 6.021503 -0.01254194 -0.07494062
000270 c6 0a 89 3c b9 10 f0 3f f4 b8 11 40 2e 5e c7 bf
       0.01672877 1.8755103 2.2769136 -1.5575616
000280 af 5b 4b bf 29 24 e1 3f 9a 82 a5 40 10 2b 00 3d
       -0.79436773 1.758916 5.1721926 0.031291068
000290 13 1b 87 bc 6f 15 a1 bd 81 95 fb 3f 4f ee 03 40
       -0.016492402 -0.07865416 1.9655 2.0614202
0002a0 18 d2 d0 bf 8b 55 ea be 24 2f bd 3f 2a 41 83 40
       -1.6314116 -0.4576839 1.4780011 4.1017046
0002b0 88 58 2d bd c6 52 6c 3d 6e 89 30 3d 86 31 10 40
       -0.042320758 0.057696126 0.043099813 2.2530227
0002c0 46 fe b7 3f 99 4d df bf a1 25 5f bf f4 85 00 40
       1.4374473 -1.7445556 -0.8716679 2.0081758
0002d0 51 4e 34 40 56 3f 44 3d be 11 b5 bc a8 ce 4d bd
       2.81728 0.047911964 -0.022103187 -0.05024591
0002e0 0e f2 d4 3f 5a 2f 22 40 1a 69 aa bf d6 a3 3d bf
       1.6636369 2.53414 -1.3313324 -0.7407812
0002f0 70 7f 15 40 98 01 b9 40 2b 5f 0e 3b e0 57 e4 bd
       2.3359032 5.7814445 0.0021724205 -0.11149573
000300 53 97 07 bd 8b 49 0f 40 70 1a ed 3f 3d f5 d3 bf
       -0.0331033 2.2388637 1.8523693 -1.6559216
000310 44 e5 0b bf fb 7f fc 3f 33 07 28 c0 5b 14 82 bd
       -0.54646707 1.9726557 -2.6254394 -0.06351539
000320 6a 0a 6b 3d 00 73 2e bc 33 48 c9 3f 5b e1 28 40
       0.05738298 -0.010647535 1.5725158 2.6387546
000330 9c dc a7 bf 5d 8b 21 bf 8f a6 28 40 d7 1c 4d bf
       -1.31142 -0.63103276 2.635166 -0.8012213
000340 4b cd a0 bc de cd 0e 3e 58 18 4d bd 02 2b 0a 40
       -0.019629141 0.1394572 -0.050072044 2.158875
000350 1b d0 09 40 54 2c e1 bf 5b 46 61 bf 02 ea 07 40
       2.1533267 -1.7591653 -0.8799798 2.1236577
000360 15 e6 09 40 36 f0 54 bd 15 88 cc bd ce 7b 43 bd
       2.154668 -0.051986896 -0.09986893 -0.04772549
000370 8b 86 e1 3f 98 49 16 40 3e 40 a6 bf c4 55 61 bf
       1.7619184 2.3482418 -1.2988355 -0.8802149
000380 39 56 b7 3f e3 6a a8 40 b6 d9 2c bd 2e 92 4a 3c
       1.4323188 5.2630477 -0.042199813 0.0123639535
000390 00 a6 b8 ba 90 19 1b 40 f6 b8 d5 3f 75 65 02 c0
       -0.0014087558 2.4234352 1.6697071 -2.0374424
0003a0 e5 a8 9f bf c4 10 c6 3f 4d c9 13 40 16 fc a2 bb
       -1.2473418 1.5473866 2.3091614 -0.0049738986
0003b0 71 6b 8a bc f6 3a 36 bc 84 d5 fb 3f 30 28 ec 3f
       -0.016896935 -0.011122456 1.9674535 1.8449764
0003c0 b4 c7 05 c0 0b 4c 7a bf 8d dd 40 40 bc c8 f0 be
       -2.090314 -0.9777228 3.0135224 -0.47028148
0003d0 86 35 4f bd 2c 14 1b bd 1e 26 5f bd 75 08 d0 3f
       -0.050588153 -0.037861034 -0.05447971 1.6252581
0003e0 bf 01 27 40 2f b2 da bf 10 be 50 bf 50 de 2f 40
       2.6094816 -1.7085627 -0.8154001 2.7479439
0003f0 2c a1 3c 40 30 64 a7 bc 5e a4 34 39 f3 37 8e 3d
       2.9473372 -0.020433515 0.00017227369 0.06944265

start.bias f4 [128]
000000 f5 68 4d 41 a9 15 02 bf c8 2e 9c c1 e7 5e 0b c1
       12.838124 -0.508143 -19.522842 -8.7106695
000010 c8 42 2b 41 8f f1 8a c1 40 cd 19 c0 f6 8b 88 c1
       10.703804 -17.367949 -2.4031525 -17.06834
000020 71 f9 40 41 76 aa fe 40 38 ab 81 bf eb 2e 85 c0
       12.060899 7.958308 -1.0130377 -4.1619773
000030 53 a3 21 41 81 0c f3 bf 95 33 4e c1 ad b5 96 c0
       10.102374 -1.8988191 -12.887593 -4.709677
000040 53 c3 35 41 68 c2 ce c0 ba ad 45 41 fb 96 58 41
       11.360187 -6.461231 12.354914 13.53686
000050 60 ed c6 40 f1 a5 2b c1 9e 3a 6b 41 ab 5f 3e 41
       6.2164764 -10.728013 14.701811 11.898356
000060 18 9f 75 c1 fa 25 61 41 9d 7d 5c 41 11 90 a5 be
       -15.351341 14.071772 13.780667 -0.32336476
000070 31 a2 44 c0 e0 da 2f 41 93 d9 25 c1 dd ed 94 c1
       -3.0723994 10.990936 -10.365619 -18.616144
000080 ba 8e 61 c1 22 b1 a7 40 59 de 82 41 27 f2 2e 41
       -14.097345 5.2403727 16.358568 10.934119
000090 d1 6b 51 41 7a b2 72 41 01 d5 0e 41 38 01 ed c0
       13.088822 15.168573 8.927003 -7.406399
0000a0 be 92 44 c1 0d d7 64 c1 3b e1 58 41 7e 68 77 41
       -12.285826 -14.302503 13.554988 15.463011
0000b0 ef 31 46 41 51 d5 1c c1 23 46 07 c1 6a fb 89 40
       12.387191 -9.802079 -8.454623 4.31194
0000c0 3a cb 4b 41 34 a4 2a 40 5b f0 17 41 96 5c 2f 41
       12.737116 2.6662722 9.496181 10.960104
0000d0 c5 5f cd 40 dd 78 38 41 d6 b9 6f 41 30 55 4a c1
       6.4179406 11.529508 14.98287 -12.645798
0000e0 36 6f 29 41 07 ac cc c0 81 34 53 c1 89 ad 06 c0
       10.589651 -6.3959994 -13.200318 -2.1043417
0000f0 b4 05 8f c0 a5 17 31 41 d9 e6 1f 41 22 ea 1f c1
       -4.469446 11.068273 9.993859 -9.994661
000100 5f b4 17 41 6d 93 26 40 24 19 34 41 95 2f 84 c1
       9.481536 2.6027482 11.256138 -16.523233
000110 d1 10 58 41 3d e8 55 41 62 2b ef c0 64 cb 5e c0
       13.504106 13.369199 -7.4740458 -3.481164
000120 01 b9 23 41 4c 8f 57 c1 3f 78 32 41 02 f3 e6 c0
       10.232667 -13.472485 11.154357 -7.217164
000130 a1 e7 1e 41 56 ef 75 c1 94 c9 36 c1 3c 24 78 c0
       9.93155 -15.370932 -11.424213 -3.8772116
000140 90 a0 7c c1 a3 56 f6 40 ba 60 29 c1 4c 28 24 41
       -15.7892 7.698076 -10.586115 10.259838
000150 a8 5b 6b c1 d5 f8 e0 c0 1b 49 7e c1 39 9e 3c 3e
       -14.709877 -7.030375 -15.892848 0.18419732
000160 ba 02 08 c0 4a 89 21 41 52 be 2f 41 ce 3d da c0
       -2.1251664 10.096018 10.983965 -6.8200445
000170 cb 9f 10 c1 ba 22 d5 40 3b 67 01 c1 5f 8c 46 c1
       -9.039012 6.660489 -8.087703 -12.40927
000180 57 b2 5a 40 23 01 0b c0 54 7c 41 c1 87 4a 8d 3f
       3.417135 -2.1719444 -12.092854 1.1038369
000190 74 f2 41 41 28 e3 84 3f 9d 31 ee 40 7a 36 37 c1
       12.121693 1.0381823 7.4435563 -11.4508
0001a0 69 66 78 41 c4 44 75 c0 43 6d 42 c1 7c 8b 24 41
       15.5250025 -3.8323221 -12.151675 10.284054
0001b0 22 7f 2b 41 75 6f ff bf f3 d7 13 c0 9b 61 4e 40
       10.718538 -1.9955889 -2.3100555 3.2247074
0001c0 e4 27 21 c1 d1 b6 86 c1 d2 03 8e c0 9d 71 06 c1
       -10.072239 -16.839266 -4.4379663 -8.402738
0001d0 46 7d 29 3f 31 05 3c c0 59 a8 56 41 88 b2 43 41
       0.6620678 -2.9378169 13.4161005 12.231087
0001e0 f8 c1 f3 40 4c 94 66 40 02 0c 8f c0 1b 7e 29 41
       7.617428 3.6028013 -4.470216 10.593287
0001f0 56 e2 14 c1 d5 56 48 41 83 9d 30 3d 24 05 b9 40
       -9.305258 12.521199 0.043118965 5.7818775

end.weight f4 [1, 8]
000000 3c 5a 4a 3e 2c 6f 03 3b 48 5c 25 39 a8 93 dc bd
       0.19760984 0.0020055277 0.00015770004 -0.10770351
000010 be f9 a9 3e 9c 2e 54 3a 56 2c 2d 39 a1 4d c2 3b
       0.3319835 0.00080941035 0.00016515082 0.0059296642
