old_data/mixgraph_leaky_relu/latency_55.pth (torch, 25762 bytes, 11 tensors)

weights.0.weight f4 [16, 32]
000000 b6 4a ee 3b fb e3 15 bf 0e 70 e4 bc b5 8f 3c 3d
       0.00727209 -0.58550996 -0.027885463 0.046035487
000010 ee 59 7e bb bc 64 1d bd ea 67 81 3d 48 1b 9f bd
       -0.0038810926 -0.038426146 0.06318648 -0.07768875
000020 d7 eb da bd 73 3f 47 be 14 e4 3b be 04 26 74 bd
       -0.10689514 -0.19457798 -0.18348724 -0.059606567
000030 72 70 8e 3d eb 8b 79 3c 50 79 a3 be e3 14 45 3e
       0.06955041 0.015231113 -0.31928492 0.19246249
000040 29 03 41 be ce 23 59 be 88 c8 b6 3d 63 60 03 bf
       -0.18848862 -0.21205065 0.08924967 -0.5131895
000050 a6 46 10 be 2e c2 85 be 2c 6b e5 bd 2c 8d 70 bd
       -0.1408945 -0.2612471 -0.11202082 -0.058728382
000060 7e 66 2c bf 31 b6 a2 be 56 ac 77 be 0b bf 38 be
       -0.6734389 -0.31779626 -0.24186835 -0.18041627
000070 10 38 59 3e 5d 8a 96 be 08 d1 e3 be 74 a5 ee bf
       0.21212792 -0.29402438 -0.44495416 -1.8644242
000080 fc 8b ec bc 64 36 bd 3c 9d 4c 35 bd 96 77 37 be
       -0.028875344 0.023097225 -0.044262517 -0.17916712
000090 65 de ad 3d ba 27 8b bd 90 8a 75 be 0d 43 82 be
       0.08489684 -0.067946866 -0.23978639 -0.2544178
0000a0 52 c7 bf bf 9e 8e 2a bd 47 ab 87 3d dd 95 a3 bd
       -1.4982703 -0.041639917 0.066244654 -0.079875685
0000b0 65 eb 9a be 57 63 e2 3c a8 bb 58 bd c5 f0 9c bd
       -0.30257717 0.02763526 -0.052913338 -0.07663111
0000c0 09 b6 87 3d 14 03 86 3e b2 a3 d1 3d 99 39 d4 bc
       0.06626517 0.26174223 0.102363005 -0.025906371
0000d0 64 95 7e bb 09 09 97 3d e2 92 a2 3d ad 10 3f bc
       -0.0038846368 0.0737477 0.07938172 -0.011661691
0000e0 05 02 96 3c a9 5a 5a 3f d2 18 00 be e8 b1 03 be
       0.01831151 0.85294586 -0.12509468 -0.12860835
0000f0 04 95 44 bd be 46 af bd ae 8c 43 be c1 0f 20 c0
       -0.047993675 -0.08558415 -0.19096634 -2.5009615
000100 8f 18 c3 3b eb aa 38 3c 85 26 06 3e 89 97 6a 3f
       0.0059538553 0.011271219 0.13100632 0.91637474
000110 86 e9 39 bc 14 ea 0e ba 90 91 ab 3d 61 c1 5e bd
       -0.01134718 -0.00054517505 0.08377373 -0.05438364
000120 2f 70 93 3d a9 a0 42 bc 70 27 91 bc 28 af 73 bc
       0.07199132 -0.011879125 -0.017719 -0.0148733035
000130 91 72 70 3b 1c c0 86 3c 74 8b 32 bc 2e 5c 23 3c
       0.003668938 0.016449027 -0.010897506 0.009970708
000140 a4 48 14 3d 7b 77 2b 3b 9b 72 94 be 70 8d 48 bd
       0.036202088 0.0026163745 -0.28993687 -0.04896301
000150 27 97 a5 bc 11 04 55 bc 26 12 56 bd ba fc 3c bc
       -0.020213677 -0.013001458 -0.0522634 -0.011534864
000160 b9 df 31 3d 2e 04 eb bf 34 2e ec bc a8 5c 3e 3d
       0.04342625 -1.836065 -0.028830625 0.046475083
000170 b4 be 96 3b 8f d7 51 bd af 03 14 3e 1a 87 c8 be
       0.0046003703 -0.051230963 0.1445453 -0.39165574
000180 b5 a2 e1 3c 24 d3 0d bd 3b 89 a2 bd 74 98 65 bf
       0.027543405 -0.034625188 -0.07936331 -0.8968575
000190 ad f4 34 bd 1d 51 1e 3d e5 25 11 bd ad a8 75 3c
       -0.044178654 0.038651574 -0.03543653 0.014993829
0001a0 3d af 40 be 22 a8 44 3d 3b c5 17 be e6 ce 4c 3d
       -0.18816848 0.048011906 -0.14821331 0.050002
0001b0 8c 3b 3c 3d d4 12 d2 bc 84 74 a7 bd 5e 39 cb 3d
       0.045955226 -0.025643744 -0.081765205 0.09923051
0001c0 9a 9f 21 3d cb 8b a8 bc f3 0a bd be 41 9a cd bd
       0.03945885 -0.020574471 -0.36922416 -0.10039187
0001d0 a5 fe 6f bc 5f 46 13 bf 4d dc 96 3c ea 7e 97 3c
       -0.014648114 -0.5752925 0.018415594 0.018493135
0001e0 31 05 db bc fc bd 39 bb ad fe 42 3e 1d 12 a6 3d
       -0.026735874 -0.0028342 0.19042464 0.081089236
0001f0 e0 34 1d 3e 49 52 1e 3d 65 1b b6 bc f9 51 93 3f
       0.15352201 0.038652692 -0.02222986 1.1509391
000200 2a e2 bd 3d a8 6f 18 be ae 74 eb be e6 33 ad 3e
       0.09271653 -0.14886343 -0.45987457 0.33828658
000210 1f 30 57 3e 63 6f e4 b9 10 d3 86 3e 85 52 7a be
       0.2101445 -0.00043570538 0.26332903 -0.24445541
000220 5d 2a 8d be 68 10 2a 3e 0d 63 8c be bf 8e 05 3e
       -0.27571383 0.16607821 -0.2741932 0.13042735
000230 37 5f 8b be 4f ef be 3a ca 82 fd 3d 80 20 10 3e
       -0.2722108 0.0014567169 0.12378462 0.14074898
000240 ff 84 04 3e 7e 70 91 be c0 9e 16 be 3f f6 ba 39
       0.12941359 -0.28406137 -0.14708996 0.00035660152
000250 45 8a dd 3d 6d c9 45 be 78 e0 11 3e b0 78 07 3e
       0.108173884 -0.19315119 0.14245784 0.13229632
000260 5c 04 3c 3d 86 fa 88 be 0b 42 86 3e b2 b1 a7 be
       0.045902595 -0.26753634 0.26222262 -0.32752758
000270 8c a2 dd be 68 ae b3 be f0 70 0d 3f e5 5d 6a c0
       -0.43288076 -0.35094 0.55250454 -3.6619809
000280 79 a3 85 3d 9f 42 a2 3d 7f 38 fe 3d bf 03 ed be
       0.065253206 0.07922863 0.124131195 -0.4629192
000290 7d fb 84 3b a1 e9 a2 3d 17 b3 98 3d a2 9c 22 bd
       0.0040583 0.079547174 0.07456034 -0.039700158
0002a0 04 27 01 3d 08 c2 d0 3c 74 a3 3e bc fe 1d 87 3d
       0.03153135 0.025483146 -0.01163565 0.065975174
0002b0 20 2b 85 3c 0d fc b6 3d ad 95 e6 3d aa eb c3 3d
       0.016255915 0.089347936 0.11259017 0.09566434
0002c0 15 17 7f 3e 47 b6 a7 bd 99 c7 1e be 65 69 38 bd
       0.24911149 -0.081890635 -0.15505828 -0.045022387
0002d0 45 61 86 3d ae 86 37 bd b4 d8 cf 3d a7 4c f3 3d
       0.065615214 -0.044806175 0.10148755 0.11879855
0002e0 f3 0c d2 3c c4 bb 0d be d4 ec 84 3c 4c 83 9c bc
       0.02564094 -0.13841158 0.01622621 -0.019105576
0002f0 90 7e 43 3e 54 df 31 3d 5f 78 18 3e 6e ee b4 3f
       0.19091249 0.043425873 0.14889668 1.4135263
000300 d6 55 7f bc 1d 6c d9 bd 95 5f 28 be ad 9a a9 3f
       -0.01558443 -0.10616324 -0.16442712 1.3250328
000310 23 36 bc 3d a0 0e 4c 3d e6 97 e2 be 8e 62 15 3d
       0.09190013 0.049818635 -0.44256514 0.036470942
000320 f2 45 ad bd 99 88 8b 3d ab 45 5b bd 12 c0 79 bd
       -0.08460607 0.06813163 -0.053533237 -0.06097419
000330 6a 09 6d 3b af 58 ef bd e5 23 a1 be ad 22 88 3d
       0.0036168941 -0.11686837 -0.31472698 0.06647239
000340 d3 b6 0b 3f 4f cb ac bd e3 ce e4 3d 1f af 81 3e
       0.5457584 -0.084372155 0.11172273 0.2532892
000350 01 cb 94 bd 08 5d a6 3d 9a 09 f8 bd d2 66 00 be
       -0.072652824 0.08123213 -0.12111206 -0.12539223
000360 cd 86 e8 bd c8 37 70 be 4e 30 80 3e b2 3c 7d 3e
       -0.11353836 -0.23458779 0.25036854 0.24730185
000370 f2 37 8f bd b8 50 f6 3d e9 f5 33 3e 91 2c 0a be
       -0.069930926 0.12027115 0.17574276 -0.13493563
000380 bd d3 01 bd 21 e7 e3 bc ad a5 bd 3c 7b 36 14 bf
       -0.03169607 -0.027820172 0.02315029 -0.5789563
000390 e2 89 45 bd e2 81 3e bd 03 d9 71 bf d3 71 27 3d
       -0.0482272 -0.046510585 -0.9447176 0.040880036
0003a0 88 d8 dd be e2 2f be 3c aa 77 08 be 2b 2a 7e bf
       -0.43329263 0.023216192 -0.13326898 -0.99283093
0003b0 6e ee f1 bd 0d ac 32 bd 2b 45 70 be 95 d2 2e be
       -0.11813055 -0.04362111 -0.23463885 -0.17072518
0003c0 35 a3 ba 3e b0 d7 15 bf 95 3d 1e bf c6 86 1f bd
       0.36452642 -0.5853224 -0.61812717 -0.03894689
0003d0 4c 49 da 3b 43 eb 4e 3d a3 2f 93 be 4f f9 21 3d
       0.0066615697 0.05051733 -0.2874728 0.0395444
0003e0 66 4b c5 3c e0 83 d6 3e 33 c5 12 3c cf 01 91 3d
       0.024083804 0.41897488 0.008958149 0.07080423
0003f0 e9 5d c1 3d 3d 31 c7 3b 33 c9 0f 3f 79 6b a9 3f
       0.0944174 0.0060788677 0.5616638 1.3235923

weights.0.bias f4 [16]
000000 44 83 84 c1 51 8f 28 c2 fe 00 4e 41 29 fc 84 3f
       -16.564095 -42.139957 12.875242 1.0389453
000010 af 92 f9 bf c2 e3 97 c1 92 5c 16 41 5c 18 16 c2
       -1.9497889 -18.98621 9.3976 -37.52379
000020 9e 39 8d c1 90 e0 17 c1 dd 5c f8 41 e3 0e 31 42
       -17.653133 -9.492325 31.045343 44.264538
000030 47 b3 14 42 79 88 ee c1 b7 90 3c 41 4b 4e 23 41
       37.175076 -29.816637 11.785331 10.2066145

weights.1.weight f4 [8, 16]
000000 7a 9b d9 bd b1 10 28 3d 06 54 f0 3d c4 13 d9 bd
       -0.10625358 0.041031543 0.11734776 -0.10599473
000010 56 83 2d bf b1 50 09 3e bd 63 24 3e f6 43 c9 3e
       -0.6777853 0.13409688 0.16053672 0.39309663
000020 1f 3f 99 3e 3c 8a bd bd fb df ce 3e 4a b4 a6 bd
       0.2993097 -0.09254882 0.4040526 -0.08139856
000030 5b bf 85 3d ee ee ba bd e1 37 2b bf 3a 4a f3 3b
       0.06530639 -0.091276035 -0.6688214 0.00742462
000040 a5 6d 4a 3f 20 57 a0 3e eb cb 1e 3d 2a 13 f7 3c
       0.79073554 0.3131647 0.03876869 0.030160505
000050 51 7a 8d be ce 30 9d 3e 83 11 31 be 37 e8 eb 3d
       -0.27632383 0.30701298 -0.17291836 0.11518901
000060 69 c5 36 be f9 05 a0 be d1 46 ae 3e 06 73 a4 bd
       -0.17848743 -0.31254557 0.34038404 -0.080297515
000070 0f 6b 2e 3d ee 8c 7d be 3b ca 85 bc 17 33 bd be
       0.042582568 -0.24760792 -0.016331783 -0.3695304
000080 3f f2 e4 3e 75 5b b3 bd 5b e8 41 be a9 20 60 be
       0.4471607 -0.087576784 -0.18936293 -0.21887459
000090 72 68 44 be 80 c5 c1 bd b2 3b ab be bf 3d 07 40
       -0.19180468 -0.09461498 -0.3344398 2.1131437
0000a0 69 1d 95 be 15 c3 70 be 3d 27 c4 3e e6 64 11 3e
       -0.29124 -0.23511918 0.38311186 0.14198646
0000b0 8c 82 9c be d2 11 cc bd 03 06 62 3e cf 36 2f be
       -0.3056835 -0.099643365 0.22072606 -0.17110752
0000c0 dd 05 c7 3e 59 85 76 3e e1 94 38 3e ac c7 16 be
       0.3887166 0.24074306 0.18025543 -0.14724606
0000d0 bc d9 29 bf ff 91 db 3e 7e eb 05 3e f0 97 33 3f
       -0.6634786 0.42884824 0.13078114 0.70153713
0000e0 8d db 83 3e d6 4a 9d be e5 12 42 bf 9f 61 a2 be
       0.2575344 -0.30721158 -0.7581008 -0.31715104
0000f0 10 34 a7 3b 0f f4 d1 be 76 43 27 3d 14 61 18 3e
       0.005102642 -0.41006514 0.04083582 0.14880782
000100 4c 1c 66 3f cf c0 3d 3d 75 57 9f 3d fa 25 80 be
       0.8988693 0.046326455 0.07780353 -0.25028974
000110 03 8a 8f bf 30 3c da be 5f bf bb be d5 81 19 bf
       -1.1213993 -0.42624044 -0.36669442 -0.5996373
000120 21 db fb bd f5 e7 9f be 34 23 4f 3f 46 fd 2c be
       -0.12297655 -0.31231657 0.8091309 -0.16893491
000130 f7 98 bd be ac e6 08 be a1 33 c0 3e f4 55 9b be
       -0.37030765 -0.13369244 0.3753939 -0.30339015
000140 c0 a3 89 3f aa 09 2f 3e 5b 38 c0 be ac 19 48 3e
       1.0753098 0.1709353 -0.37542996 0.19541043
000150 19 71 c3 be bb 92 82 bd 65 42 20 bf dd 7c 62 bf
       -0.38172224 -0.06375643 -0.6260131 -0.88471776
000160 af 02 d0 be 28 b1 ec be d0 e6 75 be f3 70 cc 3e
       -0.40627047 -0.4622891 -0.24013829 0.39929923
000170 26 9b 2c be 7f 09 21 3e e8 8f 67 3d cf 91 94 bf
       -0.1685606 0.15726279 0.056533724 -1.1606997
000180 02 83 09 bd 16 fb 6e be e0 2f db be ed 13 e7 be
       -0.033572204 -0.23337969 -0.42809963 -0.4513239
000190 14 6f 9f be ea 06 e2 be 67 6b c5 be ff ea 03 bd
       -0.31139433 -0.441459 -0.38558504 -0.03220653
0001a0 a0 0a 9f 3e 4e 78 8a be 10 94 1a bc d1 85 91 3e
       0.31062794 -0.2704491 -0.009434715 0.28422406
0001b0 02 8c 1c bf f1 32 dc 3e 1a 6e 17 3e 9e 94 48 3d
       -0.61151135 0.43007615 0.14788094 0.048969857
0001c0 d1 ee 0a 3f ec 10 73 bd 89 b3 83 3d e3 18 6d 3e
       0.54270655 -0.05934231 0.06430728 0.23154025
0001d0 b2 af 37 bf 74 ba 13 bf 17 ac 8c bc a3 99 60 bf
       -0.71752465 -0.5770638 -0.017171903 -0.8773443
0001e0 2e 81 3b 3b 02 2f 87 3e a4 b3 ff 3e 61 e2 86 bd
       0.0028610933 0.26403052 0.49941742 -0.06586147
0001f0 61 be a4 3c eb 9a b0 bd be 80 b2 3e b3 e7 b4 be
       0.020110311 -0.08623298 0.34863847 -0.35333022

weights.1.bias f4 [8]
000000 aa 3d af 41 01 27 b0 c1 bb d6 c8 41 00 75 8b c1
       21.90511 -22.019045 25.104849 -17.432129
000010 48 de 98 c0 64 55 5a 41 ac 7e 14 c1 22 34 f5 41
       -4.777134 13.645847 -9.280926 30.650455

weights.2.weight f4 [4, 8]
000000 0b 56 43 be 71 a9 85 be 1a 4a c3 be 88 50 2f bc
       -0.19075792 -0.26105836 -0.38142473 -0.0107003525
000010 7c e3 dc 3e a3 ae b5 3d 6d 1f 7b bd 22 c3 cf be
       0.43142307 0.088712 -0.061309267 -0.40578562
000020 18 4a 3a be 5c dd 42 bf 50 0d 21 3f ba c3 2a bf
       -0.18192327 -0.7611902 0.6291094 -0.66704905
000030 24 ee 11 3f bc bd c3 3e ac 1b a9 3d 6f 1f a8 3e
       0.57004 0.38230693 0.08257231 0.32836482
000040 6f 30 5e bd 32 27 8d be cf 72 54 bf 0b d3 05 3c
       -0.05424541 -0.27568966 -0.82987684 0.008167992
000050 27 34 c4 3e 7a e5 e8 3d 50 6e 0c 3f 2c b6 7f 3a
       0.3832104 0.11371894 0.54855824 0.0009754624
000060 01 e0 45 3b 1c 47 9c bb a0 92 60 3d 9c 23 e3 3a
       0.0030193331 -0.004769219 0.054827332 0.0017329338
000070 ec a2 8c 3e 47 45 10 3f 6e 8a d5 be 79 d9 0a bf
       0.2746805 0.5635571 -0.41707176 -0.54238087

weights.2.bias f4 [4]
000000 bb 14 e2 c0 9a 44 4e 41 a7 f4 82 c1 47 49 4e 41
       -7.0650306 12.891748 -16.36946 12.89289

weights.3.weight f4 [2, 4]
000000 3c 09 19 be ac c1 2e be 6c 72 ce 3d f2 c3 3c 3e
       -0.14944929 -0.17066067 0.10080418 0.18434122
000010 b3 c3 97 3e 59 b6 f6 be 35 a7 43 3f 19 fe e9 3e
       0.29641494 -0.48185995 0.7642701 0.45701674

weights.3.bias f4 [2]
000000 7a f0 85 c1 ab db 9d 40
       -16.74242 4.933065

start.weight f4 [32, 144]
000000 d6 b0 5a c0 e0 17 4e bc a9 4c 2c bb 53 c0 82 3d
       -3.4170432 -0.012578934 -0.002629081 0.06384339
000010 30 71 9c 3e 79 d9 23 42 bd 03 a2 c1 fb ea 1b c1
       0.30555105 40.962376 -20.251825 -9.744868
000020 1a ad 3b c1 68 17 06 c1 ab a1 5e bc 35 83 f7 ba
       -11.729761 -8.380714 -0.013588349 -0.0018883707
000030 40 f5 8d 3d 84 63 65 3f 02 87 1d 42 ed 9b 9f c1
       0.06931543 0.89604974 39.381844 -19.951136
000040 34 d0 1a c1 fd 78 ee c0 f3 ef 84 41 ea e6 97 bd
       -9.675831 -7.452269 16.617163 -0.0741709
000050 1e 57 11 bc d3 a3 0f bd fd ba f5 3f ab 26 36 42
       -0.008870868 -0.035068344 1.9197689 45.53776
000060 99 e1 92 c1 0f ba 16 c1 96 e8 e1 c0 34 3f 9d c0
       -18.360155 -9.420424 -7.059642 -4.913965
000070 7b 30 d6 bc 74 ed 5a ba 56 c5 75 3a 9d 59 43 40
       -0.026146164 -0.00083514233 0.00093754136 3.0523446
000080 c0 fa 1c 42 68 6f 8e c1 b3 6d e1 c0 c4 1e 5c c1
       39.244873 -17.804398 -7.044641 -13.757511
000090 bf ae 18 41 46 75 6f bd 4e 92 e0 3c eb f8 0f bd
       9.542663 -0.05846145 0.027413514 -0.035149496
0000a0 91 27 33 40 2b e3 3e 42 2c 61 6b c1 d7 76 dd c0
       2.79929 47.721844 -14.711224 -6.920757
0000b0 8b 6e 63 c1 c4 0a c4 c1 db ae c5 bc d3 c0 42 3d
       -14.214488 -24.505257 -0.02413123 0.047547173
0000c0 1e f4 90 bd c0 77 64 40 8c 7f 2f 42 9d d7 93 c1
       -0.07077812 3.569809 43.874557 -18.48028
0000d0 9e 53 04 c1 72 fd 39 3f 46 7d b9 40 eb 25 2c 3d
       -8.270414 0.7265235 5.796542 0.04202835
0000e0 31 43 47 bd cb b1 78 3d 46 d3 71 40 a5 cb 24 42
       -0.048648063 0.06071643 3.77852 41.19887
0000f0 c9 34 84 c1 d3 2a 02 c1 06 5e af bf 89 db bc c1
       -16.525774 -8.135455 -1.3700569 -23.607195
000100 be d8 6f bd 43 bc 8e bd a0 17 8d bd f5 cc 32 40
       -0.05855631 -0.06969502 -0.06889272 2.7937596
000110 ed c1 30 42 de e8 6c c1 27 e5 13 c1 b8 97 2c c1
       44.18938 -14.806852 -9.243445 -10.787041
000120 38 47 e6 40 9e 61 96 bd df 0e af 3c 3b 3e 6c 3d
       7.1961937 -0.07342838 0.021369396 0.057676535
000130 f2 1d 47 40 a2 b7 14 42 c9 c6 50 c1 23 12 fc c0
       3.1112027 37.17933 -13.048532 -7.877214
000140 44 d0 63 c0 fc 47 87 c1 f7 1d 91 3d f4 7c 18 3d
       -3.5595865 -16.910149 0.070857935 0.03722854
000150 33 fb 75 bd 25 ca 57 40 f4 3d ef 41 cb 5b 5c c1
       -0.060054015 3.371713 29.90525 -13.77241
000160 16 d8 ee c0 48 c0 8b bc 0f 1e 1c 40 c0 7f d8 bc
       -7.4638777 -0.01705946 2.4393346 -0.026428103
000170 ea b2 f7 3a 8a 45 a8 bd 04 6a a3 40 54 0a 16 42
       0.0018897925 -0.082163885 5.1066914 37.510086
000180 dc 90 80 c1 1d d0 f1 c0 f0 1e e4 3c 87 d9 e3 c0
       -16.070732 -7.5566545 0.027846783 -7.1203036
000190 36 d5 2c bc 90 94 12 bc 7b 66 5a bd 86 e9 9a 40
       -0.01054888 -0.008946553 -0.05332039 4.8410063
0001a0 f2 70 1b 42 f0 2b 7d c1 a6 8d 0e c1 ce df 10 be
       38.8603 -15.823227 -8.909582 -0.14147875
0001b0 a1 20 d0 c1 30 69 36 bd 6b b7 28 3d 46 1a c5 3c
       -26.015932 -0.04453391 0.041190546 0.02406038
0001c0 1a af d2 40 0d c7 10 42 1e a3 4e c1 c5 9b 10 c1
       6.5838747 36.194386 -12.914824 -9.03803
0001d0 35 6b 4b 40 09 91 b5 c1 2e 37 35 bd 7d 29 6f 3b
       3.1784184 -22.695818 -0.044242077 0.0036493235
0001e0 90 3c 7d 3d 15 ce b2 40 bf ce 24 42 54 21 76 c1
       0.061825335 5.5876565 41.2019 -15.383137
0001f0 89 b8 10 c1 71 5b 88 3f b4 40 f6 c0 20 5d 2a bc
       -9.045053 1.0652906 -7.6953983 -0.010398179
000200 3f 9c 46 bb fe 55 27 3d 66 46 32 41 1c 02 2f 40
       -0.0030305532 0.040853493 11.142187 2.7345037
000210 4f 49 6d c1 04 65 b7 c0 ee 5f 73 c1 aa 90 f2 c1
       -14.830398 -5.731081 -15.21092 -30.320637
000220 86 68 22 3d 26 59 ea 39 be 43 68 3d 8a ce 37 41
       0.039650463 0.0004469838 0.05670523 11.487925
000230 1a 2a 37 40 2f 40 78 c1 5c 18 c5 c0 31 36 79 c0
       2.8619447 -15.51567 -6.1592236 -3.8939326
000240 37 77 99 41 26 cc 2d 3d 15 96 71 3b e0 9c 48 3d
       19.18321 0.04243102 0.0036863138 0.048977733
000250 6b 2e fa c1 4a e1 d5 41 45 59 9c 42 04 f5 2e c1
       -31.272665 26.735004 78.174355 -10.934818
000260 e4 d7 90 c0 6d 9b 81 41 66 c2 19 3d 54 c4 a0 ba
       -4.526354 16.200891 0.03753891 -0.0012265542
000270 3b 3c b6 bc 5a b1 f9 c1 1a 7e f8 41 8f bf 9d 42
       -0.022245517 -31.211597 31.061573 78.87414
000280 3a d9 18 c1 21 f9 5f bd 88 c4 25 41 a3 a6 90 bd
       -9.553034 -0.054680947 10.360481 -0.070630334
000290 3d f2 f8 3c ab 7a 32 3d 58 7b 01 c2 2e 15 c4 41
       0.030388946 0.043574017 -32.370453 24.510342
0002a0 21 64 9f 42 62 36 36 c1 64 48 c8 be 0f e5 9d 40
       79.695564 -11.388277 -0.3911773 4.9342113
0002b0 0b 79 e8 3c e4 82 8a 3c a8 f3 48 3d e3 a4 01 c2
       0.02837803 0.016908117 0.049060494 -32.411022
0002c0 c1 c4 2a 42 e8 bd 9e 42 53 4a 27 c1 45 10 d7 40
       42.692142 79.37091 -10.455646 6.720736
0002d0 ff 05 c2 40 56 3e a6 ba 59 10 1a bd 96 7a ac bb
       6.063232 -0.0012683372 -0.037613247 -0.005263637
0002e0 6e d0 ff c1 4c 57 13 42 c0 9c 9e 42 98 fa 2e c1
       -31.976772 36.83525 79.30615 -10.93618
0002f0 98 26 cf bf 09 96 0c 41 06 8a ad 3c cd 75 24 bc
       -1.6183653 8.78663 0.021183979 -0.0100378515
000300 3e 69 21 bd ce aa fd c1 82 d7 c0 41 50 88 9b 42
       -0.039407007 -31.7084 24.105228 77.766235
000310 ca 3b 31 c1 2e a8 ae 40 03 4b 9d 3f ab 32 fb 3b
       -11.077097 5.4580297 1.2288517 0.007665952
000320 d7 db ac bc 48 c3 38 bd ff 64 f9 c1 e4 00 64 41
       -0.021100922 -0.04510811 -31.174314 14.250217
000330 1a 29 9c 42 24 f4 21 c1 46 65 b6 40 f3 cb ea 40
       78.08028 -10.122105 5.6998625 7.337396
000340 00 49 31 bc f8 d5 93 bc 5b 6e 86 3d e2 95 fb c1
       -0.010820627 -0.018046364 0.065640174 -31.448185
000350 f6 af 9b 40 53 46 9d 42 1a ff 2a c1 7f 52 25 40
       4.8652296 78.63735 -10.687281 2.5831602
000360 48 fb 25 c0 73 ea 73 bd 92 37 dc 3c 6b 71 ac bb
       -2.593462 -0.05954976 0.026881967 -0.005262544
000370 b6 41 f9 c1 30 24 53 41 a8 2d 99 42 28 09 1e c1
       -31.157085 13.196335 76.58917 -9.877235
000380 74 38 ee 3f 67 02 9c 40 3e 5c 4e 3d 93 f9 6b 3b
       1.8610978 4.8752933 0.050380938 0.0036006912
000390 80 6e 93 bb 24 d3 f5 c1 08 c6 d7 41 36 1c 9a 42
       -0.0044992566 -30.728096 26.971695 77.0551
0003a0 e2 92 23 c1 13 57 82 40 83 3c e3 c0 16 a4 7a 3c
       -10.22336 4.073129 -7.1011367 0.01529791
0003b0 2a 12 db 3b d0 d0 48 3d 4c 9e f5 c1 e9 a5 cb 41
       0.006685515 0.049027264 -30.702293 25.45601
0003c0 b1 ab 9b 42 a5 13 32 c1 94 dd 48 40 b6 ea de c0
       77.835335 -11.129796 3.138524 -6.966151
0003d0 d6 30 63 bb 55 91 38 bb 53 68 1e bd b3 39 f3 c1
       -0.003466656 -0.0028162797 -0.03867371 -30.403173
0003e0 f4 fa 81 40 c4 86 9a 42 53 9d 1a c1 62 cc 0b 41
       4.061884 77.263214 -9.663409 8.737398
0003f0 30 88 50 c1 c0 af 8d 3b b8 97 05 bd 2b bc 40 3c
       -13.033249 0.0043239295 -0.032615393 0.011763613

start.bias f4 [32]
000000 6c 06 2b bf 45 1a 25 c1 8f 76 e6 c1 71 ab 2c 42
       -0.66806674 -10.318913 -28.80789 43.167423
000010 37 a9 6d c1 58 2e a2 c0 62 df 03 42 9f a2 ea c1
       -14.853812 -5.068157 32.968147 -29.329405
000020 8f b8 5d 42 b0 2d 81 c0 fc 44 37 41 2b 2c 0b c2
       55.430233 -4.036827 11.454342 -34.793133
000030 64 fc 5e c1 bc 2b 19 c2 fc e0 00 c2 50 68 bf c0
       -13.936619 -38.29271 -32.21971 -5.9814835
000040 42 bd 82 c1 6e 49 2f c2 33 d8 7a 41 c2 66 ca 41
       -16.342411 -43.82171 15.677783 25.300175
000050 eb 00 8e 41 16 59 be c1 57 7a 0a c1 6f f2 16 c2
       17.750448 -23.793499 -8.654868 -37.73675
000060 e1 a1 dc c1 6f 48 b8 c1 23 6c 2a c1 a4 22 b9 40
       -27.579042 -23.035368 -10.651401 5.7854786
000070 8a 26 38 c2 74 1c 8d c1 ef 1d 30 c2 4d 45 a4 c1
       -46.037636 -17.638893 -44.029232 -20.533838

end.weight f4 [1, 2]
000000 56 88 de be b2 4c 82 3e
       -0.4346339 0.2544914
