old_models/old_kml_ml/saved/4_ft-33_pct-all_wl-5_epch.pt (torch, 622440 bytes, 8 tensors)

module.layer_1.weight f8 [512, 4]
0	0xbfea61915fce5d09	-0.8244101401532201
1	0x3ff7a86185e6725e	1.4786086302257426
2	0xbfce76951e2d6168	-0.23799385045527832
3	0x40195b7c2de157d8	6.339340893629888
4	0x401a3394f5599e43	6.550372918696271
5	0x3ff91193809b1478	1.5667910598433803
6	0xbfeca149bee984e8	-0.8946884850267027
7	0xbfed700edece9d51	-0.9199289657307564
8	0xc0200a4602b3dc14	-8.020065388160255
9	0xc010a48e0b9ec4fb	-4.1606981101660905
10	0x400b32df3846bbb9	3.3998398205362403
11	0xbfe64ad00bbc46ba	-0.6966324071128931
12	0x3feb31ebc077269e	0.8498438605394829
13	0x401f3a934f903704	7.8072025710841935
14	0xc0007ff7d53bdde3	-2.0624844225783234
15	0xbfe0fe5e5ebd28ad	-0.5310508585328272
16	0xc004aa8333a39379	-2.583258059911199
17	0x3f9e46a48f66b301	0.029566355946076154
18	0x3fe9cf709dd4a30a	0.806572254431644
19	0xc010549367793bf8	-4.082593552374412
20	0x3ffc64e8bb0b9a2d	1.774636011739527
21	0x3fee97af09b88298	0.9560160817964798
22	0x401e043d34733e04	7.504139728101567
23	0xc006235880dd2457	-2.767258650540082
24	0x4010c64628e3f8dd	4.1936270131247655
25	0x401243c75de08eae	4.566190211134808
26	0xbfdd29c4a3432ca8	-0.45567432349771275
27	0xc00118b46b479c9a	-2.1370628720502056
28	0x4013feacf36e865d	4.998706630345251
29	0xbff274315a2157b3	-1.153367378302829
30	0x400712adba19aff3	2.8841204203690665
31	0xc00a6c34e97e4ac6	-3.3028352967897687
32	0x3ff3d998fb6b0ce6	1.2406244107267468
33	0x3fdd168dc8095920	0.4545015767556766
34	0xbffa89c32c8f13fe	-1.6586333981115327
35	0xc00087d190c97eac	-2.0663176833621346
36	0x3fd8418a9dc13f9c	0.3790003338408441
37	0xc01666c0388c3cf3	-5.600342639502958
38	0x4010bda9ce0a133c	4.185218066563547
39	0x3fd2867e82cd0690	0.2894588734962804
40	0x4012537300cbe553	4.581493389553844
41	0x3fec3acb05131da0	0.8821768855204262
42	0x402c3bf0a52ddabe	14.117070352408856
43	0xc00393f1a9f5a4db	-2.447238281067809
44	0xbfeb7feb72cb44a9	-0.8593652002401956
45	0xc006605103ed0447	-2.7970295244890937
46	0x3fd4136cd6f62bb6	0.3136856173738879
47	0x3ffd1dbbe6a067ba	1.8197592743731392
48	0x40074208a65a3a13	2.9072430607113886
49	0x3faf4cebd0d112cc	0.061133736839598635
50	0x400d824f7dcbfa7f	3.6886281803011225
51	0xc0103c846f3e80a9	-4.059098947706084
52	0xbffde53fa45135a2	-1.8684688967362963
53	0xc00fee0da5a8edcb	-3.9912369672945025
54	0x3ffc54cb7b8e1bc4	1.7707018686648874
55	0x3ff980b6afe453c2	1.593924223973986
56	0xc02328184c9c5dd8	-9.578310388648717
57	0xc02fb5b76c473e8b	-15.854915031143966
58	0x40187f88c73d7e00	6.124545205238519
59	0x3fca789e4473282f	0.20680597631718586
60	0xbfea20e8c9a74b63	-0.8165172518296057
61	0xc003a73a68c653cd	-2.4566543756031707
62	0x3f7638f5c84e9ebe	0.005425415122693953
63	0x3ff78bed32cd756d	1.4716617569423207
64	0xbfed61d1292a968a	-0.9181905559568844
65	0xbfe867d703a28158	-0.7626757689468304
66	0xc00bd75fd9fb1b4b	-3.480163290954271
67	0xc005d0b8134c438e	-2.72691359592904
68	0xbfed19568d41b086	-0.9093430289190259
69	0xbfa57bfd6849d76f	-0.04196159265568055
70	0xc0126c1ea507be4f	-4.6055856500602905
71	0xbff62e6df583d382	-1.3863353338649351
72	0x3fb2ed74f75d31d8	0.07393580474053552
73	0xc00907a61bf87691	-3.1287347970199524
74	0x4011333f91f399c8	4.300047188275535
75	0xc016f9e42cd5fc6c	-5.744034481583281
76	0x401d1b9a9cb40db2	7.276956985940545
77	0xc00100a49fed8a03	-2.125313996731394
78	0xc00b842f99cdc5e1	-3.439543916313355
79	0xbfe2f7a8467cd939	-0.5927316071236312
80	0xbfe6554d589c11cf	-0.6979128580720103
81	0xbfd429489b7f953a	-0.3150197523630883
82	0xc017d30bef8a8941	-5.956100218611312
83	0x3ffc4222ee2f6b18	1.7661465934858764
84	0xbffca00e8defc289	-1.7890763801953276
85	0xbfee123826d26b04	-0.9397240408173677
86	0xc0122287e1ab75b9	-4.533721471872405
87	0xbffb758fb1b020a7	-1.716201490491622
88	0xbffcb08de401537a	-1.7931040674640983
89	0x3ff4def8221bb545	1.3044358570435446
90	0x4013dc1f8fdcd2a3	4.964964149334864
91	0xc00aa7bbcc569ea2	-3.3319011653837416
92	0xbfe689a2a7507362	-0.7043011920792248
93	0x4003aab62c75be2c	2.4583552812034863
94	0x3ffc17995c187403	1.755761489627958
95	0xc00a05baebc4522e	-3.252797929695837
96	0x40001e2de580df7c	2.014735978122131
97	0x3ffd8c3e2317e1ba	1.8467389460403028
98	0xc0197a89da5d8ce7	-6.369666492423881
99	0x4004d8418fea4724	2.6055937999125423
100	0xbff2cbd6228530e5	-1.1747647617767651
101	0xbff22224eee1d70d	-1.1333360034308868
102	0xc001b51e2e53aec8	-2.21343647187118
103	0xc00512dea0ecbedc	-2.634213692879582
104	0xbff7c7619ae5b05e	-1.4861770678208113
105	0xbff5e6abdcf4d39a	-1.3688162451846666
106	0x4020f929c9d367af	8.486646945053364
107	0x3fc26b0dc1ec3455	0.14389202088242095
108	0xc0126b8d1ac03d42	-4.6050304584344435
109	0xbffcd2ba519c9b86	-1.801447218700305
110	0x400382771d5a7684	2.4387037556869604
111	0x3fc076c60017d336	0.12862467770141855
112	0xbff2227a6b0ddb06	-1.1334175283242884
113	0xbfebbc4a833dd848	-0.8667347491562021
114	0xc017c5079497ecaa	-5.942411729595884
115	0xbfe0063cdf46901c	-0.5007614479877733
116	0x4000b37cbfe5aafd	2.087640284725579
117	0x3ffd4369495fa4d8	1.8289578310162167
118	0xc01b1d0d553570ed	-6.778371173273837
119	0x4009950d0dbf2b85	3.1977788042035535
120	0x3fca4d3019211c36	0.20548058726328272
121	0xbfe29b9aa572139d	-0.5814946395263295
122	0x4013ce2629729930	4.951317451114207
123	0x3ff03d68d1924810	1.0149925409682545
124	0x401798aca09fbdde	5.899096021413667
125	0x40134c29d108df91	4.8243782674470745
126	0x400d5262e5843bf4	3.665227692697494
127	0xbfffbeeb8a26ba25	-1.9841113468679705
128	0xc001eccd1009b4e8	-2.2406255009615172
129	0xbff4eed8248f2c8f	-1.3083115985962512
130	0xc00fc6c5cfcab704	-3.972056983350628
131	0xbff78dc4911a97ba	-1.4721112888450834
132	0xc00527d97bd0ccbd	-2.6444577859016065
133	0x3fe2c269981ca529	0.586231991857095
134	0xbf8d1bb1d77b8dd2	-0.014212979687221603
135	0xc00110cb74dcc19e	-2.1332005624646646
136	0xc00bb16d80101943	-3.461634636393826
137	0xc0092793404ba00b	-3.1443238280371637
138	0xc01c416acbcfdd7a	-7.063883957445222
139	0x3ff8e96ecac72ed6	1.5569904252069384
140	0xc01e5ae6e992ff23	-7.588771485897982
141	0xc01f7c50a7709083	-7.8714014208272856
142	0x4009d5fd74b9cb49	3.2294873351287703
143	0x3fd85be1d4ab0cd2	0.38060804146171023
144	0xbfd7c7f76fbaca17	-0.3715799895391298
145	0x40142907feccc167	5.04006956219414
146	0xbffef51c2740d552	-1.9348413022356294
147	0xbfe61a94841c64e2	-0.6907446461001678
148	0xbfb4158923f2f976	-0.07845360877670324
149	0x3f7e47c6f921a573	0.007392670859283401
150	0x402015f7f467d806	8.042907369304896
151	0x3fbf61e4f838d7de	0.12258750019176953
152	0x3fe4a5c842f5eed5	0.6452370937181181
153	0x3fedee12089b5bd9	0.9353113334753927
154	0xc0194f7d9592ecf7	-6.327627503483419
155	0x4008dc8630e0a080	3.1076778238821703
156	0xbffcb311216c3c5d	-1.7937175088479969
157	0x4001d8aa10e9b4e1	2.2307931252786237
158	0xbff80a758270f009	-1.5025534720762173
159	0xbff417e7e53eac2f	-1.2558363871455744
160	0x3fe588acf3ab84ca	0.672934032361945
161	0x3ff8304c7c1421a2	1.511791691476994
162	0x3fece6059580f4da	0.9030788345331999
163	0xc018cbd1dff38247	-6.199042796361545
164	0xc017507407fa8743	-5.828567623773611
165	0xc01c8d2c16104fcb	-7.137863487954699
166	0xbffff6bd765fcd09	-1.9977392791741428
167	0x3ffc2c5971ae209b	1.7608274880058505
168	0xc001daa18f21a453	-2.231753462042016
169	0xbff69b4fa6f1b0ce	-1.4129177590612474
170	0x3ff6aa26ab87e8ef	1.4165407848764138
171	0x3ff0f14a173527b2	1.0589085489795989
172	0x400aca423c7f3b8f	3.348759148247559
173	0x3fc8a2a091515f64	0.19246298881148072
174	0x40199b303548047d	6.401551086922265
175	0xc0106c139ceb8d74	-4.105543567540156
176	0xc00557e1797d2473	-2.6679105273547576
177	0x3fdefcfcb0ff4bd8	0.4841911056984691
178	0x3f8808f7e8ce3ae4	0.011735855858004247
179	0xc0038094688ddfca	-2.4377830665871203
180	0x40024d262a4f517b	2.287670450730898
181	0xbffb3511582ee2f4	-1.700455994096214
182	0xbfc8a0288f9730b7	-0.19238764773615966
183	0x3ff31b9961916e58	1.1942380725148691
184	0xc00073b5ffce6567	-2.0564994797575085
185	0x3ffa0970f0149daa	1.6273049715181096
186	0xbfb60684c2c3fb9f	-0.08603696589487562
187	0x401866f174617cc9	6.10053045125023
188	0x3fc75ab130d8e4c1	0.18245520482176938
189	0x3ffedfe994fa0e0a	1.9296661204724637
190	0x4025efc9f834a7c3	10.96833778040662
191	0xbfc371197b6d3aba	-0.15188902403538923
192	0x4022ca4392348d03	9.395046776690384
193	0x4011ea7d8a798693	4.4789945255921735
194	0xc0181a8acc2fd014	-6.025920095842611
195	0x3fc9afe4f06f7713	0.20068036785135543
196	0xc00cce5022c94504	-3.6007387845680814
197	0x3ff1a888d8311ac7	1.1036461300843017
198	0x3fd62a027ca06d0b	0.34631406946728366
199	0x3fea352b0df2d812	0.8189902565416125
200	0xc001a3b5a61e4be3	-2.2049363115306604
201	0xc0032f01d0b307d6	-2.3979526810298735
202	0xc011ca93550eb70f	-4.447827652953278
203	0xbfd862851e61bd5a	-0.38101318327877254
204	0x3ff244a3fce1a360	1.1417579534701972
205	0xbfdb91dcc3834d18	-0.4307777318292252
206	0x40134c1b3ae7dcde	4.82432262458971
207	0x3ff8c44eede50053	1.5479268353228874
208	0x4018a33cc77c13a3	6.15941154188923
209	0x4019c1bf804aefeb	6.439207081388285
210	0xbff140a6994477f8	-1.0782838809022888
211	0xbfd97c9a5befcdab	-0.3982301614589356
212	0x3fb63ced8b14f744	0.0868671860270896
213	0x4019933a6992a6a8	6.393777513099543
214	0xc0035f0d76ad1787	-2.4214123984883744
215	0xbfdb0801edc9f81f	-0.42236374112678904
216	0x40035a1249eb03f4	2.4189801955076238
217	0x3ffe61cd16eaf9ed	1.8988772292356046
218	0xc013d252078c57d2	-4.95539104265295
219	0x4008c83a3c61524d	3.097767326087967
220	0x3fe3d79cdc77180e	0.6200699144326351
221	0xbfe36b94dcb0dea2	-0.606882506405743
222	0x4014bd43ac309170	5.184828463043559
223	0x3ff3fbb562c477b9	1.2489522798636996
224	0x4009b1c2b0e557d2	3.211797124861712
225	0xc00d20c4381ed685	-3.6409992584620476
226	0xbfe4100dddc3f0c3	-0.6269597369532892
227	0xbfd76f06c6593205	-0.3661515175815853
228	0xbfcfdcddfb01b462	-0.24892782932457452
229	0x400566009ad09b5a	2.67480584096067
230	0xc01e5b2ac9fbebd2	-7.589030414582298
231	0x4009bfa62b4ff0c3	3.2185786613245866
232	0x3ff472cd6f921e4e	1.2780279501183887
233	0x3fe4a5c6c1eeeeab	0.6452363765487993
234	0x4008ac393fb08ca7	3.0840935683969124
235	0x4005ef906088deb3	2.741974596192301
236	0xbff6b5789d4c7a53	-1.4193044800264445
237	0xbff9984a86f20edc	-1.5996804496107222
238	0xc01d61a05c9455ec	-7.3453382936036
239	0x400ef8b9b1a438ce	3.871447933029322
240	0xbfc36050089bf8a4	-0.15137672825216442
241	0x3fcf5cdea6f6b031	0.24502165939827728
242	0xc010ad8d9acd1712	-4.169485491531093
243	0xc001862b9c2276e1	-2.1905128667848293
244	0xc03d54c7ee434955	-29.331175700595242
245	0xc00ba271d6d283ea	-3.454318693446557
246	0x4030dd66c5bbbd15	16.864849432310695
247	0x3f69efb34d6da33a	0.0031660558701570836
248	0x40190a6716354977	6.260158869745616
249	0x40055aa7147b8e71	2.6692639923292565
250	0xbfe65b6c5f8010a0	-0.6986600747336702
251	0xbfe8730c68a9aefa	-0.7640440029331039
252	0x3fdf2c3f061ca3a6	0.48707557293760784
253	0x4012395960cfb4c7	4.556005013158205
254	0xbfd3daf2228f37cc	-0.310238393544634
255	0xbffd75ea31e96f3e	-1.8412877988511833

module.layer_1.bias f8 [512]
0	0xbff6092ce7818295	-1.3772400897216006
1	0x400c7e6fdaffcbd3	3.561736784869461
2	0xc0026b017a382559	-2.302248911703526
3	0x4008ad9f99ad1982	3.084777069659311
4	0x40008fb17b5a4ab7	2.07016273850726
5	0x3ff9c304eab7ebb7	1.6101121109665948
6	0x3ff5e012f86956f1	1.3672055915425825
7	0xbfec838aecb57d72	-0.891057455370101
8	0x3fffb6e1e2ece395	1.9821490158339874
9	0xc0276f8dbce3fd59	-11.717878249007002
10	0x3ffad5ee5b5af4c6	1.677229267937308
11	0xc015f1a4647ffed9	-5.4859786704180005
12	0xc011698d5f78804c	-4.353078357438857
13	0xc02009d8cfefb7b6	-8.019232271206288
14	0xc0327e889df6cf0f	-18.494272110706387
15	0xc010a583856fab89	-4.161634526196289
16	0x3fc4b4d2317bcd32	0.16176822105590244
17	0x3fe544eae350a3c1	0.6646627845521992
18	0xbff99511d9eed91d	-1.598893977452071
19	0x4016cafbf54c0060	5.698226769222032
20	0xc00b61af29d8d306	-3.4226973790449646
21	0x3fe2ca208e31ccdf	0.5871737267720184
22	0x4004aad2d1366628	2.583409914467456
23	0x3ff18c1769507537	1.0967020143355748
24	0xc0163b03dc3f919a	-5.557631913547448
25	0x3feda4ae9cf391f3	0.9263527932603765
26	0x4001cc36614d1ffd	2.2247130967771214
27	0xc02256215087a663	-9.168222919997055
28	0xbfdef4aa5ca27679	-0.4836831955561603
29	0xc007382692e37be8	-2.90241732365347
30	0xbfe9d8f932e239d3	-0.8077360147306599
31	0x3fff5ae1d780b8e0	1.9596880357817597
32	0x3fe8db57d42b0ed2	0.7767752784643227
33	0x40084dd0cf855668	3.0379959309164413
34	0xc0124cadfaafa2f9	-4.574882428140648
35	0xc02364343555cc29	-9.695710818026855
36	0x4012a31fffcb954c	4.65930175476144
37	0x3ff61972a055349f	1.381212831783422
38	0xbffe679ed82ddfd5	-1.9002979702472562
39	0x40126ca0a2b2e289	4.606081525963085
40	0x3ff3b52522ff9ff1	1.2317248694544072
41	0xc014680d078d150f	-5.10161220358465
42	0xc0198abe83ffb69b	-6.385492384417058
43	0x3ff1c9d7e77b4ebc	1.1117781679394474
44	0x400ad835f5282402	3.355571666038032
45	0xc0115e38b85559d3	-4.3420132448286095
46	0xbfff023f1af3e054	-1.9380484631383483
47	0x400964fa680ee3d1	3.1743057374519386
48	0x3fb658e81b6198b3	0.08729410809027875
49	0xc01cf15fa4ceaa13	-7.235716414560119
50	0x3fd462c6e322c971	0.3185288637279405
51	0xc00369498babad20	-2.4264098083273353
52	0xbff4fc2484e9ed44	-1.3115582649177933
53	0x4016ff2d7e90c6db	5.749196984850381
54	0xbfe7ce75ae5227be	-0.7439525990205238
55	0xbff7d5d649133246	-1.4897063116542468
56	0x400353cc8338018c	2.4159174205271423
57	0x3fc1a9c99cb726a9	0.13799400474663528
58	0xbfeb263fad27be56	-0.8484190351427496
59	0xbfef2371bc75e83e	-0.9730766945715528
60	0x3fc4bf2a5e3e6230	0.16208390809767215
61	0xc02999d79e88bc4c	-12.800473169509267
62	0xbf941c24c563cb19	-0.01963860945484006
63	0x400a781dd2eae832	3.308650634568971
64	0xc02737b27af693f0	-11.608783571815337
65	0x4017ff0e06033342	5.999076932854964
66	0xbff18084c1629004	-1.0938766054250673
67	0xbff24f9e9fab7cd0	-1.144438384733622
68	0x40053f6628635e14	2.6559565692257454
69	0x3ff59bffefe5344a	1.3505858775054258
70	0x401ee6e4044b74da	7.725479189973351
71	0x3feadba73ad7d7f0	0.8393131398468068
72	0x3ffbcb9d25caacac	1.737210414527719
73	0xc02e20a2722a45fa	-15.06373936430008
74	0x3ffa7608223c2d58	1.6538163506800938
75	0xc01d6fe193d3502b	-7.359258947155506
76	0xc0104dcba659dd66	-4.075972174868502
77	0x400756d9bda0a646	2.917407494988569
78	0xc00622c48778fe83	-2.766976412181806
79	0xc00c4eb416ed80c9	-3.5384294310789284
80	0x3fe0c1d8e21bf5d9	0.5236629882999139
81	0xc0007a13ca3169ba	-2.0596080585794114
82	0xc02090a0218e76d5	-8.282471703186653
83	0x3f7c4139ff777287	0.006898142389641599
84	0x3fd280ee7af577e1	0.28911935813618866
85	0xc01608ff92c6f5cc	-5.508787434953273
86	0xc0073caf4c29a831	-2.9046312284672458
87	0xc00149a710813221	-2.1609631814410624
88	0xc003ce386ac4c2f1	-2.475693544511494
89	0x3fc9e11b97f1ec46	0.20218224448385252
90	0xc024aa9c9a023638	-10.33322602536201
91	0xc01c399458c6bc0c	-7.056229960565371
92	0x3feeebafc6c85efc	0.9662703402018162
93	0xc00085046b947252	-2.0649498371770187
94	0xbfc3f6c2874c5194	-0.15596801382401948
95	0xc010b5c438a9b756	-4.17750633750787
96	0xc01531275d9a6448	-5.2980017304881315
97	0x3fd090fa4b178358	0.2588487370795085
98	0xbffb18e75ac2b2fc	-1.6935800118764623
99	0x3ff2f2509a083999	1.1841588990097078
100	0xc00ef0cbd7f14e6a	-3.867576300670227
101	0x3fe6169ed0c5146d	0.6902612760101313
102	0x40183c644c241c75	6.058976354316759
103	0xc01162d62eec82f0	-4.346520169435038
104	0xc024da3896352822	-10.42621297263037
105	0x3fe240ced9713e21	0.5704111334725362
106	0x40075107d69810c4	2.9145657315403657
107	0x3ff64503a4304ba6	1.3918491757983502
108	0x3fec23554c3eeb8e	0.8793131341147828
109	0x4008d2c4486d7c9e	3.102913442460319
110	0xbfe70ec804f75c6a	-0.7205543610570093
111	0xc01881e193709e6f	-6.126837066410743
112	0xc00bc6adc3a4c563	-3.4720111164721614
113	0xc019dd318d1e7766	-6.466009335503122
114	0x3fa5dd9a11c67d24	0.042706312818376696
115	0x4011d114e6958e61	4.454181292417702
116	0xc01d9e5a01116caf	-7.4046402136693095
117	0xbfffbc0dd0f8357a	-1.9834116137384101
118	0x4010059886b459e4	4.005464653737793
119	0xc00a49f4127202ca	-3.2861100617450107
120	0xc01c8c4ea6ae299a	-7.137018780117069
121	0x3fe870ffe05e278f	0.7637938863929196
122	0x3ff0789b9bd3834b	1.0294452750169565
123	0x3fe591ee72fe1742	0.6740638967464536
124	0xc00ae743338c923d	-3.3629211451791705
125	0xc012f462687e0d6c	-4.7386566473900125
126	0xbfa80c23be6edfee	-0.046967617984989704
127	0x3ff2c5a9ff215b81	1.1732578245189134
128	0x400b4d99c4920eff	3.4128909451554814
129	0xbfe3e13d27ccbf3c	-0.6212449815120418
130	0xbfb827f2583a4f07	-0.09435953763960124
131	0xbfe9683c08d290c5	-0.7939739391627191
132	0xc01284f69b246370	-4.629846977325414
133	0xc0036d802b76719b	-2.428467120697133
134	0x40175a87ee66f06f	5.838409161599073
135	0xc009c13a395f6ef5	-3.2193493349312754
136	0x3ffb4788c5337699	1.7049644187131092
137	0x3ffa5056f799469a	1.644614188368371
138	0xc0123ab194ae431a	-4.557318041931262
139	0x3ff5051d3e8f299a	1.313748592731463
140	0x4015853e441092fc	5.380120337974173
141	0x3ff257f8d5ccc6f6	1.1464775420722026
142	0xc0082179106493dd	-3.016344192571053
143	0xc02059fec258a68d	-8.175771783181768
144	0xc00b8e56a16dbcf7	-3.4445011722196983
145	0x3fdc8e4e6e113f5c	0.44618569134489916
146	0x3ff11f33f1936072	1.0701178967047125
147	0x3fe16db4a021669a	0.5446417930172232
148	0xc002cdee35e53ef8	-2.350552006777317
149	0xbff5da43dded0b14	-1.3657873791677888
150	0xc00b968e1a0d6c30	-3.448513225111604
151	0xc013662b430e07fc	-4.8497744061769446
152	0x401b5b0b35e642ab	6.838909952334386
153	0x401e31acd8c82796	7.548510920731038
154	0x3ff3bcc7c82fba1a	1.2335889644415432
155	0x401e91d395d40153	7.64240869623639
156	0xc005fa38984c40dd	-2.7471782587309534
157	0x4012916a9bfecf66	4.642008244922044
158	0x4019445500171c3d	6.316730500612775
159	0xc015d6a7014d7272	-5.459621448852532
160	0x401103c5ea2ce5d8	4.253684672346445
161	0x400a13969a39c708	3.2595645951158794
162	0xc0109ee2bf83ac96	-4.155161850368264
163	0x4012ac2834dd9258	4.668122125648175
164	0xbfcf2bd226cff7a2	-0.24352480788359993
165	0xbfc240a0aeb7af06	-0.1425972798455108
166	0x3fe47cfdba16af91	0.6402577051680841
167	0xc01046a07534d780	-4.068971473074157
168	0x4011efe94e70ccdb	4.4842884308193005
169	0x401dabc193857e65	7.417730622313319
170	0x3f90118de3d5c228	0.015691964178986023
171	0xbfd326fd5cce7daf	-0.29925474227089927
172	0x400ddde0f1cb377b	3.733339203848059
173	0xbf938b5a8256eeed	-0.019086279111191585
174	0x4020598da9421f91	8.174908913919156
175	0xc0113e02f00b91fa	-4.310558081346693
176	0xc01d65ed65b542d9	-7.34953841132002
177	0xc00bd46688235ba2	-3.4787111888685596
178	0x3fd22d1612df18cc	0.28400184481541824
179	0xc016f93ea1845012	-5.743402980519038
180	0xc0171283042aa1a2	-5.7680779124279145
181	0xbff84b29b38bce93	-1.5183503163833947
182	0xbff089d4e153bc0e	-1.033650283988894
183	0xc01a9af5120fbfcc	-6.651325494967704
184	0xbff223a2cd73f99a	-1.1337001824864275
185	0x4013ebfa6552403c	4.98044737162132
186	0xbfe2b100c1decb6a	-0.5841068064240578
187	0x40116837d4dcfb90	4.351775480258667
188	0xc01c4f46a2283311	-7.077417882636625
189	0x401f6a58b9a2e370	7.85385408455555
190	0x40018bc62b8b0876	2.193249073200657
191	0x4007ff4b44a9aa3a	2.9996552814748414
192	0xbfff4ba523b40a2c	-1.9559680361422904
193	0x3ff4f5842dd59e1e	1.309940508881375
194	0x4016ca9e43500cc6	5.697869350205286
195	0x4015169fea489c4e	5.272094402963445
196	0x40099d8097a54bf6	3.201905426723438
197	0xbfe453af7449df8d	-0.6352154990445215
198	0xc004ba9d304bd458	-2.591120126070148
199	0x3ff22ee14e8775ed	1.1364453380150465
200	0x401145f7418301b1	4.318326018925675
201	0xbff23da84f51fb1a	-1.1400530909010684
202	0x3ff4bc1ef3b451bd	1.2959279555990257
203	0xbffede2d1d4f4428	-1.9292422432811325
204	0x3ff9c904ccbc10e0	1.6115768430182058
205	0xbfdbb323105c34c8	-0.43280865285562387
206	0x3fe6088d34228f82	0.6885438936483157
207	0xc0110ad2d916c64f	-4.260569946303419
208	0xc005ee98295de192	-2.7415011626982926
209	0x3fe87d1fda6409b9	0.7652739777989189
210	0x400c44337aa024dd	3.53330131341191
211	0x3ffb8830785214c8	1.7207493495964616
212	0x4019ac1cfd194525	6.418079332988133
213	0x40139dac67b2f975	4.903977985666974
214	0xc011bcdd56857d7f	-4.434438087365719
215	0x3fce2431b166711e	0.2354795566760765
216	0xc019b71cf5e00c75	-6.428821412849278
217	0xc01e61707c93e5f1	-7.595155664946547
218	0x3ff2dd6b26ea9290	1.179057266251366
219	0x401733f808cebd69	5.80075086366501
220	0x4011b7faea3f09fb	4.4296681023574775
221	0x4017dfc5e49cc48f	5.968528339451168
222	0xc010e05c9b276163	-4.2191032641206645
223	0x4018946dcf8c8991	6.144950144722672
224	0xc011d6e9e7ab6c42	-4.459876651609251
225	0x3fedeb1ee5fc1c3e	0.9349512569323293
226	0xc00e5a7ef16f1e30	-3.7941874372516153
227	0xbfd96018588ee335	-0.3964901795221068
228	0x40121d092bc9c1e2	4.528355297269146
229	0x4017436cbe40e421	5.815844509802475
230	0x3fd944954189d60c	0.39481097603069837
231	0x40153e24e2c0ea11	5.310687582993084
232	0xc00c47eb3652f669	-3.535116600424591
233	0xc014fb5a59513def	-5.245461841186155
234	0xc010555b4ae74228	-4.083356066098112
235	0xbfe57dae513a98a7	-0.6715919100286286
236	0x3fb16f65830c5799	0.06810602616709928
237	0xc01699500a1f7d62	-5.649719389125808
238	0x3fd8852c6539219d	0.38312826047015297
239	0xc004efaad7d1e3e1	-2.617025076001014
240	0x4013df8d028f0169	4.968311347940792
241	0xc013599b99efa661	-4.837507634403296
242	0xc0199b009d9544e0	-6.401369535670909
243	0xc00eeaebc810564a	-3.8647075300203015
244	0x3ffcded8a1e12d1e	1.8044058154508273
245	0x3fd78ee9fb48f6cd	0.3680977777438386
246	0xc00c538f7f306177	-3.5408010422362923
247	0xc01a871fddb90bbb	-6.631957497042943
248	0xc01fcaa4aeb7fcb0	-7.947893838863067
249	0xbff269d049ef007e	-1.15083340530694
250	0x3fe4af54db9f5796	0.6464027680874433
251	0x3ff8f1f820662d58	1.5590745225516311
252	0xbfe62204b6f1b864	-0.6916526387337965
253	0xc016d6a376893ba8	-5.7096079369793316
254	0x3ffabcd1c248956f	1.671098479194679
255	0x401b069b7ef4bf53	6.756452544868654

module.layer_2.weight f8 [128, 512]
0	0x3fab6f4ceeae0d25	0.0535835305554662
1	0xbff6b4908dd71620	-1.419083169997414
2	0x3fed11e17632ec9f	0.9084327038357464
3	0xbf8b11f7eaf5688a	-0.01321786580836128
4	0xbfcec972bbef33e5	-0.24052271057590172
5	0x3fe9f4cb80d2c0b7	0.8111321941451227
6	0xbfe39bd8b5f406c5	-0.61277423417797
7	0xbff68965de0efee8	-1.4085444139636198
8	0xbf87f4693aa6d87a	-0.011696645834359243
9	0xbfe87b6e31ebf8ea	-0.7650671935114393
10	0xbefea90bc5cd0323	-2.9239974867370456e-05
11	0xbfee0efa9e02e9bd	-0.9393284879836795
12	0xbfd16519a25e855f	-0.27179566246384995
13	0xbfee58b94a43a155	-0.9483305407020831
14	0x3fe9bc27f5426815	0.8042182722304029
15	0xbfe488648160a75d	-0.6416494872002932
16	0xbfee04dcf96f093f	-0.9380936500313409
17	0xbfe44279df9de171	-0.6331147544397436
18	0x3fc88005a04f0bec	0.1914069206960386
19	0xbfd87a7b1c05ca8d	-0.3824756406458299
20	0xbfe03b7ff9b0e5b3	-0.5072631718423309
21	0xbfed6b2b1ae3abb9	-0.9193320775205996
22	0x3fe88c6aaef0ebc8	0.7671407143419566
23	0x3f9c390894fab11d	0.027561315625164718
24	0xbff504e7f0bd6e09	-1.3136977580933282
25	0xbfe185a8ebd62814	-0.5475658994848822
26	0x3ff1fa223f923f89	1.1235678179982378
27	0xbfb1ba8968a190b2	-0.06925257496328888
28	0xbff13ce4fe7bf2c4	-1.0773668232715616
29	0xbffe2caa5195b5df	-1.8859046160608768
30	0x3fd53d697f7d589e	0.3318732972160293
31	0x3fbd36e63310c349	0.11411894556728187
32	0xbfe18d0e9f8c22e5	-0.5484688869629194
33	0x3ff09c6431bd4b27	1.0381814902254491
34	0xbfda36768c0cf135	-0.40957416226207793
35	0x3ff7716daa1fe984	1.4651924748892222
36	0x3fdd1c4f7b1287ae	0.45485293406283744
37	0x3ff14a6b6d66d188	1.0806688569547038
38	0xbff55dbef3881b2c	-1.3353871834712647
39	0x3fee0b64b9882c81	0.938890802733468
40	0xbff593cd847ff10a	-1.3485846687099774
41	0x3fd9519250a797df	0.3956037318843055
42	0xbff47fa5d8fac99c	-1.2811640239493505
43	0x3fc159dc64a653be	0.13555483736550217
44	0x3ff07604f4276324	1.0288133179912586
45	0xbff07bfc27ba66f3	-1.0302697708015642
46	0x3fa01fc7ddc95f72	0.03149246771198379
47	0x3fe01e97cd7e4c6a	0.5037344945470867
48	0xbfe69ba4097a5595	-0.7064991173853509
49	0x3faf9ae400740001	0.061728596740067594
50	0xbfda42e76afc36ed	-0.41033349464201657
51	0xbfea77c967401915	-0.8271224037751234
52	0xbffd8a65a829f0e7	-1.8462883538150494
53	0x3fdd6381a92fbc4f	0.45919839403263024
54	0xbfe6eee626905811	-0.7166624787521433
55	0xbfc44cf3ded0bd05	-0.15859840755135948
56	0x3fc21a29b66a20a3	0.14142342955552065
57	0xbfae66f81547e693	-0.05937934169555805
58	0x3fdc74e1583ee450	0.4446338044904836
59	0xbff448f599d525a4	-1.2678123482786328
60	0xbff1d1ecf9ad69c0	-1.1137513878844487
61	0x3fe7b7b8472f1d76	0.7411767378152223
62	0xbff729e81ccafec8	-1.4477311253285041
63	0xbf96ef6a3eca73f5	-0.022397670824478372
64	0x3fe5762bd468678e	0.6706751965132172
65	0x3ff86f849644b234	1.5272260541779703
66	0xbff4035b71e9915e	-1.2508196305944561
67	0x3fcde35761d459e8	0.23350040699797536
68	0x3fea45b869ad270d	0.8210107864372006
69	0xbfccb8d108ceb848	-0.22439015321782763
70	0x3fe50d4b3aa4e22a	0.6578727860824689
71	0x3fe6ccd26e51e0e0	0.712502685039933
72	0xbfd68919a09fe409	-0.3521179264640187
73	0x3ff7f309f1a942bb	1.4968356552018764
74	0xbff9e754adfd9ef2	-1.6189772411834693
75	0xbff2b4784731b6a1	-1.169060018637005
76	0x3fc637f645519d1f	0.17358282456118787
77	0xbffa4d6c27b133ae	-1.6439019728161202
78	0xbff1c30a6fde952d	-1.110117375364392
79	0xbff643136ce30e22	-1.391375947322452
80	0x3fe2786a97e383b1	0.5771992651535723
81	0xbff5f0a1bf041e00	-1.3712480031553014
82	0x3fd508d2ca9b7230	0.3286635378442808
83	0x3fe506c49e3f2a5a	0.6570761767155304
84	0x3fe97dcbf10ac49c	0.7966060359814437
85	0xbfe70945ebc2cb4c	-0.7198819737153399
86	0xbfbf4ebebacdca4d	-0.12229530392304717
87	0x3fd6ee74c0ed369e	0.35830420341958724
88	0xbfeab5b11c3213bd	-0.834679179257925
89	0x3fb86a14982eeee6	0.09536865916646384
90	0x3ff7f1a1886cd197	1.4964919404129426
91	0xbfe86935d298dee8	-0.762843047449647
92	0x3fe9d63af34cbf42	0.8074011566113557
93	0xbff3473b9f03986d	-1.2048908435331456
94	0xbff0cd251524ec48	-1.0500841928431033
95	0xbfa7c9c666350481	-0.04646129605908645
96	0xbff173c0ba728ce0	-1.0907599719146717
97	0xbfb6627d454c7fad	-0.08744032804361153
98	0xbff6a37dd401630b	-1.414914920946276
99	0xbff3fd48ff00452c	-1.2493371926287393
100	0xbfe1269fc9ed1e60	-0.5359648651000946
101	0xbfd6b96add37ffc3	-0.3550669823016472
102	0x3fe7374da2aee759	0.7255008866697877
103	0x3fd4cc29c20d4361	0.3249611277615739
104	0x3fd0016dd6c89544	0.25008722281412
105	0xbfe548f19b4f1b49	-0.6651542695407012
106	0xbffe3f2ea262688d	-1.8904253333226138
107	0xbffd2cff8a337781	-1.8234858892896855
108	0x3fdb8657630300c2	0.43007454556574143
109	0x3fec9f011dfccbd2	0.8944097123807018
110	0xbffd13095459cc3f	-1.8171475691749632
111	0x3ff27512cefa097a	1.1535823903110143
112	0xbffa076854f3cfa9	-1.6268084829762108
113	0xbfe37ffa8d124b32	-0.6093724017431212
114	0xbff9f72e0db2c60d	-1.6228466544238274
115	0x3fa689c6ff027661	0.04401990759764086
116	0x3fdf2f2a06d65f36	0.4872536722918882
117	0x3fd66e7b4db11a17	0.35049326502886075
118	0x3fe8d577d13381fb	0.7760581098519305
119	0xbff5ce68ba27a595	-1.3628928443598387
120	0x3fd1414724335093	0.26960924658966084
121	0xbff3ca5dba6b40f6	-1.2369057924261688
122	0x3feb94f5e1562a20	0.861933651075848
123	0x3ff052e6f1d7dbc6	1.0202397772788898
124	0xbfd705f28bf9dbc0	-0.35973800344021
125	0xbfe391f45f55dac0	-0.6115667211550644
126	0xbfcfac357a6d260d	-0.24744289853906345
127	0xbffaed4336c62e45	-1.6829254283537847
128	0xbf9314234e580927	-0.01863150754616885
129	0xbff3cc071bc29c71	-1.2373114666350171
130	0xbfe500b8b1b317f9	-0.6563380690283785
131	0x3feca2ed87f1a245	0.894888654246707
132	0x3fe8755ed8d9c32d	0.7643274531711534
133	0xbffb7d80114fd764	-1.71813971292928
134	0x3fd90ff171d70dac	0.39159809224312414
135	0xbff83a860922f17c	-1.514287982644503
136	0x3fd4d6d4f9b48b2b	0.3256123007324045
137	0x3fd0df1805a7895e	0.2636165671557559
138	0xbff3999f168c63f4	-1.225005233840645
139	0x3fa2bc5ca0325623	0.03659333663487654
140	0x3fe0028dcae78a7d	0.5003117526033091
141	0x3fc61fa7b67b4788	0.17284103784782823
142	0xbfeee57bacea38df	-0.9655130746121151
143	0x3fd80ba08c649036	0.37570966444241394
144	0x3fd75bd16df14e37	0.36497913109380725
145	0x3ff50c6d3fcd5e92	1.3155338756822954
146	0xbffce5849740f569	-1.8060346515988732
147	0xbff8a13158d3a372	-1.539353701571795
148	0xbfa3f789e302bff6	-0.038997944794914405
149	0x3fe19a6b138513ff	0.5500998860594563
150	0xbfcc2724331e01e0	-0.21994450088460749
151	0xbff18d1a52728d8f	-1.096948930797996
152	0xbfd61953ddc30faa	-0.3452958741802329
153	0xbff10ef0ddd3fddf	-1.0661476769599785
154	0xbfda5298685bd867	-0.41129121962820253
155	0xbfe5bed1926cbbdc	-0.679543291078399
156	0x3fe566571db33e8f	0.6687427120286474
157	0x3fec890562eafe7d	0.8917262012473227
158	0x3fc1129894d89e23	0.13338000553015758
159	0x3fc2086ecdef22d2	0.14088234954240036
160	0x3fe85b9781fbbd39	0.7611806429612563
161	0x3fe407918825f770	0.6259238871714228
162	0xbf9d96212104917d	-0.02889301075005467
163	0x3ff3800b5c59613a	1.218760834444835
164	0xbfe86b97f862e8e4	-0.7631339885040487
165	0x3fea42a742c92f19	0.8206363968288058
166	0x3fd91ece437d9533	0.392505231770275
167	0x3ff8643b8a9d2680	1.5244708456615683
168	0xbfde94de15c5ec2c	-0.47783615232737264
169	0xbfe33479be083d00	-0.6001557075086623
170	0xbf8f834bbf5d8524	-0.015387145783906826
171	0x3fe92f927b5fe305	0.7870571527156193
172	0xbf9b7a7eda5f69c5	-0.026834470823681195
173	0x3fe47561a71590be	0.6393287909854946
174	0xbff45f217df1d602	-1.2732252998079052
175	0xbfef68de59a52095	-0.9815513373259984
176	0x3fdbc502731aa728	0.43389950981746717
177	0x3f993e9a9775e21b	0.024652877325452942
178	0x3fe8d4ee8737a6dd	0.7759926453556677
179	0xbfecf3f35d0176d0	-0.904779130603595
180	0xbfb2af3b6b72b567	-0.07298632977718499
181	0xbff6d5d60b58ee5b	-1.4272060817010217
182	0xbff2e11c6a6fef77	-1.1799587400155056
183	0x3fe2cfe1fea2a009	0.5878763173432172
184	0xbfbd46d0271675a7	-0.11436177210131025
185	0x3ff023e9856dd998	1.0087676250528599
186	0x3fd6724a60b9e898	0.3507257408706521
187	0x3ff13fb73f1c7ffb	1.0780556168829196
188	0xbfdb88a0d54d0a76	-0.43021412687463767
189	0x3ff9be6423e5f0d2	1.6089822199128787
190	0x3ff1b58516c38d36	1.106816376611119
191	0xbfee5620e17c25e4	-0.9480137256625167
192	0xbfde5450df23e8fa	-0.4738962344269023
193	0xbfd56aba7f0e34d2	-0.3346391907478622
194	0x3fdb60755d2e2b4c	0.42776235675471663
195	0x3fe7706b8c154e6b	0.7324731575012725
196	0x3ff64a0c4af006e6	1.3930781295061307
197	0x3fdc5723b8af73d3	0.44281857524566454
198	0xbfeadeb08a639fa1	-0.8396837904847311
199	0x3fec2ceeb65a7d77	0.8804849206534716
200	0x3ff0dd64de3fa81c	1.0540512734974135
201	0xbfb95256a60b783c	-0.09891263536289413
202	0xbff5399abce99d9e	-1.3265635852238584
203	0xbff0e8b89e0dd9a5	-1.0568166898716325
204	0x3fd8d057670ec1f5	0.387716150896295
205	0x3fe724d22878872f	0.7232447424359857
206	0xbff09c5e5e97afb3	-1.0381759352703568
207	0xbfd25b6e1ae57514	-0.28683045031159904
208	0xbfe2c37324a92052	-0.5863586154964742
209	0x3fef8008e982f649	0.9843792496464597
210	0x3fed729eed78a43b	0.9202417982206791
211	0x3fd22aa883d61bd2	0.28385365366596915
212	0xbffd5ed550978393	-1.8356526516074367
213	0xbfd96a0b2220f725	-0.3970973809517651
214	0xbfe754c2ca637338	-0.7290967896366061
215	0xbfd0e3311f3bdf5d	-0.2638666920679407
216	0x3ff5d5bb5fb491a7	1.3646806467523704
217	0xbfdb07a2f4181903	-0.4223410972339396
218	0x3fe8578d8cd724f4	0.7606876135625087
219	0xbff31bea0b27446f	-1.194314998214647
220	0xbffa0d1cde2bd9f1	-1.6282013586584265
221	0x3fe4c898701d9c3c	0.6494867505797468
222	0xbff664b7c70af6df	-1.3995893263922239
223	0x3fd151035c813646	0.2705696490637347
224	0xbfed6d5fb4e97e01	-0.9196013005675355
225	0xbfdfd6480801fce4	-0.4974536970330077
226	0xbfe13203f1ea7f4a	-0.5373553967401474
227	0xbff8a0b26a2e226b	-1.5392326495804365
228	0x3fefc0c6841dac3b	0.9922821598423818
229	0x3fe524a6655a812d	0.6607238750039294
230	0xbf920c15b57eb9d3	-0.017624224855973324
231	0x3fdf51d1773e5e1c	0.48936878819356067
232	0x3fe5d585f2466982	0.6823148471769829
233	0xbfe0bf3d92e4aa6b	-0.5233447903641041
234	0xbff7ecc93b6ecccf	-1.495309097442078
235	0xbff539fcda7aa789	-1.3266571554508764
236	0xbff4fcc3e5466ab7	-1.3117102581078777
237	0xbfe87574e6508463	-0.7643379686670752
238	0xbff55ff44ce0ebf4	-1.3359263423033072
239	0xbff5ee3ba0262c60	-1.370662332136611
240	0x3feca847e4442231	0.8955420931170633
241	0xbfcaf074fd704275	-0.2104631650440926
242	0xbfba0305d9b60a2a	-0.1016086250802252
243	0xbff1e1cce5b3098f	-1.1176270458823614
244	0x3fabe248de57bff1	0.054460789815379836
245	0xbfd2b69e6e17cede	-0.2923961711050945
246	0xbff6c15853b83da0	-1.422203375844994
247	0xbfe09985f457ef98	-0.5187406322797754
248	0x3ff5c39122e6464d	1.3602458346616857
249	0x3fb9a082ff6ce30c	0.10010546432466699
250	0xbfea3bda504645df	-0.8198062484609031
251	0x3fd44ef056f5bd99	0.31731804363422494
252	0x3ff13dd5a5e1ffe8	1.0775963287160213
253	0xbfe6a47389991599	-0.7075746238194142
254	0x3fdd9bca92122e33	0.46263374581096456
255	0xbffc1cbc8d941ae4	-1.7570157556926285

module.layer_2.bias f8 [128]
0	0xbfde0b696ee8be55	-0.46944652396175474
1	0x3fd4469bd0d7cdfc	0.3168096103174489
2	0x3fca4ae5143d2ab7	0.20541060913304474
3	0x3fb63b57789e8f2a	0.08684298224266898
4	0x3fcd5fc9edeff5a1	0.22948574178728356
5	0x3fc84d5e521d8e94	0.1898610974268321
6	0x3faa700528441ab0	0.05163589588669504
7	0xbfd0e4ab820e25f0	-0.2639569063254319
8	0x3f753bb1c6bc3f31	0.005183882178030606
9	0xbfb3408729e5761c	-0.07520336888179496
10	0xbfcb11079c5cb5d7	-0.21145720610495175
11	0x3fcc9a4039b7342a	0.22345736330172034
12	0x3fc2e45a11708dbd	0.14759374476953538
13	0xbfd0ba7245881f74	-0.2613797835369873
14	0x3fd780de4b9c9056	0.3672404993433295
15	0x3fd5f655de467972	0.34316012102671956
16	0xbfdc716d3a588126	-0.44442301462005884
17	0x3fca8c3b5a8f8498	0.20740453645615697
18	0x3fccf24b07393b2d	0.22614419796669818
19	0x3fb11367006338e0	0.0667023063608414
20	0x3f8109791f39ac6a	0.008318849816723001
21	0x3fc1e7c6d7f712ae	0.13988576455280594
22	0xbfd1bae054c0f194	-0.27703102375724
23	0xbfcdeeb281ce442e	-0.23384696329279236
24	0xbfdbfc3c74dbe0ac	-0.4372702733230749
25	0xbfb4889701f15964	-0.08020919606619753
26	0x3fb12d830dbc89bf	0.06710070691455082
27	0xbfc1328e73dcd041	-0.13435536057807165
28	0x3fb55f148c121936	0.08348205966658359
29	0xbfd0d214909f2a0a	-0.2628222858735688
30	0xbfc4f478381a24c1	-0.16371062030183306
31	0xbfa7ac7282d2e58c	-0.046237543554023736
32	0xbfd617ee0e13f229	-0.3452105653266551
33	0xbfc1cfa89f6f641f	-0.13914974007528344
34	0x3fe03baa48508c50	0.5072833454509098
35	0xbfbe761aa5cb394b	-0.11898962543202633
36	0xbfc57b0fcd529baa	-0.16781804585954535
37	0xbf9baff683dd5a7b	-0.027038432882671586
38	0x3fe248dd7aa1db74	0.5713946719323375
39	0x3fcf982e8e76cd0c	0.24683172184231983
40	0x3fcc42fedca8feba	0.22079454206867927
41	0x3fc4e3cbc6162706	0.16320178196138374
42	0xbfd2dcdc320bd8d1	-0.29473023307163
43	0xbfbbfdd5eb399b39	-0.10934197418974358
44	0xbfa5541b26f67d03	-0.04165730333920161
45	0xbfca802fc32545c4	-0.20703694370835823
46	0x3fc849eeb7a4e221	0.18975624052997467
47	0xbfb34ad05a4d1d01	-0.07536031918163034
48	0xbfcc600c19a0e5fa	-0.22168112994567918
49	0x3fcf88c15f29406b	0.24636094233074188
50	0x3fb97549436518c7	0.09944589515098122
51	0x3faf281686db4fe5	0.060852722131727245
52	0x3fc221bdcecab82a	0.1416547069288197
53	0xbfa45ee723c7b396	-0.03978655158775905
54	0x3fd0d25f1edcbcd8	0.26284006132023086
55	0x3fdf5ae239aa7b94	0.48992210036697625
56	0x3fdcb702d7b29607	0.448670111314954
57	0x3fcabc6a2d7a25b7	0.208874962049135
58	0x3fd0daed3540a7a0	0.26336221886105626
59	0xbfd85fb46ac5b1d8	-0.3808413546273903
60	0xbfc4f9fb307c60fd	-0.16387882106278787
61	0x3fdfd99b26a35a86	0.49765661977054554
62	0xbf9c6cf2fb8a7b9d	-0.02775935802730666
63	0xbfbb835066bb1740	-0.1074724436576533
64	0xbfcb0f2e877dd384	-0.2114008103923447
65	0x3fd407d160f86208	0.31297716588736124
66	0xbfac22a1abbd49cb	-0.05495171758106528
67	0x3fbabad571ece933	0.10441335708029413
68	0x3f99147a83d3aa22	0.024492182060308683
69	0xbfdd2eddc3359ec2	-0.45598548949645246
70	0x3fc9975775674a7b	0.19993108017532166
71	0x3fd283aca87f326e	0.28928677038928796
72	0x3fb3af6a35e3e14f	0.07689536872556356
73	0x3fbeb4aa0cfd1ecc	0.11994421784504111
74	0xbfdc20fa8a5d2882	-0.43951285850619837
75	0xbfce9a1642c0974c	-0.23907736071958607
76	0x3fb31bb481363373	0.0746414962251956
77	0x3fca2e50b06dc435	0.2045384274929646
78	0x3fa3671ad09a21e1	0.03789600178157904
79	0xbf97bdbb690c429a	-0.02318470791493841
80	0x3fcbd4eae8ccf98d	0.21743522994252054
81	0xbfb832a5648cfa8f	-0.09452279763079673
82	0x3fd93f04f6a4620c	0.3944713982214416
83	0xbf60b89780ae359d	-0.002041145232800813
84	0xbfce5c7c256a0c07	-0.23719741656177026
85	0xbfd0928e342b3fb6	-0.2589450368368448
86	0x3fb252028f509f3a	0.07156387328052186
87	0x3faec51b7aff6412	0.060097559704168316
88	0xbfd8fb8b4d3cef26	-0.3903530363347606
89	0xbfc9a6bf4f2d4b8f	-0.2004012238126873
90	0x3fc0ef99bc283984	0.13231202781066653
91	0xbfd9809c6380f2fc	-0.39847478596838903
92	0x3f91e2bd344e8f22	0.01746650344615753
93	0x3fd69896cb7a83f2	0.35306329604105635
94	0x3fc7b81d5195151f	0.18530622943414074
95	0xbfbb9c34798a3e17	-0.10785224883351706
96	0xbfb37f35b44368e9	-0.07615981722793531
97	0x3fd551c59b083312	0.33311596050116166
98	0x3fc75a6b246ecc98	0.18244685439058084
99	0x3fa00a070b892d6e	0.03132650390451884
100	0xbfa010becf55d582	-0.03137775689075807
101	0x3fc4c3e053810128	0.16222766949977907
102	0xbfa2460c03b4aba5	-0.03569066567646154
103	0x3fbd21119b2c2343	0.11378583944691649
104	0x3fa42c6578013ac3	0.039401217364333906
105	0xbfc6928b47409af6	-0.17634716967696534
106	0x3fd3aa75ce33d9f0	0.30727906357733925
107	0x3fcc141d97a81595	0.21936387925249493
108	0xbfc4b61cb6ac79d0	-0.16180762214294342
109	0xbfc0dce5959cdaca	-0.13174123578365587
110	0x3ff244522adc1b3a	1.1416799234591068
111	0xbfd7dd62fe718d68	-0.372887371521037
112	0x3fe01aad47161745	0.5032564533619072
113	0x3fbf1fec5492e301	0.12158085884847127
114	0x3fe11e7bd821a6ad	0.534971162921655
115	0xbfa5c238e0ef2e05	-0.042497422654914664
116	0xbfdf701096368f88	-0.4912148920941424
117	0xbfba9ade42e471ef	-0.10392560132135718
118	0xbfdfe40712cfcd61	-0.4982927020748403
119	0xbfc067113362ee67	-0.12814536103347793
120	0x3f7c97e9be8accfe	0.006980813087170688
121	0xbfca4bead5a2ae31	-0.20544181281489807
122	0xbfb605a8c7cf895e	-0.08602385404768628
123	0xbfad479f7dddbc35	-0.05718706523372711
124	0xbfdb28e78676da1b	-0.4243716061713784
125	0x3fcf4ccfd99ce46b	0.2445316135943217
126	0x3faf3a038d15d656	0.06098948571427047
127	0x3fb594b2c98c042b	0.08430020733432346

module.layer_3.weight f8 [64, 128]
0	0x3ff6509de27bef22	1.394681820586762
1	0xbff71a8bce950275	-1.443980986558157
2	0xbfac2e6143ac5c1c	-0.05504135085191583
3	0x4016a33e079dea50	5.659416312230476
4	0x400e1ef46202087e	3.765114560782478
5	0xbff9a37648a9c050	-1.6024077261354428
6	0xc0015f1138c05ae9	-2.171419566507542
7	0x3faee307c43b31d3	0.06032585401917214
8	0xbfc354d6f416d7c7	-0.15102660101336893
9	0x3ffff01e4ab3f0ea	1.9961226385194615
10	0x4014617f8e786665	5.095213152025825
11	0xbfc14b07687ac41b	-0.13510220147648586
12	0xbfbf42996b173e4e	-0.12210997452279423
13	0xc0007cd94c133c21	-2.0609613364572543
14	0xc017564c338ce741	-5.834275060153062
15	0xbffcbf12465337e8	-1.796648287494003
16	0x4012e5125aa4fde9	4.723702827759078
17	0x3fd04b2b70735dea	0.2545879934454819
18	0xbfcb16a87482c70a	-0.21162896813398674
19	0xbfbcf6cb4b946c48	-0.11314077944955259
20	0xbff9c6e2dad0e9af	-1.6110561892988746
21	0xbfeafa98623a780d	-0.8430902403376891
22	0xbf97fe424e01b01c	-0.023430858622688885
23	0xbfdcb184ebac5eaa	-0.44833491339657405
24	0x400c791736dca55f	3.55912630902155
25	0x40016ea348a044a9	2.17902237643337
26	0xbfe6578f31043910	-0.698188396201461
27	0xbff81dc63c5679d1	-1.5072691304154555
28	0xbfd1a974d9889003	-0.2759678005552361
29	0x3fee7f7598f33016	0.9530590045264968
30	0x3ffb7d00c60036c6	1.7180183157355926
31	0x3fb32faf48ed37e8	0.0749463608783284
32	0x3f9c5a5e7cb775f1	0.02768848072252256
33	0x3fe6bf87f1ac0f00	0.7108802528532294
34	0xbff0bf47e8579d2c	-1.046699435793765
35	0x40111199e86ae5d2	4.267188674473305
36	0xbffa409fac62f622	-1.6407772764063187
37	0xbfe28628850a0ffc	-0.5788767431663469
38	0x400baafd330923dc	3.458490751949723
39	0x40118f8277753e90	4.390146128207235
40	0x3fe2c8caa309ba77	0.5870106872878996
41	0xbfd0f55aa5404d7e	-0.2649752248555258
42	0x40005e4823d56036	2.046036033581937
43	0x3ff3234638ce0d0d	1.1961118906918415
44	0x3feb4a3d43fa7100	0.8528124168110764
45	0xc000d57d7032ce1c	-2.104243160772752
46	0x400f2762f87f33b9	3.8942317403620703
47	0xbfc24a6b9c29531a	-0.1428961288935618
48	0xc004844fe98c8e53	-2.564605545617988
49	0x3fcfa6ac057aacc2	0.2472739245180034
50	0x3ffb798a1cdd869b	1.7171727302124171
51	0x3fdca2fd426573e9	0.44744807704938566
52	0xbfdeb3ffacfee747	-0.479736250821237
53	0xbff26e851bdb24e8	-1.1519824112058874
54	0x3ff1ff56736be05e	1.124838305344404
55	0x4013ca9ea6f0d1b1	4.947870834778244
56	0xbfcb33fffafbe187	-0.21252441172670108
57	0x3ff114a6556a2d0b	1.0675414406312622
58	0xbfd7236cd4ff7249	-0.3615371780449875
59	0xbfe81719c73616d0	-0.7528199091763899
60	0xc0130451eba6b116	-4.754218751954133
61	0x3fb32abc9f8d481e	0.07487086196241008
62	0xbff0f2abf69e2802	-1.0592460282809957
63	0x3ff35d2ee17c7e9a	1.2102497871455058
64	0xbfeefc269d56433d	-0.9682801316249435
65	0x400b7b5cc047bb27	3.435235502423342
66	0x3fd0fb76b0bd701f	0.26534812221302845
67	0x3ff5a28ea6f94219	1.3521868250283033
68	0x3ffaefbd9b450040	1.6835304322448934
69	0x3ff251b7844f5bc6	1.1449504059180398
70	0xbff552419601c4f6	-1.332582078899859
71	0xbfce5b995a911f4f	-0.23717038080416805
72	0x3f9d7333d0cd7df4	0.028759774798684704
73	0x4003cf0243c33885	2.476078538317838
74	0xbf6facd4b68f2c00	-0.0038665918877760497
75	0xbfc9fe30817d476f	-0.20306974718783574
76	0x400b0790ff3e9f72	3.3786945286737415
77	0xbfd41c298175b3ed	-0.3142188801055557
78	0x3ff91ecc13228909	1.5700188395936172
79	0xc003df76071c37d2	-2.4841118388639893
80	0xbfbf70b6a4cc12ab	-0.12281362079017792
81	0x3fe597b4c0ff6c85	0.6747688073622987
82	0xbff49af9088b8cff	-1.2878351529878385
83	0x3fd007003d7cf079	0.25042730335895375
84	0x3fd42d232874e614	0.3152549643596967
85	0xc01fed81c4f3d6f5	-7.981940343268197
86	0x4006c38021a485d5	2.845459235032403
87	0xc010f069283e8202	-4.234776142897774
88	0xc001e80f855a8158	-2.238310853790761
89	0x40050e16221ad269	2.6318781532702826
90	0xbfe45390b6cc0e0f	-0.6352008409743933
91	0xbfda87a5c44c0a4f	-0.41452926797515927
92	0x3ff0224384ce6f5e	1.0083651721715436
93	0xbfeb4f3203c8e786	-0.8534174035951174
94	0x3fed195755f3e942	0.9093434027447886
95	0xbffe0abca3cba9f6	-1.877621307207503
96	0xc003ae4aa80693db	-2.4601033331878006
97	0xbfcd93714fed89aa	-0.2310620918534146
98	0xc0061a1588e52bba	-2.7627363867699986
99	0x3ff64ca65b3c1a1d	1.3937133373125399
100	0x3fff0ab6d97f01d5	1.940115785211778
101	0x3fd10bd27940f17f	0.26634656754665537
102	0xbff7af3fae6a6635	-1.4802853406057583
103	0xbfaee839fbb4b9b2	-0.06036549756605626
104	0x4018a2b587213973	6.1588955987957545
105	0xc00278e12bc2d946	-2.3090232294881927
106	0x3fc3e25faf28bdbd	0.15534587910359035
107	0x3fd327632acbc8e2	0.2992790143899936
108	0xbfe60ca89649c9ee	-0.6890452323262346
109	0x400445b1cb95dd4f	2.5340305237874996
110	0x3fc7f2f0a31080b6	0.1871014400685504
111	0xbfe77c7648407953	-0.7339431201142282
112	0xc00b45b3ef113ffa	-3.4090346028460745
113	0x3fcd1aa9790870b0	0.22737615976155245
114	0x3febcf6f6940eff8	0.8690716796622828
115	0xc010cd1aaceba59a	-4.200297071345085
116	0x3fec785f4378e257	0.8896938627068022
117	0xc00ae976cad0cd94	-3.3639961094829207
118	0xbfe237f57ed4320f	-0.5693309285284743
119	0x400e8b166d2788e1	3.8179138686838177
120	0xbffc484e8615ab4b	-1.7676530111009068
121	0xc00119c84ba3766b	-2.137589064527494
122	0xbfe858e78aaab743	-0.7608525951706969
123	0x4000c66bdf846079	2.0968854391358573
124	0x3fd3413816762ed5	0.30085565751572335
125	0x3fe907f1bd0d75e6	0.7822197620804985
126	0xc013686c26c9f8c1	-4.851975065305113
127	0xbff974309ca5fb6a	-1.5908666724278313
128	0xbfe28818bf6e904d	-0.579113363161477
129	0xc007a2c2972fb29e	-2.954472714560622
130	0xbfd6eabd3dd876c8	-0.35807734527211865
131	0xc00fc6398297c37f	-3.9717893793644516
132	0x3ff79c79f55b5220	1.4757022461173008
133	0x3fc1516cb93cdda8	0.13529738468944896
134	0x4013e39edf9bf112	4.9722857417039155
135	0xbffc96dd1962fc92	-1.786831950346628
136	0xbfe711a08f126b35	-0.7209017557500831
137	0xbff6deeceafe9815	-1.429425161311433
138	0x3fe2a3f61cb01d7a	0.5825148163138885
139	0x3fefcef6d9cac2ec	0.9940141919851988
140	0x3ff34aada42e48ba	1.2057320035278694
141	0xbfcfb9a86596976c	-0.24785332641948388
142	0xbffe9165b4eb7257	-1.9104973857094103
143	0x3ff491f013812e25	1.2856293451212732
144	0xbff89db7931a9661	-1.538505148529474
145	0xbff484a0079f47fa	-1.282379178785503
146	0x4011d4e17ee5539e	4.457891447779643
147	0xbfba52f276f79d27	-0.1028281727263801
148	0xc012aafba675ad97	-4.666975594456196
149	0x3ffe9d9cf6aeba61	1.9134797702824005
150	0x3ffd49dbe145cdd2	1.8305319595063918
151	0xbff612f8edc51331	-1.3796319282420877
152	0xbff89b416d8931a5	-1.5379041937586433
153	0x3fbc2de98091f344	0.11007556332510854
154	0xc00d11ee870c797d	-3.6337557364160475
155	0xbffc213670b76f37	-1.7581085589399217
156	0xc00082d010f5fdb0	-2.063873417384194
157	0x3ffb8f3d2db5012e	1.722470453780328
158	0x3fd95fd949aaa38c	0.3964751452827435
159	0x3ff3a5ebb58fa2d8	1.22800799295708
160	0x3fe6b43233f2bc75	0.7094965948689508
161	0xbfc74a741dc0d9a3	-0.1819596429138076
162	0xc005e7bc5fd4c3fe	-2.7381522642904192
163	0x3fd532c1e5eab33c	0.3312229867249703
164	0x3feb0e28c54e4597	0.8454784253719251
165	0x3fe3c5de0421b98f	0.6179037171075822
166	0x400683c92a6ef97e	2.8143485369793657
167	0x4003cc6afec81e97	2.4748134522267935
168	0x3ffbcf26a880973c	1.7380739767190354
169	0x3fe928c1db4e698c	0.7862252505613454
170	0xc004ea9a96eb7d8d	-2.6145526686302163
171	0xbfe8021e94294d03	-0.7502587217117312
172	0x4003a496c73e3860	2.4553657117713072
173	0xbff44a1e79237c22	-1.2680954677559915
174	0x4016ff154594b8de	5.749104582979468
175	0x4007a58a131588b2	2.9558297625490804
176	0xbfcf09cc0925cce4	-0.2424864811579034
177	0xc007e7a5d4f49c88	-2.988109267916631
178	0x3fcc2721e51d4f1a	0.2199442261431777
179	0x4007864f48e48cf8	2.940580911135495
180	0x3fedc6084075b7cd	0.9304238566380661
181	0x4006b3d4d8a0419d	2.8378083156496374
182	0x3fda47feb4506523	0.41064422234338077
183	0x3ff3ea57688d21a6	1.2447122653994511
184	0xc00618cc4ac5adbb	-2.7621084062172634
185	0xc0020af62af29a01	-2.255352340248692
186	0x3ff2405d006dc287	1.1407136933086421
187	0xbfe6bb07033d22e0	-0.7103304923303675
188	0x3fe68094c1e60ca5	0.7031959330637575
189	0x4004e6021fcc91ba	2.6123087391190127
190	0x3ff940c91768f147	1.5783167757463887
191	0x3ff04dd8fa2baad0	1.0190057537353603
192	0xc0064d1277dec26b	-2.787632881627635
193	0x40011d436ab4a864	2.139288743627775
194	0xc002b52b448a35af	-2.3384614329031232
195	0x3ff97f480523a5d1	1.5935745430709753
196	0x3fd995b535c89077	0.39976244213381257
197	0x3ff988f9034a67b0	1.5959406021633917
198	0xc00bf706c0550d8c	-3.495618345828637
199	0xc00e3dcdca558112	-3.7801776702255063
200	0x3ffc69a3dacdeea3	1.7757910296485668
201	0xbfec6f9ce40590ac	-0.8886246160077653
202	0x3fcc5249e1e3da7a	0.22126124887263982
203	0xbfb9c4018301af41	-0.10064706276324122
204	0x3ff0a62c3ace6c6f	1.0405695244906175
205	0xbfd1d8949940a11f	-0.27884402242718126
206	0x3fce099c19e5b052	0.2346682669116285
207	0xc0086fb4eac09480	-3.054544290544584
208	0xc00085f2d79041fe	-2.065404590692423
209	0x3fe3af989eb22a37	0.6151850795298007
210	0x3fc8637d804fcfe9	0.19053620114539108
211	0x3fc2fe8b505e819e	0.14839307235980653
212	0x400085b8ce1e8f14	2.0652938941074215
213	0x3fe44dbf083daca8	0.6344905053096186
214	0x3ff59627b2824beb	1.3491589520460774
215	0xbff1e848caca68f0	-1.1192100450048734
216	0x40119427cf71ca08	4.394683114357129
217	0x3fe335e0f7431ed1	0.6003269986476544
218	0xc013cf6e165dd69c	-4.952568387486874
219	0x3fed9d17b8303ac6	0.9254263493947625
220	0xc00cb5731655c8c2	-3.5885984177521957
221	0xc0085c23893962e3	-3.0449896546018507
222	0xbffeaa82403736fd	-1.916628123133193
223	0xbfef18f8cbabe6c2	-0.971798322482947
224	0xbff31fa1648abb67	-1.1952222754877881
225	0xc000415279a9a7ae	-2.031895590295753
226	0xbfe1d76db503b14f	-0.5575474296033834
227	0x3fe660bfb191bfc9	0.6993101566458729
228	0x400611b8afed754d	2.7586530441609853
229	0x4013432144a98f41	4.815556595658394
230	0x3fe9e909a688c9d0	0.8096969845412847
231	0x4008ea72499dbf9e	3.11447579872761
232	0x3ffbbbc03451b8bc	1.7333375972480516
233	0x40064b928e7a2e33	2.786900628188755
234	0xbfd7654ff0df8898	-0.3655586101796273
235	0x4008a070f22a063d	3.0783404273104495
236	0xc0075500c1271996	-2.9165053453500134
237	0xbfdd27f082085b63	-0.4555627126550716
238	0x3fff77a31c9e0e1b	1.966708289896707
239	0x3ffae978505623de	1.6819995058196962
240	0xc00cf7c0ae4da1b5	-3.6209729783479028
241	0x40002bb02f54ddaf	2.0213321397565873
242	0x3fd116f9aaaa4f81	0.2670272986081202
243	0x3fe7d644e60b19dc	0.7449059002909126
244	0x3fee4a29d2eb2253	0.9465531463147933
245	0x3fd79801d89d1cb0	0.36865278390582557
246	0x3ffac28e4f0954d0	1.6724989974366515
247	0xbfcd34200deb9bed	-0.2281532352419328
248	0x3feed4be0e9c7e02	0.9634695325257214
249	0xbff554f157b056b0	-1.3332379746765746
250	0x40155942a869736f	5.337168342052663
251	0xbfff348db8698618	-1.9503304675676016
252	0xbff6b0a9369e841a	-1.4181301244318605
253	0x40035afdb5197dfb	2.4194292210011077
254	0xc0024e0a975e4b76	-2.2881061387683372
255	0x3f9590f9ea23ff39	0.021060852924164684
