old_models/old_kml_ml/saved/4_ft-33_pct-all_wl-350_epch.pt (torch, 622528 bytes, 8 tensors)

module.layer_1.weight f8 [512, 4]
000000 70 12 49 92 85 b6 f5 3f 63 4b 89 b9 8c 41 f6 3f
       1.3570609773898035 1.3910033462058997
000010 56 e8 b3 36 d0 14 0d c0 82 8b af 20 2d df f6 3f
       -3.6351627610829764 1.429486396483043
000020 1b 1b 04 b1 da 45 fe bf 00 68 15 2f 1c fa f5 3f
       -1.8920542635621078 1.3735620345310053
000030 b3 58 43 17 89 f2 fa bf a1 dc bd 44 68 d8 d6 3f
       -1.6842127712930448 0.35695845330287496
000040 a6 4a 21 fa ac 82 fd 3f 23 2f 3b 51 38 fe 60 bf
       1.844403245039453 -0.0020743465373466315
000050 a9 d0 0e 51 79 c6 a5 3f 62 5e e4 48 38 05 f2 3f
       0.0425298606345746 1.126274380430822
000060 8b 0b c9 50 0a 02 f8 bf 3f 95 1b 77 4f 11 01 c0
       -1.500498118941979 -2.133452349213854
000070 75 63 e4 14 ae e7 d3 3f 8d cb 10 79 3f 0e dc 3f
       0.3110156253838377 0.4383696253091152
000080 d7 11 2e 29 94 ee 03 40 56 42 0e 09 24 4e f6 bf
       2.491493531912265 -1.3940773347605009
000090 47 e4 a2 fa f3 ef ec bf f2 38 ea ec e5 b0 c9 bf
       -0.9042911429634238 -0.20071100299941907
0000a0 fb 9c 6c 9c 59 cb c7 bf 85 27 12 3d 9a ee ed bf
       -0.1858932508268721 -0.9353762810508078
0000b0 c4 90 65 d8 5f 1c 08 c0 5b f4 c6 18 d8 c0 e5 3f
       -3.013854685401471 0.6797905429772401
0000c0 59 a8 fe 82 65 c3 89 3f 1f b5 a1 ae 8d 1c e6 bf
       0.012579720554487904 -0.6909855280661396
0000d0 1c 51 48 55 7a 8c 0b c0 21 7e 6e c0 d5 d3 f8 3f
       -3.4435927069372507 1.551717521368012
0000e0 ed c1 1e 17 a2 f9 f2 bf 06 4c ef b1 fe 06 d3 bf
       -1.1859455969935155 -0.2973019349712448
0000f0 85 68 2f a1 62 ca 0a c0 dc b7 4c b6 06 77 fa 3f
       -3.3488209335892543 1.6540591355401295
000100 6a fe 6f 50 50 83 f9 3f 55 d6 c6 f3 f0 03 f0 3f
       1.5945590154732607 1.0009622118499426
000110 f6 69 dc bc d2 66 06 40 46 54 72 f6 6b 2d 00 c0
       2.800206637836932 -2.0221785787239552
000120 f3 fe 13 0f fb eb c0 bf 48 0d d6 d3 32 f7 b8 3f
       -0.13220155941234388 0.09752195045262113
000130 80 30 65 b7 28 dd 12 40 a4 11 7d 3d 67 d2 a3 3f
       4.715975633193125 0.03871462464897782
000140 b3 7e 55 c7 ab d5 d9 bf ff bd 5a 46 01 fa d0 3f
       -0.4036664435024974 0.2652590930037774
000150 90 cf 43 05 7d 64 12 c0 ea b2 d9 16 d5 27 fa 3f
       -4.598133165611117 1.6347247021287168
000160 ab fd a7 6b ba ee f0 bf f8 63 79 8d b0 5f f1 3f
       -1.0582832532235027 1.085861733087084
000170 8b 41 df 85 03 2a bf bf d1 8b 4d b4 c7 d4 f4 bf
       -0.1217348291240851 -1.3019482653696637
000180 f1 8a 82 7f 60 4b 00 40 e8 28 36 d4 bf ae d5 3f
       2.0368051492417796 0.3387908527735264
000190 f9 d8 e4 cc c4 57 ea bf 5d 0a 2f 15 46 cf f2 3f
       -0.8232139589152033 1.1756039454927738
0001a0 c8 5d 2e 23 58 24 8a 3f 11 40 21 64 d5 9b 99 3f
       0.012764633725779087 0.02500852035183249
0001b0 24 0f 0c 18 8b d2 0d 40 5d af c0 41 e6 96 02 c0
       3.7278043631248625 -2.3236813675811576
0001c0 92 4b 99 3e 6a bc f5 bf e5 6b e0 00 52 9e e1 bf
       -1.3584997601762763 -0.5505762116548537
0001d0 56 0a ab 05 62 2d 01 c0 7f 8c 80 4c 8d 7a f9 bf
       -2.1471596186468487 -1.5924199093213074
0001e0 bb 6f 2e 75 08 05 fa bf bc 9e 04 67 31 3f e1 bf
       -1.6262287690542354 -0.5389639865943177
0001f0 9e 10 fa f2 e8 3d 00 c0 91 0d 69 98 d7 af f0 bf
       -2.0302294714511637 -1.042930217125875
000200 70 fd e3 0c 8a 44 01 c0 ca 8a f3 96 5e c9 e9 bf
       -2.1584664351536773 -0.8058312366741458
000210 6d 8d c1 dc 21 a3 c9 3f 88 9f 31 15 12 de d6 bf
       0.20029090193848323 -0.35730411596022593
000220 8f 1d 1a a4 7d 4c 0b 40 25 5a ae 3e 07 7b 19 40
       3.4123490162343795 6.370144824401483
000230 15 9d b9 dc e1 f4 f1 bf f6 cc c5 03 be 5c d1 bf
       -1.1222857114860905 -0.2712855374185915
000240 ca de 8e 40 d6 7a f1 3f 5c 75 ec 54 4d 22 d7 3f
       1.092489483051326 0.36146863263441786
000250 ad 90 a5 2a 40 e6 07 40 7d 16 ce c0 31 52 fc 3f
       2.987427075555465 1.770066979546214
000260 01 4b b1 61 e8 6c fc bf a7 7c f6 72 0c 85 fe bf
       -1.7765888038745177 -1.9074825754867477
000270 ab c7 43 31 03 a6 f7 3f 3c 64 64 1f 35 ef f5 bf
       1.478030388298502 -1.370900271058658
000280 70 93 78 4a f2 a8 e7 3f df a9 02 b0 1e e5 fc bf
       0.7393733458053315 -1.8059374690443446
000290 5b c2 d6 e1 a8 86 02 40 8f 28 29 3b 00 27 04 c0
       2.315751804701262 -2.5190434095321232
0002a0 a4 22 0f 47 3c f0 11 c0 e2 c5 22 7c eb 49 04 c0
       -4.4846049406993735 -2.536093683062732
0002b0 62 74 0d a0 d7 b9 fd bf c7 a0 0f fb 41 34 f1 3f
       -1.8578716518452656 1.0752582366058492
0002c0 06 a1 e9 52 13 0a f0 3f c0 7e 06 1d b6 20 d0 bf
       1.0024598349355656 -0.25199654421338025
0002d0 de 91 9f 06 fb 23 e5 bf 93 7d 3e 20 83 a4 0a 40
       -0.6606421594011029 3.330328227908191
0002e0 09 af 50 c3 34 ef ff 3f 45 5e 3e e6 bb 0c ef bf
       1.9958999280451641 -0.970304441160757
0002f0 47 05 d6 fb b1 a8 e0 bf 0d 8c 4a 07 25 2e f5 3f
       -0.5205926817581393 1.3237657818615418
000300 b2 41 c3 22 ec 4f fb 3f 47 4b ea 52 a8 f8 c2 3f
       1.7070123060148998 0.1482134251460485
000310 f2 a9 72 ab a7 de d2 3f 1e d3 d2 0b 69 c5 c0 3f
       0.2948397802635149 0.13102448537178985
000320 68 de 01 e4 28 ae 0a c0 d1 6d 82 d4 3d 7f 16 c0
       -3.335038930232077 -5.6242593006713415
000330 37 79 c8 e8 18 c3 ea 3f 82 06 f5 5e fe 14 d7 3f
       0.8363155886216082 0.3606563498798111
000340 de fc ed 0c 28 1d 00 40 5e e7 d1 79 db 46 f2 bf
       2.014236546528635 -1.142299152239921
000350 36 f6 1c cb 9d 61 9a bf 00 04 25 b7 b6 e6 f4 3f
       -0.025763001939813367 1.3063265947423588
000360 dc 25 9f 61 53 9c d3 bf 6f 80 f7 6c 8a a5 cf bf
       -0.3064163640343318 -0.247239402014205
000370 dd cf 12 d4 d7 d1 01 c0 ef 0a d8 c8 fe 6a 04 c0
       -2.2274624412766415 -2.552243775456524
000380 ab c2 04 24 db a9 ef 3f ef c3 54 51 c2 50 0e 40
       0.9894843772400085 3.789433131598791
000390 d2 24 aa 0a cf 36 fe bf 5e 23 16 82 2e d3 ed 3f
       -1.8883810440623177 0.932029012751723
0003a0 9e 3f ba 51 d1 4f 01 40 7a 91 7a 97 0a 28 03 40
       2.163973463531831 2.3945514520912043
0003b0 d1 19 19 ca 3e 76 ec bf 39 dd d7 b0 83 d0 de bf
       -0.8894342372157614 -0.48147671003194464
0003c0 7d 3a c1 d3 79 c9 e9 3f f3 a8 cf a3 89 73 f2 3f
       0.8058442245326912 1.1532074355005164
0003d0 87 de 36 a2 de 28 e6 bf 58 4d 11 7d 8b 29 02 40
       -0.6924889724968616 2.2702855845360936
0003e0 37 e6 29 b1 97 98 0f 40 4a 13 9d 01 df 3e eb 3f
       3.94950807961575 0.851424697066798
0003f0 c0 7a ee e1 8c 13 04 c0 d1 13 c4 b9 3f 18 d3 3f
       -2.5095460558798948 0.29835503712848516
000400 d0 d9 84 2c 6c 1d ec 3f 73 bb 08 3e 80 6d ed 3f
       0.8785916203985895 0.9196168147662845
000410 f2 e7 59 15 87 28 0e c0 06 30 4d 38 29 8d f8 3f
       -3.7697889011442323 1.5344631385114567
000420 ef 0d f2 55 99 fe 05 40 0f 06 f9 08 50 c6 de bf
       2.749315902184882 -0.48085404278035154
000430 b7 8a 47 8a fd e0 bb 3f 42 c6 77 56 71 19 03 c0
       0.10890183092082394 -2.3874232058813343
000440 07 3d f0 ca 2c 46 f3 3f 5d c9 fc 44 c5 b7 dd 3f
       1.2046325614244908 0.4643414663034003
000450 2f ee 7a 55 70 48 01 40 bb a7 b0 a8 91 8f f8 3f
       2.1603705099239714 1.5350510205703205
000460 08 d5 5e 55 a7 ef fb bf f5 c9 e6 fd 56 94 ea 3f
       -1.7460091910155047 0.8306078871740384
000470 ab ac 10 f0 8a f8 da bf 31 14 9d 0c 3c d2 f2 bf
       -0.42141984409199534 -1.1763267986982664
000480 18 73 60 9a 10 f4 b7 bf 9b 5f b0 f9 21 0f fd bf
       -0.09356788414920592 -1.8161945107912973
000490 75 1f a2 fc 8e 75 fb 3f ae 6c cf c7 ef fd f4 bf
       1.7162008160102833 -1.3119962506378147
0004a0 20 dd ba 5f 9a 4e 10 c0 9a 66 e4 3c 0d 16 08 c0
       -4.076760764866123 -3.0107674367144
0004b0 c8 0c d7 c3 03 7c e9 3f aa 97 fa 6d 3a 3e dc 3f
       0.7963885140419729 0.4412981103908985
0004c0 e5 8e 65 b4 5c 6b b5 3f 45 e6 c4 df 30 4f 99 3f
       0.08366946605888932 0.024716151864799824
0004d0 ba a9 36 c9 69 50 00 40 41 e8 74 13 8a 67 f4 3f
       2.039264270764048 1.275278163912404
0004e0 05 d7 71 7a 1d 02 f2 3f 3f 1f f4 08 c3 99 ee bf
       1.125516393947181 -0.9562697577357325
0004f0 70 94 4b 1b 62 d4 df bf 12 ca bb 2f 78 67 d8 bf
       -0.4973378435664193 -0.3813152757785768
000500 de 1c d6 67 15 f8 06 c0 0c 8d f2 b5 e6 a2 fe 3f
       -2.871134577962592 1.9147708041498985
000510 fa 2b 36 4d b5 77 ce 3f 06 92 9f 4a 43 93 d3 3f
       0.23802820463274071 0.3058632115119341
000520 c7 20 57 a4 05 3b ee 3f 22 9a ef ea 3d 15 02 40
       0.9447048387310354 2.2603720049257996
000530 87 0d 64 62 72 06 f8 3f 2b f0 1c a6 37 df f2 bf
       1.50157392915648 -1.1794964302816975
000540 99 fd 1a f3 b6 92 fb bf d3 65 63 fc f6 f4 ec 3f
       -1.7233190056138936 0.9049029283007094
000550 48 70 6b 13 5f 3f e3 3f 54 18 c4 51 1e 00 fa bf
       0.6014857653895058 -1.6250289148315646
000560 b5 de f9 b9 b1 2d 09 c0 38 31 bd a5 59 2a 01 c0
       -3.147311642587591 -2.1456788013803383
000570 2b 88 a1 ee eb c2 00 c0 59 42 ad 22 a5 ab f0 3f
       -2.09517656736809 1.04190553231833
000580 2e 9e 90 f9 ea 0c 0a c0 38 bb e8 12 99 08 fc bf
       -3.2563075539835813 -1.752099107612322
000590 f7 7c d6 06 03 38 e6 3f 8d 8c 7e 74 35 75 de 3f
       0.6943373807479521 0.4759038579597437
0005a0 36 54 68 ad ff 07 00 c0 ee 9c fb 1d 32 0c ed bf
       -2.0039056346381825 -0.907738741455345
0005b0 0c 89 1f a0 11 4a 11 c0 58 07 f6 39 91 27 fa 3f
       -4.322332860874905 1.6346599830726145
0005c0 43 dc 2d c0 a2 37 07 c0 71 b4 3e 81 4f f7 f8 bf
       -2.9021658910747035 -1.5603785561209202
0005d0 c2 55 3e 3b 2e 8f 02 c0 1d c0 07 6e 50 86 f1 3f
       -2.3199123981855516 1.0952915475900291
0005e0 8e af 1f 55 0e d3 fe bf f3 1e c4 05 b9 d6 fc bf
       -1.9265273404261936 -1.8024225449789213
0005f0 5c 78 e5 b9 ca a1 fe 3f b7 f7 22 4f 64 21 f9 3f
       1.9144999753548495 1.5706523028634203
000600 2a 49 a3 38 35 4c f8 bf 9b 18 89 0a 6a d0 f5 3f
       -1.5186054432311473 1.363382378725453
000610 d1 8e ff 98 bc 46 dd bf fd f3 27 d7 be 8e f3 bf
       -0.4574424261211166 -1.2223499683889252
000620 44 61 d3 41 e8 06 d6 bf 58 90 6b 7b 29 f6 e1 bf
       -0.34417158535281467 -0.5612990770864696
000630 11 7d 27 a7 4c 15 f6 3f 15 c6 ca 08 be 69 01 40
       1.3802000550711606 2.1766319929963722
000640 91 36 59 7e 09 73 eb bf 31 b7 ba 7e c8 89 ce bf
       -0.8577926128143237 -0.23857980907399104
000650 0b f7 0c 9b e4 e4 10 c0 5d 43 81 e7 20 2c f0 bf
       -4.2235283114112105 -1.0107735675012102
000660 c5 a0 05 ec 6a 23 c5 bf ab 16 3f 86 fa 24 dd bf
       -0.16514336132536847 -0.4553819952965152
000670 87 40 1b 45 29 13 aa 3f 57 de db 26 1c 8a e7 3f
       0.050927438436361654 0.7356091269456994
000680 8c 90 eb 33 fa 93 ed 3f b4 49 04 78 b2 91 f6 3f
       0.9243136419359117 1.4105705917505533
000690 0e 87 75 58 d6 0f 0e c0 9b e4 54 db 69 ff f2 3f
       -3.7577330504290165 1.1873568122521536
0006a0 f7 71 4d 36 37 80 0d 40 a1 8c 81 41 35 c3 06 40
       3.687605308760108 2.8453164212856596
0006b0 3b e7 8b 7a 48 59 e8 bf d3 74 d8 f4 ca 2a e0 bf
       -0.7608988183485289 -0.5052237302913006
0006c0 15 39 72 5d 8e 25 e1 3f 05 b7 23 69 d3 b2 f1 3f
       0.5358344864960453 1.1061586482059635
0006d0 9a db f2 b7 79 02 09 c0 93 42 48 c7 b5 b7 f1 bf
       -3.1262087222089123 -1.1073510918105611
0006e0 c2 b1 46 5c 9a 13 fa bf 78 fc 05 2a 80 b9 fb 3f
       -1.6297858814751724 1.7327882424868033
0006f0 2b ce 08 00 2b 92 da bf e0 60 e8 b1 85 ea f1 bf
       -0.415171384843435 -1.119756407692016
000700 2c 29 f3 00 bd 96 f3 3f 31 7a 3b b8 fe e9 d4 3f
       1.2243013417342565 0.3267819213050727
000710 dc c2 1b de 2e ec 0e 40 f6 fe 81 bd b6 55 df 3f
       3.8653237678739583 0.48960655695553557
000720 f6 81 e6 13 1b 7d e4 bf 43 04 b4 d4 8f 15 e7 3f
       -0.6402717007331933 0.7213820604666882
000730 c1 04 3d ef cd 32 04 c0 c7 70 7b d6 da e2 fe bf
       -2.5248068514343633 -1.9303844812593967
000740 e2 0e 7d 30 9e 14 0b 40 0a 6b c9 4d 9e 79 0f 40
       3.385067347351524 3.934383971890729
000750 74 1d 97 21 d5 f2 e8 bf ad 01 22 c2 b7 e6 df bf
       -0.7796426445064939 -0.49845689733777016
000760 67 25 2c e3 f0 80 e0 bf 79 d0 f4 b3 4a 7b c2 3f
       -0.5157398640596228 0.1443875673954869
000770 2a bd 77 2a 12 46 08 c0 ec 0d c2 a7 63 34 fc 3f
       -3.034214336184637 1.762790351204667
000780 c3 a0 d7 f1 ff 64 10 c0 8b 57 12 e7 6d ab 12 c0
       -4.098632601533782 -4.667411432737832
000790 ef 62 f3 49 dd 5b 00 40 8b 33 50 9c 62 d4 a4 3f
       2.0448556687737134 0.040682870465480546
0007a0 fd 21 78 a7 85 ac 07 40 76 73 07 28 e3 7c f0 3f
       2.9592393001114474 1.0304900706898628
0007b0 dd d0 9d 89 f0 3a 05 c0 48 6b ad cc 8c c5 e3 3f
       -2.653779101494463 0.6178649900060487
0007c0 12 ef b2 e2 fd 81 f9 bf 6d cc 69 4b af 14 f7 3f
       -1.5942362647464887 1.4425499864417148
0007d0 1a 20 97 5d 68 3f 00 c0 26 81 a1 99 e9 06 00 40
       -2.030960780310136 2.003375244370676
0007e0 01 44 57 b7 8d c1 00 40 8c 28 2f 45 58 c4 fd 3f
       2.09450858340324 1.8604357435711192
0007f0 a6 fe 0f f1 17 f8 12 40 9f 5c ac 6d 8e 30 f9 bf
       4.742278830147972 -1.5743545803177665

module.layer_1.bias f8 [512]
000000 ab 25 5c 9f a9 0f f5 bf 71 7f 55 4d bf 35 06 40
       -1.3163238739965475 2.776243786021887
000010 ea 58 66 1d 9b db 09 c0 f7 09 0e 66 af c3 03 c0
       -3.2322294518336223 -2.4705493901285496
000020 b4 79 9a 16 67 d4 f8 3f 77 64 58 b6 90 eb 04 c0
       1.5518561251588894 -2.6150221105313523
000030 20 a6 05 e5 15 ec ff bf 5b 2d d3 cf a5 9c fb bf
       -1.9951380678343256 -1.725744067970331
000040 07 28 6e 3d a0 c2 ef 3f 90 85 e1 64 43 45 eb 3f
       0.9925080489931596 0.8522049875575011
000050 7f 20 f5 31 1f 76 ef bf c0 7f ef 6e 47 6e f7 3f
       -0.9831691718800498 1.4644235928935672
000060 b1 3a 33 26 ff bb f9 bf 03 34 8e e7 93 ef e4 3f
       -1.6083976261321988 0.6542453310554496
000070 99 a4 04 31 2b 1a e9 3f 91 d2 63 89 ac a9 f1 3f
       0.784444423426197 1.1039243094248017
000080 5f c0 33 66 04 64 fd 3f a8 3a 93 7d 81 c3 e8 3f
       1.8369182579299588 0.7738654568327847
000090 5d 25 c6 b6 22 bc e9 bf e8 aa a0 2c 92 77 ef 3f
       -0.8042157716564976 0.9833460685379949
0000a0 aa 42 1b 94 02 d5 03 c0 88 9c 92 da ab a7 fa 3f
       -2.479008824426576 1.665935376929868
0000b0 5f b4 36 c0 06 ed e4 bf 36 46 a8 3a 9c 3a f9 bf
       -0.653933883111346 -1.5768091479589095
0000c0 b2 0f b4 99 5c e0 05 c0 87 07 f9 71 b5 e0 b6 3f
       -2.734551621253524 0.089366283727058
0000d0 81 f8 fb a9 dc 43 07 c0 13 aa 98 5c e0 27 a5 3f
       -2.9081357269306527 0.04131985788656691
0000e0 49 4a de 13 c5 fc ed 3f 22 82 b4 8f 68 7c 0a 40
       0.9371056926777978 3.3107463099443217
0000f0 d9 6f 63 1a d8 a9 e9 bf 8c d0 f4 14 1a 48 c9 bf
       -0.8019829287909445 -0.1975128748250693
000100 06 77 12 9f f9 7c eb bf b2 46 93 b5 5e aa e3 3f
       -0.8590057474973214 0.6145471140282182
000110 47 76 9e 96 4a 84 f5 bf 0f ee 4e 26 eb 26 0a 40
       -1.3447976954988847 3.2690031998479365
000120 59 bc 09 c5 7c bc ea bf 56 10 d3 1c e4 95 fd bf
       -0.8355087135695484 -1.8490944982486517
000130 ba d0 a5 00 e1 a3 e6 bf 5f d7 b5 a9 26 01 09 40
       -0.7075047505045611 3.125562024938446
000140 56 3c f6 dc 48 a2 ee bf 95 6c a2 75 62 84 03 40
       -0.9573101344739239 2.4396409216111103
000150 b9 49 21 87 43 da f0 3f e1 4e cf 14 1b 31 f8 bf
       1.0532870558277934 -1.5119887173540791
000160 d6 7f c4 61 dc 31 0f c0 ca fa 20 69 31 0f f4 bf
       -3.8993461263744207 -1.2537092310519022
000170 e2 8f 22 4a 6e 07 00 c0 d9 8b 29 14 ca 90 d3 bf
       -2.0036283294484614 -0.3057122418305745
000180 8a dd 29 83 9b 87 0a 40 39 00 1f 0f a0 43 e0 bf
       3.3162145850325873 -0.5082550330480508
000190 44 6f cd 1c 6a ee a6 bf 3e a5 2b a0 f9 a3 02 c0
       -0.04478770829766046 -2.3300659669227164
0001a0 6a b6 04 7f e9 9a ed bf 54 87 07 f2 01 3e 08 40
       -0.9251601677730836 3.030277148108249
0001b0 5a 9a 7e eb 8c 7c d5 3f e3 03 d2 35 d3 f7 04 40
       0.33572695729745805 2.6210083203045413
0001c0 b4 d0 43 2e 2e 0c d6 bf 28 e9 0b 4e fa 17 f1 3f
       -0.34449343221718753 1.0683539437000693
0001d0 43 d4 fa 2c a5 0c 05 40 43 d9 e4 77 a2 ad fa bf
       2.6311744226500493 -1.66739127000399
0001e0 36 ac 20 83 e6 d6 16 c0 83 04 e1 55 6d 7c ca 3f
       -5.7098637093250115 0.20692221349057513
0001f0 a9 86 e8 0d 0d ac d7 3f 92 a7 3c 43 33 a3 cb 3f
       0.3698761592696465 0.21591797621777836
000200 28 2a 87 82 56 35 c1 bf cd 3e 64 07 cc cd e3 bf
       -0.13444024442135682 -0.6188717026106701
000210 84 b2 05 ad 55 79 08 40 9c 43 3b c0 f4 e8 fe 3f
       3.0592454450000464 1.9318740376513466
000220 d4 92 6e fa de 6d f8 3f 72 28 82 45 05 a3 11 40
       1.5268239767548737 4.409199796742643
000230 1f 12 0f ba 53 c1 0f 40 e1 c7 c5 a7 7c 68 23 c0
       3.969397977433132 -9.704076044934427
000240 f1 31 0f c3 7a 05 a2 bf 49 f5 ae 80 b8 29 ef bf
       -0.03519805556388523 -0.9738428605411765
000250 83 61 d2 5e 61 dc f0 bf 35 f8 10 38 9e c1 00 40
       -1.0538037971474246 2.094540060060377
000260 29 63 00 0e ba ac f5 3f b9 7c 5a 83 3f 21 12 c0
       1.3546696230825523 -4.532468845746899
000270 12 c6 5d 8b 1c 5b de bf 0d 31 df 9e 6e aa f5 bf
       -0.4743110047339495 -1.3541094022685372
000280 af e7 3c 9f 0e 07 00 40 9c dd 69 a1 4b 31 d5 bf
       2.0034458580457435 -0.33113375437775416
000290 0c 76 df 70 36 8f e8 bf e2 df 0f 64 f3 5c fb bf
       -0.7674820141361933 -1.7101930531189216
0002a0 2b 18 67 ed 92 88 eb 3f 51 a1 7f 6f c4 68 f3 3f
       0.8604216229221086 1.2130779605305018
0002b0 f8 56 78 a2 52 b6 14 c0 03 26 4e 5d cc bc fe 3f
       -5.178049601168588 1.9210933346497547
0002c0 af c5 4b 2d af 8c 03 40 64 ed 4b a4 31 d2 f8 3f
       2.4436934984921304 1.5513168733440006
0002d0 da 1d 1f e3 4e 57 cd bf 27 9d 51 8f a0 29 06 c0
       -0.22922693338317296 -2.770325774839552
0002e0 b4 7f b6 a0 1c 75 14 c0 4b c8 14 26 99 1c f4 bf
       -5.114367018832059 -1.2569819915338651
0002f0 8e e2 59 7a ee 4e d9 3f c3 a8 f9 97 5e d6 d9 bf
       0.3954425997576799 -0.4037090763218993
000300 ec bc 71 3d 89 f4 e7 bf 9c 28 3f 65 d3 c8 02 c0
       -0.7486005973895806 -2.348059454908322
000310 4c a7 e1 7c ca 02 e7 3f 6b 49 af ab 98 42 f2 3f
       0.7190906943408009 1.1412588793214933
000320 83 dc 67 37 ff a3 ff 3f 9d 7c 50 06 10 1e 01 40
       1.977538315228032 2.139679002124082
000330 f6 83 e9 56 88 b7 1a 40 7a 42 b6 f0 a6 1a e8 bf
       6.679231031420377 -0.7532534314542112
000340 0d 29 3e e6 04 8d f1 bf 6d 89 a9 09 46 58 03 40
       -1.0969285005435865 2.418102336393693
000350 1b 45 3f 1c 67 9c e7 bf df 39 dc f4 5b 75 db bf
       -0.7378421355917085 -0.4290380374158342
000360 8f c7 42 9d 02 40 ef 3f 93 49 f8 f4 92 94 12 40
       0.9765637465954898 4.645091846136341
000370 44 4a 4a 9f 1f 46 e1 bf ff 5e af e6 73 2e 06 c0
       -0.5398100005280146 -2.772682001330281
000380 03 4e 7a a6 4c 37 08 c0 bb 1e 57 1f fd a2 0a 40
       -3.027001667602009 3.329584355207627
000390 7d 96 52 ae b1 01 fe 3f ab 88 61 bf 08 a5 fc 3f
       1.8754135903813272 1.7902915454692827
0003a0 e8 11 02 d8 f2 6a 06 c0 1c 06 69 70 72 54 f1 3f
       -2.802221000254793 1.0831169501328821
0003b0 f9 e1 9f d6 28 01 f6 3f 3f f6 30 36 87 c7 0a c0
       1.3752830871363797 -3.3474258645717607
0003c0 8e 43 ee cb cd 40 ec 3f 17 ae e9 1b 69 34 c7 3f
       0.8829106314679949 0.1812869440358191
0003d0 36 b0 91 1c 64 a2 f1 bf b7 db 91 30 21 0b 04 c0
       -1.1021462551098131 -2.5054343981277856
0003e0 55 df ee 02 84 30 08 c0 ba 93 f8 7b 72 81 fe bf
       -3.023689291872794 -1.9066033213250493
0003f0 53 b7 3f dd 31 81 dc 3f e8 83 17 6e 4a 1d d1 3f
       0.4453854237207128 0.26741276503713474
000400 b9 d3 f8 1c b6 a0 fa 3f 65 4d 35 da b1 e6 00 40
       1.6642361766546243 2.1126439139858797
000410 71 1b e0 30 17 9d f8 3f c0 d4 23 44 34 11 04 40
       1.5383521947094005 2.508400471061208
000420 d6 fc dc 24 cc ca 10 40 06 a0 14 54 02 30 f7 3f
       4.198044372547164 1.4492209705731525
000430 53 da 58 1c a2 fd 02 c0 13 d0 c2 aa f5 fb 0f c0
       -2.37384435793073 -3.998027166433539
000440 ec 9b 7b 68 0b 5d 01 40 60 ba 24 64 4c da fb 3f
       2.1704319155428404 1.7407955085615399
000450 95 11 29 4d de 25 04 40 eb ff d8 30 91 d8 08 c0
       2.5184904125364462 -3.1057456794951483
000460 bb 57 d6 ec 63 b4 07 c0 5a 22 0c 4f 21 d3 f3 bf
       -2.963081217089863 -1.2390454376019506
000470 7a a6 22 3c 96 46 c9 3f 7b a1 e1 86 4d 4d eb 3f
       0.19746663986488838 0.8531863817598117
000480 f5 df 49 2f 6b fa d5 3f d0 92 3d a0 8d 1b ae bf
       0.34340934389137995 -0.05880396443425229
000490 9a 82 95 f8 56 c2 f7 3f 7f 1d a3 a7 19 79 07 40
       1.4849462232888642 2.9341309639600577
0004a0 99 e0 9b 89 ad c1 0c c0 5e fe b5 5c ce 26 01 c0
       -3.594569277829646 -2.143948292068486
0004b0 2e 90 92 51 82 46 01 40 fb 06 34 d5 12 74 f5 3f
       2.1594282505848446 1.3408382728816253
0004c0 e9 01 37 62 69 50 03 c0 d1 8d b7 78 e1 f1 fa 3f
       -2.4142635033642716 1.684052917052089
0004d0 13 2c b7 41 fd 9e 16 40 01 d2 5d 61 e0 87 af 3f
       5.655262972645704 0.061583530316884356
0004e0 d5 4d 11 c4 eb 66 f0 3f ce ba 68 24 47 8b cc 3f
       1.0251271876230608 0.22300042417324167
0004f0 c0 74 d6 b0 0b e9 fc 3f 60 11 3d f7 28 80 eb bf
       1.8068959148143193 -0.8593945340040072
000500 58 e4 7d e7 0d 5e ea bf cf e4 0c 32 b3 af fb 3f
       -0.8239812394450707 1.7303955035297809
000510 74 3c 8a d4 3b 48 f8 bf 8a 7e 08 e2 90 e0 00 40
       -1.517635183557812 2.1096513422815564
000520 07 96 e7 c4 1f 7b f7 bf cf 34 05 55 eb e8 02 40
       -1.4675595943057276 2.3637301103795845
000530 52 1e 9d 9a b7 cb db bf 7a af 68 2a 1d ea f1 3f
       -0.4343089113139956 1.1196567207907422
000540 f1 5b 8f 6d 31 25 f4 3f b1 d9 16 7a db 09 04 40
       1.2590803413092966 2.5048131502364517
000550 35 99 41 76 a8 68 04 40 6c 21 25 ce 4b 24 12 40
       2.5511025656479895 4.5354454240954105
000560 0f 98 97 5e c4 d7 06 c0 54 6e 44 15 92 3a 09 40
       -2.855355013848573 3.1535989438541865
000570 4c cc 5b cd 2c 4a da bf 7d df 85 5b ee 52 ea 3f
       -0.41077728323506757 0.8226234233434152
000580 f4 ce fb a6 67 8e bd 3f fc a8 3e bd db 89 e2 bf
       0.11545417620419213 -0.5793284126459919
000590 a3 cc cd 39 96 3f 01 40 43 78 40 75 71 93 09 40
       2.1560482517175656 3.196993747739755
0005a0 ad be d2 b5 0e 1e f8 bf b9 5e 3c 77 55 47 06 40
       -1.5073382475347146 2.7848309817598786
0005b0 ee 09 84 0a 47 0b fd 3f 77 7f 7a 52 b0 9e de 3f
       1.815253296925785 0.4784355931715178
0005c0 18 93 86 7b a2 ad fe bf 23 5a 4d 76 c7 6d e6 bf
       -1.9173912835332825 -0.7009007750119206
0005d0 f2 15 9b 8e bb 39 f6 bf 79 8e 81 da 17 b4 0e 40
       -1.3890948839701847 3.837936122015716
0005e0 d2 52 a3 56 64 68 03 40 b0 a0 c7 ed e5 11 f0 3f
       2.4259726303665525 1.004369667842223
0005f0 41 eb c0 7e 16 cd e3 3f 02 08 a1 ed 9b 02 c7 bf
       0.6187851405769395 -0.17976712325076966
000600 99 94 f3 a5 94 f5 e8 bf 4c e3 7f 43 6f d0 21 c0
       -0.7799781075706448 -8.907098874436677
000610 e3 b3 dd 62 a2 6c f6 3f 80 b6 43 9f 0f 9a fc 3f
       1.4015220510439057 1.7876125546712558
000620 5c 1e d9 f0 4e 97 0e 40 0d fa 31 f5 3d 76 f4 bf
       3.8238810364016853 -1.2788676813066815
000630 fb e8 d4 2e d0 82 ec bf c7 22 ac f3 e8 18 d6 3f
       -0.8909684099847078 0.34527038379796376
000640 d1 b8 ec b9 99 33 d6 3f 77 5f 7e 26 b0 c7 d1 3f
       0.34689944416721824 0.2778129936136717
000650 04 40 cd 37 1b 91 02 40 6f e5 67 70 98 87 f3 3f
       2.3208526954185817 1.2206043616154962
000660 3c f2 e1 4f e4 13 f2 bf 1f 18 5c 04 d0 eb b1 3f
       -1.1298564072050246 0.07000446421088256
000670 51 6b 09 62 ac ed 02 40 15 ba 2d e1 14 3d f0 bf
       2.366051450645877 -1.014912490467059
000680 35 15 f8 da 6b 20 0d c0 b1 35 59 6e 5d f5 bf 3f
       -3.640830717750442 0.12483772224478319
000690 ef 66 04 44 26 5f ec bf 27 49 d7 1f 47 1f 11 c0
       -0.8866149261914112 -4.280544755473136
0006a0 c1 7f 44 e0 0c e8 db 3f b0 b0 9b 96 08 dc f4 bf
       0.436038226138404 -1.3037191279536664
0006b0 76 60 c0 f9 84 37 eb bf 3e 12 5d 4e ca c9 e7 3f
       -0.8505272748907504 0.7433825998819612
0006c0 85 12 cc ce 5a 0e 00 40 4d d9 71 10 a7 c2 fb 3f
       2.007009139635843 1.7350226061222032
0006d0 3f 5c 5b 3a 70 6f f0 3f d0 cc 45 39 76 29 e6 3f
       1.0272066382947427 0.6925612562758037
0006e0 99 17 24 64 17 08 fe bf 77 08 8d e1 0c ff 07 c0
       -1.8769754325635175 -2.9995362874188305
0006f0 7b 83 d8 5d 8c a7 f6 bf 65 1e c4 57 29 5e ef 3f
       -1.4159053483819821 0.9802443231755659
000700 e8 0d 58 6f d8 2f 10 c0 f8 69 9e 9f 9c db f8 bf
       -4.046724071263704 -1.553616164694743
000710 e9 e7 c7 f2 84 84 0b 40 0d f3 43 e1 70 ea 08 40
       3.439706703878063 3.1144731139050976
000720 7d f0 73 3b 92 34 fe bf a4 a1 73 29 6b 61 ff bf
       -1.8878347704294633 -1.9612838381964162
000730 4d 4e 52 7d 64 73 a0 bf 40 0d 7e 8f 28 8e f8 3f
       -0.03213037519267612 1.5347066502734634
000740 ec 5b c4 63 1a e8 04 40 be 0a 83 59 23 c3 ec bf
       2.6133315843867333 -0.8988205669669111
000750 fe 9d 48 96 10 4a 10 c0 b4 52 d2 8d ab f8 e0 bf
       -4.072328899557304 -0.5303552408173204
000760 83 f8 f5 4e 79 a1 d5 bf a9 9d 5c bf 6b 55 ca 3f
       -0.3379805823423185 0.20573183864438008
000770 1e bc 75 69 b5 fc 06 40 c2 b2 d8 ee 1f b7 f9 bf
       2.8733928908400364 -1.6072081880512745
000780 d9 5b 17 84 93 b8 f4 bf ac f4 13 24 b8 f0 fc 3f
       -1.295062557202746 1.8087693604750639
000790 b1 c6 db 10 53 36 0d c0 f0 b1 1c 12 05 6d e6 3f
       -3.6515256230421405 0.7008080819846878
0007a0 31 73 71 8b f1 31 fd bf 43 e2 31 5d 0f 2d ac bf
       -1.8246932456015197 -0.05503128063805154
0007b0 5a f1 fe f7 42 21 e4 bf 00 2f dd c8 23 94 eb 3f
       -0.6290602534932461 0.8618334696888894
0007c0 2e d3 bd 7a 38 86 05 40 02 ce 13 74 99 c1 e6 bf
       2.6905374135189026 -0.7111327426086407
0007d0 47 73 af a7 75 d3 02 c0 8c c7 bd 5d 37 fe d8 3f
       -2.3532517528932746 0.39051613001276375
0007e0 ad 70 71 76 4c 12 14 40 b1 c5 86 2c 3f a0 f4 3f
       5.017869806932294 1.2891227473559008
0007f0 8a b4 3c 1f b6 ae e6 3f c2 24 a3 00 b9 2f a0 bf
       0.7088270769214813 -0.03161409504679959

module.layer_2.weight f8 [128, 512]
000000 4a 28 5f 5e f5 36 7a bf c7 f0 33 fa 8c 68 d4 3f
       -0.006400068732498163 0.31888126787067644
000010 37 e9 52 43 f5 7d 8d bf dd 57 7f 77 d0 23 ad 3f
       -0.014400402180730338 0.05691386660298268
000020 34 35 d8 12 f8 ce ca 3f eb 84 0d fe a7 ea e5 3f
       0.2094411937727415 0.684894558140653
000030 52 60 f3 61 e8 f4 d1 3f 5b ed 2c 01 b1 bc a8 bf
       0.28057298245903894 -0.048314601319783455
000040 e7 19 b2 9b da 42 c3 3f 12 39 42 4b 8f 6c e5 bf
       0.15047772028283576 -0.6695019216438445
000050 5d a7 bd de 88 64 ca bf 43 28 d7 3f f4 90 be 3f
       -0.20619307399766287 0.11939932402234014
000060 91 d7 a4 3f dc bd 89 3f 86 3e ab 6a 08 86 d5 3f
       0.012569161121614577 0.3363057176293086
000070 08 b4 1f e6 2d 52 df 3f 00 35 a7 45 04 48 e2 3f
       0.4893908259680875 0.5712910995877394
000080 92 84 0e b7 89 30 d2 3f 97 d4 08 eb 7b 78 9f bf
       0.2842125213301837 -0.030733047695509965
000090 7b 3f 82 dd ce 46 e0 bf df 4e 77 52 44 af c7 3f
       -0.5086435629218465 0.18503622080481016
0000a0 43 88 49 25 0e 48 82 bf 63 25 c5 c1 ac f5 d9 3f
       -0.008926496994892235 0.4056198017393255
0000b0 56 2c 5d 8b ed 18 dc bf af 43 c7 dd cb 07 c2 3f
       -0.439021478746047 0.14086292580625812
0000c0 e0 5b 5a b8 ac 87 d5 bf c2 f2 6f cd 1e f7 cc 3f
       -0.3364059257814329 0.22629151373975814
0000d0 94 35 c0 7d f6 d4 c0 3f d5 a3 40 1f 02 fa d8 3f
       0.13149911060501707 0.39025929500581685
0000e0 69 40 8d aa 7d bc a1 bf 16 ed c9 19 85 87 bf 3f
       -0.034641196317011964 0.12316161994560945
0000f0 38 92 c9 0c cb bb d5 bf 7e 1e a2 25 a8 37 de 3f
       -0.33958698509949015 0.4721470229637602
000100 a5 1e 58 dd 16 3b c0 bf ca 61 13 d6 a2 d2 bc 3f
       -0.12680326278517842 0.11258905149896417
000110 8c dd 67 fd 01 cc df bf fc d4 15 8b f3 30 b6 3f
       -0.49682664629605067 0.08668443818699595
000120 75 d6 93 9b 05 7f b0 3f a1 4f 83 da ae 34 b3 3f
       0.06443820045736877 0.07502262911594794
000130 13 69 32 e0 9b ae d7 bf 6a 19 53 65 18 a1 c9 3f
       -0.3700322808669096 0.20022873828402094
000140 09 b7 47 fd c4 38 b7 bf d0 47 12 b3 95 d6 d3 bf
       -0.09070998366925322 -0.3099722145790311
000150 38 ac 70 e8 2a 46 b3 3f 99 be c3 74 ca 2e be 3f
       0.07528942274864014 0.1179014716215029
000160 7b 4c 5c 4d 4e d7 b1 3f 5b 3a 1d 65 fe 96 d8 3f
       0.06969155682263477 0.3842159259265025
000170 ce 78 af b1 c6 b0 b4 3f 0a 6e 30 47 31 22 c2 bf
       0.08082238996528021 -0.14166847206148275
000180 7e 17 ee 6e a1 94 b0 bf 84 2b 57 8e c4 9f d5 bf
       -0.06476792295697284 -0.33787645245018205
000190 db ab 96 0f 41 59 db 3f 19 02 b5 f4 95 c6 b5 bf
       0.42732264063186925 -0.08506142830174958
0001a0 d0 3d 19 2e cd 91 b6 bf 6f 46 aa 6a 5c 49 73 bf
       -0.08816225409940803 -0.0047086343789871496
0001b0 dd 04 5e bf 91 a8 d9 3f b0 53 c3 97 f5 07 b5 bf
       0.4009136551686206 -0.08215269999648345
0001c0 23 92 39 5c b9 de e3 bf e9 85 fe 92 93 de e0 3f
       -0.6209379960315043 0.5271699782353468
0001d0 20 b5 07 6a af 29 ae 3f 00 ec 7e 40 d0 38 c3 bf
       0.058911782925728184 -0.1501713099404185
0001e0 dd 31 c9 4a 8a 64 a7 bf 93 8f 43 fc 21 47 cd 3f
       -0.04568893587984111 0.22873329942296702
0001f0 d1 32 c4 95 53 69 a4 bf 3e 1f 48 b2 22 27 d0 bf
       -0.03986607745364313 -0.2523886433632362
000200 19 76 13 27 4c 9d f2 3f a1 7e a4 fc fd 4f e0 bf
       1.163402702942568 -0.5097646650719591
000210 37 c7 96 69 b0 5b d4 3f 3d 5e 41 d3 59 23 ac 3f
       0.31809625922607004 0.05495720580864514
000220 54 74 43 1d df 6f d5 3f 66 df 6b 64 8d 50 b9 3f
       0.334953096940642 0.0988853807610873
000230 5d 55 19 bc 8f 14 d7 3f 5a 8d c5 0b 07 b1 ab 3f
       0.3606299721626181 0.05408498781869282
000240 59 ee 5a 2d 3c ca c0 bf 32 1a 6a b0 cc ea d4 bf
       -0.13117172445878358 -0.32683102825140786
000250 6e 63 95 61 dd 4a 94 3f 9d 0d 0e b7 e0 13 cf 3f
       0.019816836434390188 0.24279412210681253
000260 ed e9 2a 1e 78 54 ac bf 91 89 4c 6c 2d dc ac bf
       -0.0553319489312861 -0.05636732050904237
000270 b5 4f 32 a8 1c 3d c7 3f 9f ff 36 29 1b 7b c1 3f
       0.1815524884483445 0.13656939995234738
000280 15 cd e3 be 8d 9e c1 3f db bd 30 03 02 7a db bf
       0.13765117474358904 -0.4293217688709469
000290 9f 54 57 7d 1d 14 a7 3f 01 6e 79 87 2a fc bd bf
       0.04507534174960281 -0.11712899978140713
0002a0 e3 0e c3 48 de df d3 bf 25 94 da 55 4a 08 77 3f
       -0.31053883653315334 0.005623140690350891
0002b0 f8 01 d6 58 bd fd 9b bf 8f 9f 13 94 03 ad c6 3f
       -0.027335127398602638 0.1771549675970587
0002c0 d1 02 a4 84 14 31 c3 3f fc 0b 62 5d d5 d5 85 3f
       0.14993530727954021 0.010661761200259072
0002d0 e9 9c c3 b5 6e 3d d5 bf d4 b8 37 f0 29 8d ce bf
       -0.33187453985597287 -0.23868297795656324
0002e0 d9 28 9d 9e db a0 ba bf d1 0e 41 38 bd 73 bb 3f
       -0.1040169965973833 0.10723478911773589
0002f0 71 9a f8 f9 e7 98 a3 bf 48 bc b9 5d dd c1 d0 bf
       -0.03827595640568838 -0.2618325629509326
000300 cd 24 6f 89 b0 bb db bf d2 28 e8 7c a1 32 c7 3f
       -0.4333306638842032 0.1812326297661629
000310 b1 1f 94 11 b2 1b db 3f 1b 94 f6 59 d2 77 bb 3f
       0.42356540409718507 0.10729708382002949
000320 5c 15 65 89 01 44 e3 3f 59 02 5c d6 c0 ac c7 bf
       0.6020515140050224 -0.18495951143997294
000330 79 b8 16 25 72 ef b4 3f 07 47 22 0c d2 47 ba 3f
       0.08177865415083997 0.10265839382398322
000340 87 ec 26 e8 3e 18 b1 3f e5 4e c2 37 52 84 bc 3f
       0.06677621047758651 0.11139406071952924
000350 8a a9 af 55 82 29 ec 3f d7 ec 1e 15 34 a0 c3 bf
       0.8800670312460153 -0.1533265212181962
000360 74 77 2b 41 db 0e c8 3f 78 90 29 46 74 6c c2 3f
       0.1879533832752106 0.14393475938698308
000370 aa 77 a7 75 cf c4 b9 3f 64 1a 52 7f 61 0d d3 bf
       0.10065933821121456 -0.2976917022100791
000380 f4 74 a3 e8 93 00 b9 bf 3b 74 5a 4c d8 3c d6 3f
       -0.09766506604815445 0.34746367889767144
000390 a8 e2 bf 1a a0 6a ce 3f 7c 76 49 08 97 93 c1 3f
       0.23762894922380906 0.13731658844601558
0003a0 7d 8f 85 fa 2c 9e f6 3f 07 34 6d dc 0c 81 8e 3f
       1.4136171136860576 0.014894581295857646
0003b0 6b 11 12 04 fc 36 cb 3f f7 93 85 7b dc 43 f7 3f
       0.21261549185522752 1.4540676903791316
0003c0 f1 4c f3 31 05 df 94 bf 73 4d 73 52 9e 91 aa bf
       -0.02038200490353587 -0.05189223057245842
0003d0 14 6c bb 38 7a cc c8 bf 48 c4 97 42 48 dd c4 3f
       -0.19374015588877624 0.16300299884417968
0003e0 10 70 ff 11 7e b5 b3 bf 8a 29 4d 2d 64 b3 c0 3f
       -0.07698810519599442 0.13047458850844534
0003f0 1d ca 20 f0 c7 f8 bf 3f e6 72 79 7c b9 6c d2 bf
       0.12488984692098666 -0.2878860202379613
000400 5a 7d af 62 ad 4d c3 3f e1 11 61 22 5a 25 e2 bf
       0.15080802267673726 -0.5670595809429494
000410 cb c6 80 37 35 2e da bf 0f 0f 04 88 68 e2 a3 bf
       -0.4090703050634203 -0.03883673343992033
000420 40 e1 84 0f db b9 cf 3f fe 84 e4 91 aa 00 94 3f
       0.24785936601416303 0.019533791689473105
000430 2d 91 5a ed d1 8a b4 3f 3e ce 0b 99 81 d0 db bf
       0.0802432255246159 -0.43460121103200666
000440 9c 8e 8e 8e 51 54 a7 3f 6e 91 93 a5 26 a8 d6 3f
       0.04556517472454155 0.35401312036108024
000450 3d c2 ce 10 f9 94 e0 3f 91 da 9f b4 4d fd 96 3f
       0.5181851700090828 0.022450651311340556
000460 3b 3f 10 3a 14 6a c3 bf 12 c9 fe 99 5e 5a de 3f
       -0.1516747745049488 0.47426571882819346
000470 ad 96 fc 87 04 62 bc bf ad d7 35 57 19 34 ce bf
       -0.11087063140856897 -0.23596493490520967
000480 e2 a6 8c 91 c5 ae e2 3f 7d 85 07 9c 76 21 d6 bf
       0.5838344424020898 -0.34579243886226846
000490 ed e5 d1 fd af 95 e0 3f e7 98 d6 6a af 7e c6 3f
       0.5182723958416183 0.175741126219868
0004a0 96 c1 7e dd 17 29 c4 bf 65 12 d7 da e0 0b b3 bf
       -0.15750406565849734 -0.07439999907280422
0004b0 44 9b a1 b4 b7 6e de 3f 58 e0 62 44 9c 72 e2 3f
       0.47550766601346006 0.5764905296009699
0004c0 f2 b4 02 ca f3 3d b7 bf 3c 0c 37 e0 85 e8 8e 3f
       -0.09078906709574477 0.015091939835548122
0004d0 f1 15 4e a7 2e 6b d6 3f 20 1c 82 ea 0a 3f d0 3f
       0.3502918847883328 0.2538478174323604
0004e0 eb 44 ef ab d9 ff e1 bf 29 8e 6a 0d 3b 66 dc 3f
       -0.5624817236040632 0.44373966512850643
0004f0 62 77 e8 87 b1 86 d6 3f 6b a5 da 9a 03 d6 e0 bf
       0.35197103760025616 -0.5261247658246878
000500 85 a9 99 b4 45 d5 cc bf ea 8f 78 52 1d d6 e2 bf
       -0.2252585536801456 -0.5886370287666953
000510 1e 5a 42 7a 87 f2 e3 bf 43 75 c7 05 99 d5 9b 3f
       -0.6233556163668401 0.0271819982316306
000520 6c 88 92 8a 80 84 b5 3f fa 36 23 90 cf ee de 3f
       0.08405307181468097 0.4833258540719353
000530 c2 cd b7 29 a6 22 c0 bf 50 b3 12 5f 0a 21 8f bf
       -0.12605740582476527 -0.015199738527678669
000540 2a 7e 4f c1 94 7a da 3f 75 d8 d7 c7 91 34 9e 3f
       0.41373175504665716 0.029497411558587722
000550 38 45 ca 88 98 89 d0 3f ca e0 e8 5b 82 24 d0 3f
       0.25839818342599896 0.252228345637843
000560 70 3d c5 19 7a ca ad bf de 3c a8 9e 3b 6f d0 3f
       -0.05818540157872121 0.2567891168009292
000570 52 c0 be 2b 9b 55 d6 bf 83 86 87 0a dc 0c d3 3f
       -0.34897498390183046 0.29765988376866676
000580 fd 06 50 3b 0a 06 ba 3f 40 08 14 bc c6 b2 d5 bf
       0.10165466259061513 -0.33903663985268295
000590 cd 26 0e 8d 69 cb a9 3f 44 85 66 b1 36 4f e2 3f
       0.05038003775469022 0.5721696343281697
0005a0 08 bd 3c 36 b6 84 c6 3f e1 22 cb 9a ac 71 d6 3f
       0.17592504165939027 0.3506881248145373
0005b0 81 0a ec 3c 2a 93 df 3f 75 8e 6c e0 a4 2a c3 bf
       0.493357238287139 -0.14973889311032776
0005c0 92 9a 97 24 38 e6 d3 bf 33 fd 5e 69 e2 fc d4 bf
       -0.31092647145707375 -0.3279348401083155
0005d0 20 26 25 08 26 66 c4 bf fb 6b bf eb 89 72 c5 3f
       -0.15936732671461673 0.1675579453575152
0005e0 31 f3 0b 8c ca ff bd 3f 9e b2 17 01 c5 d0 b1 3f
       0.11718431395634067 0.06959182049440435
0005f0 e1 aa 2f 77 80 b1 c9 3f db 62 de 44 dd 90 d0 bf
       0.20072942561758736 -0.25884181714495264
000600 55 ba a8 5c 5c d4 d9 bf c4 04 bd 49 0c ee a1 3f
       -0.4035864739297826 0.03501928711058036
000610 6c ee 4c a9 59 03 c3 bf 1a 87 33 bb 92 3a cd bf
       -0.14853974119783986 -0.22835001125991355
000620 f3 56 e7 12 5f 0d 81 3f 22 34 92 e5 e3 bc c7 bf
       0.008326285137552491 -0.1854519720986057
000630 c9 38 5f 4c fa 1b c8 3f 40 01 21 c5 50 df c9 bf
       0.188353812495228 -0.2021275484603482
000640 dd 75 34 8e 84 c4 d4 3f 9b 86 d1 c0 8e 03 c7 bf
       0.32449449431609684 -0.1797960702415836
000650 5c 2c 32 cc 4f 41 be 3f d6 5a 8f da 77 0f d5 3f
       0.11818407759908339 0.3290691027045062
000660 c0 c0 6c 12 56 1b e0 bf d2 4b 4a 4a 7b 90 d0 bf
       -0.5033369407519999 -0.2588184571733879
000670 57 68 58 9b 13 35 87 3f c6 20 e8 4f 03 0c d1 bf
       0.011331704309714903 -0.2663582115496975
000680 ce 68 26 5e 2b be 85 bf 25 b6 0b c1 6e 64 c4 bf
       -0.010616625605326748 -0.15931496072828213
000690 8b d5 e1 05 38 1c d6 bf f1 a3 f8 09 e3 b9 a0 bf
       -0.3454723412936224 -0.032668204276269715
0006a0 d6 38 08 e8 93 0b d5 3f 5b 89 95 9b f3 9d c6 3f
       0.32883165034662676 0.17669530007249076
0006b0 de cc 82 31 35 b4 bb bf 13 69 57 90 3d f8 cb 3f
       -0.10821850260508678 0.21851319835588665
0006c0 6d be c8 f2 35 21 e1 bf 60 13 42 63 6e c5 da 3f
       -0.5353040449026146 0.418300244266268
0006d0 4a 4a 81 a8 24 38 d1 3f f8 92 87 7a 90 b8 ce 3f
       0.26905170875139517 0.2400074575699802
0006e0 cb aa bf a6 a1 8d 92 bf d9 96 99 69 2f 0c a5 bf
       -0.018118406107457113 -0.04110859073698032
0006f0 73 39 2f 98 4a db db bf ef ce 33 d6 e6 83 a2 bf
       -0.43525948392643626 -0.036162580154181494
000700 64 19 69 d3 d6 4e b1 bf ed b4 4c c7 1a f6 dd 3f
       -0.0676092401637099 0.4681460329328065
000710 d3 5d 66 83 4a 0a d0 3f 89 d7 6c c6 d1 c7 e7 bf
       0.25062811691301795 -0.7431420207492333
000720 69 24 8f 36 a5 55 d2 3f 8b 6e 11 8d ab 86 a7 3f
       0.2864773781589692 0.04594932648680324
000730 b0 c5 c5 20 80 de d4 bf bb fe f7 69 bc 7b a4 bf
       -0.3260803527874385 -0.040006530700336516
000740 71 d2 89 dc 87 33 de 3f 46 bb 83 9e 2d 95 d1 bf
       0.4718951848692888 -0.2747301147455129
000750 a2 46 17 af 16 e4 f7 3f d1 89 4b 5b 0d a8 da bf
       1.4931856955994722 -0.4165070907166895
000760 31 23 73 09 85 93 c0 3f 3a 2c ea c2 2b 63 dc 3f
       0.12950194322027067 0.4435529139961464
000770 0e 95 69 65 4c 25 cc 3f e2 15 15 2c a6 27 c3 bf
       0.21988825752047386 -0.14964749481639134
000780 d7 25 e3 f5 a5 fe e1 bf 53 4d 60 df f3 2b e1 bf
       -0.5623349955068829 -0.5366153109375013
000790 86 47 c3 22 62 1a bc bf 53 bb bf 43 85 1b ce 3f
       -0.10977757786466044 0.2352148609929495
0007a0 ab 1b 51 8b 92 92 d0 bf 69 76 aa cb 86 99 c3 3f
       -0.25894607167395617 0.15312275833723568
0007b0 f9 4a 2c 08 c6 a2 d7 bf 01 c0 fd fa 05 35 e2 3f
       -0.3693099098028792 0.5689725782558527
0007c0 d5 46 3e cc 27 15 d9 3f 92 b5 8e f4 57 4b c1 bf
       0.39191622682220145 -0.13511180344850665
0007d0 ef e3 4a f5 0e ce cc bf 95 50 78 5f ea ec ba 3f
       -0.22503840424704388 0.10517754393396424
0007e0 c3 6b 2e dd d4 11 bc 3f 28 7c b0 ab ba 5f d1 3f
       0.10964708709654673 0.2714678455976718
0007f0 b3 83 d4 f4 70 54 e5 3f e2 84 81 c0 35 1b c8 bf
       0.6665577680433813 -0.18833038234428218

module.layer_2.bias f8 [128]
000000 f0 aa 2b 53 e9 1d af 3f 34 34 e0 26 16 2e b5 bf
       0.06077508106485208 -0.0827344746505368
000010 66 21 33 da 7b 09 93 bf 32 f6 be e2 6e fe af 3f
       -0.01859086531911327 0.06248804586310221
000020 da e9 a5 12 0f 10 c1 bf 04 d1 7a 0b a9 93 a7 bf
       -0.1333025780730413 -0.046048433924996274
000030 e1 90 6f e1 b4 cb bc bf 22 cc fa 6f b9 67 bd bf
       -0.11248331550411052 -0.1148639582050213
000040 0b 35 40 a5 94 85 9a 3f 09 d1 d1 17 2f d0 b4 3f
       0.025900194727047892 0.08130163508923628
000050 bf c4 b1 2c 8d da be bf c7 cf 7d 8f 73 27 bd bf
       -0.1205223306767662 -0.11388323071679372
000060 44 49 41 e9 fc 3c b8 3f fe bc f8 be 97 c0 33 bf
       0.09468060202315082 -0.00030139641509925586
000070 29 5a 5c 13 6f bd b9 bf ed 3e 43 37 c5 6a a9 bf
       -0.10054678175615862 -0.04964271831124543
000080 53 1a cb 32 a2 f6 b4 bf aa de 65 aa 73 25 96 bf
       -0.08188832988808174 -0.02162724235083028
000090 dd 7e e5 12 34 45 89 bf 0a 48 1c f9 d8 dc a2 3f
       -0.012339026285814675 0.03684118309878677
0000a0 f7 9d 72 84 c9 9d af bf d5 0a 85 e2 c6 e1 a7 3f
       -0.06175069562715046 0.046644415999727386
0000b0 84 98 88 73 a2 1a bc bf fb 47 da 25 2a 38 a1 bf
       -0.10978141136783576 -0.033631627197919976
0000c0 0a 04 d6 e1 61 5d cc bf f0 32 7e a2 00 0a b9 3f
       -0.2215998032297935 0.09780887572396657
0000d0 44 ea 1a 23 6f 09 b1 3f f8 a4 39 d5 ed da ac bf
       0.06655020339068424 -0.056357795980895575
0000e0 ca f4 29 e1 91 c2 c6 3f 11 05 48 e7 17 60 d0 bf
       0.1778128003533424 -0.25586507402484054
0000f0 68 f2 65 6a 59 aa 9b 3f b0 87 d4 57 db 21 c0 bf
       0.0270170184316946 -0.1260332278116585
000100 38 f7 e0 33 ee dc da bf 5c 4a 06 9a 3e 5b c8 3f
       -0.4197345263126979 0.19028456230860769
000110 cc a5 c0 62 cf d8 c8 3f 20 80 ad 73 89 df c3 3f
       0.1941165191831672 0.15525930546118705
000120 97 36 44 f5 d1 96 9c 3f 8b ad 2b 58 93 d1 b2 bf
       0.027919083208920083 -0.07351036932566594
000130 cd 06 b9 bd 23 ce ad bf a2 c9 01 59 de 97 bc bf
       -0.058213345441357235 -0.11169233010313076
000140 ae 8d 8e d2 4e 64 c0 bf f4 98 da 7f ac cc 94 3f
       -0.12806115418525849 0.02031201868398909
000150 b0 8c 90 3f 86 76 90 bf c9 90 79 a3 40 5b 6a 3f
       -0.016077134732893128 0.0032173407051222275
000160 b5 55 ba 81 0f ed be 3f 1f 1d 6d 80 83 e9 a2 bf
       0.12080475728210767 -0.03693781798079442
000170 b6 f4 48 8e 41 3a b4 bf 54 59 4b 5f 92 ec 8b 3f
       -0.0790139171958398 0.013634818585540977
000180 52 46 3f 2d 21 cd c3 bf d1 b2 4e c4 9b 5a 98 3f
       -0.1546975584920341 0.023783143860486803
000190 01 b8 94 e2 90 e1 b4 3f e6 0d ad 0d 3c 9a 82 3f
       0.08156686336289455 0.009083241622312731
0001a0 c4 15 1c ed ad ca b0 bf 57 0b 05 86 96 c6 bd 3f
       -0.06559264220057687 0.11631146213498532
0001b0 bf fc 68 e5 44 18 c0 3f fb 39 08 84 29 24 ba 3f
       0.125740634934095 0.1021142909378127
0001c0 63 85 15 11 03 b2 ad bf 60 d5 9c a5 07 ed d1 bf
       -0.05799874862237677 -0.28009215520008546
0001d0 fd 4d d5 db fa 23 c3 3f 3a 41 25 a0 a2 8c c0 3f
       0.1495355199245835 0.12929184741597927
0001e0 da b5 da 98 1a cc ce 3f 48 58 d9 d2 a8 c1 ba 3f
       0.24060375655737581 0.10451750896149392
0001f0 b8 4d 21 c1 2a 5c a0 bf 56 27 47 c7 3a cf c5 3f
       -0.031953178477717115 0.17038664560669287
000200 7f d2 0f 16 c1 8f ac bf 72 ae 77 01 8b 50 9c 3f
       -0.05578425783452178 0.02765099712807601
000210 12 09 da a3 27 d6 b5 bf ac de 75 77 8f 7d cb bf
       -0.08529899359021823 -0.2147692998221279
000220 4f 3b f7 92 e3 d9 9f 3f 31 5f d7 68 24 fd a6 bf
       0.031104617924764096 -0.04490007190514545
000230 1f c1 fe 6a 20 2a 70 3f 8b 1c 2f 8f f7 90 b0 bf
       0.003946425087562737 -0.06471202130988922
000240 15 01 48 1a 87 17 b4 bf b1 e3 10 62 a5 29 bb 3f
       -0.07848400489456638 0.10610421795071436
000250 07 26 64 41 33 11 b5 bf 93 13 7b 19 9c 37 b6 bf
       -0.08229370447602245 -0.08678603765572594
000260 50 27 04 fb bb c2 c3 3f 94 aa eb 43 8d 4b b4 bf
       0.1543803191819344 -0.07927782924859123
000270 b8 c0 27 7c 23 3c af 3f fc 79 6b a0 a3 a2 b9 3f
       0.06100569620673596 0.10013792673587568
000280 a1 05 69 b1 bb 1a cb bf 35 bc 0d 8a 11 99 9d 3f
       -0.21175333178147773 0.028904222537161146
000290 fc 96 b6 c6 97 2f 93 3f 1d bf 59 e8 b3 7b b2 3f
       0.018736239913457617 0.07220005438443562
0002a0 93 aa 6a e3 05 ec 7a 3f 66 0c 77 5a c4 63 cc bf
       0.006572745324471402 -0.22179464738119065
0002b0 12 da 81 4e dc 05 a0 bf 07 4f 6d 8d 17 8f 9a 3f
       -0.031294712623026424 0.025936477667825943
0002c0 9c 2d 4b 74 63 dd ae 3f be 85 d8 43 09 70 c4 3f
       0.060282810159687034 0.1596690732267642
0002d0 bc f5 16 8c 8b ec c0 3f bb 38 5e d5 78 1d a2 bf
       0.1322187837630916 -0.03538110355940335
0002e0 df 61 fb 25 a3 0e a4 3f df fd bd a1 34 9f 91 3f
       0.03917417372366904 0.01720888364024897
0002f0 c8 c1 2b 43 d2 05 b7 3f a1 8d 82 13 f8 cb b7 3f
       0.08993257656016518 0.0929560706741115
000300 e6 69 65 c4 0d 05 ba 3f 1a 34 03 9a 86 e9 c0 bf
       0.10163961453273593 -0.13212664146559022
000310 98 49 67 72 6c f6 a0 bf 62 e3 a9 a2 72 8b b1 bf
       -0.033130063023821765 -0.0685340544822686
000320 70 7f b1 1e 9c 36 c9 bf b9 46 67 aa 39 d7 b6 3f
       -0.19697906016062516 0.08922157678832833
000330 f6 9a 8d fe 2b 3b c1 3f 9e 1d c8 64 db 2a b2 3f
       0.13461828164437123 0.07096644602289934
000340 43 e1 73 da 11 e7 ad 3f 87 1e e2 cc fb 71 ce bf
       0.05840354720743559 -0.23785350326601337
000350 b9 3a 40 96 15 cc b4 bf 8a f5 34 4a 81 97 b1 bf
       -0.08123907964930312 -0.06871803342524721
000360 23 4c 6c 2c 51 6c b0 bf 5c 1e 33 bd 67 0e b6 bf
       -0.06415278753802105 -0.0861573063767706
000370 3b bf ba c7 cb d2 ab 3f 7c 7c 3f e0 98 00 d0 3f
       0.054342620974578947 0.25003644847124185
000380 82 4e 79 cf e0 a2 c7 bf 8b a5 f7 3b a9 7c 83 3f
       -0.1846581471496514 0.009515115873869792
000390 3a fd db ff 38 d9 cf 3f 08 dc 24 8f ab d9 d0 3f
       0.24881660931712607 0.2632855317964986
0003a0 40 cf 34 27 af af b5 3f c8 b5 33 dd 44 4f af bf
       0.08471197802719832 -0.06115164947719226
0003b0 c1 20 3e 8a 95 17 bb bf 87 35 ea 3a ad ff aa 3f
       -0.1058286154276429 0.05273190826583645
0003c0 f6 2c de 79 a9 92 b0 bf 53 24 fd 32 e7 f8 90 bf
       -0.06473788476266748 -0.016574490058051627
0003d0 95 c8 ff 44 2c e9 bf 3f 25 be 21 0c 21 6a a9 3f
       0.12465168652105015 0.04963782570927958
0003e0 85 67 10 29 cc 48 c9 3f cb 4e 1a 91 71 e5 b7 3f
       0.19753410344202052 0.09334478180454224
0003f0 1d 73 e7 b1 e9 2c c1 bf 4e b0 4b d1 98 b6 c8 bf
       -0.13418313204501767 -0.1930724164916477
