old_models/old_kml_ml/saved/4_ft-33_pct-all_wl-100_epch.pt (torch, 622528 bytes, 8 tensors)

module.layer_1.weight f8 [512, 4]
0.862691190771676 0.8696848541348183 -2.6538151856913514 1.08615947954994 -1.3701706329933465 0.7116764957302578 -0.9799721080876321 0.04488268774123663
1.3596513032944522 -0.0419824491903433 -0.01678709638789316 0.8466085344595011 -0.4657114641283992 -1.0150926815788033 0.14853271295859485 0.23216779002398796
1.0129907654960422 -0.799345318116246 -0.33391383118601603 -0.0844625490438294 0.12037461930560585 -0.5618491532048271 -2.148577063126039 0.3994141339405988
0.31339151360780065 -0.6102853858110605 -2.239650070084775 0.9673212908203364 -0.5777245879725506 -0.30654048162704844 -2.311655082332655 1.1738182792398373
1.2300754577648645 0.6696115138869275 1.9550273501914472 -1.4002728996340568 -0.055954792263546015 -0.09658632325225279 2.5226507273936116 0.5685291480854048
-0.24899141198776653 0.09327992931767622 -3.016502934597633 1.405265302467495 -0.6385583238405933 0.6110541280674625 -0.08072710110867456 -1.0136533819271782
1.3049620623093592 0.09775510612845792 -0.4636918697287278 0.8979856303695163 0.2617681806387713 -0.017594134844900817 2.2669617312734203 -1.3387919616859665
-0.9066651273685954 -0.35917093631218483 -1.4678400633683673 -1.2602451665149068 -1.0634888181258693 -0.4297503629467807 -1.2952450795776054 -0.7794427307300489
-1.4372810708631167 -0.4549708902837442 0.1678396073857397 -0.3186882468620321 2.2923321789472397 4.304382166015884 -0.7096472528116615 -0.25176707056139513
0.7194197955957582 0.2541562056846747 2.1911938154430897 1.649156085384558 -1.0596040654015884 -1.2646592824088645 0.8345549297697354 -0.7789946500021471
0.7221202170676578 -1.189293724830896 1.3089346836132663 -1.379077944401342 -2.755143334543348 -1.3485570505919808 -1.3201029550179288 0.6357655436640872
0.47422316173617235 -0.07978219189405866 -0.31643641518338417 2.0016334749698146 1.2442395853444308 -0.6281405255078025 -0.2667596308225143 0.9413380974911681
1.4891265800592235 -0.024296119130906586 0.1281120575312734 0.11146201715096984 -2.2673034209295313 -3.7272757244101165 0.6126731499737257 0.22566439801908564
1.3146078581324947 -0.9127685821623173 -0.07613858739091353 1.0157188714635477 -0.07081824099310467 -0.14034451750084076 -1.614136472204964 -1.7604997579199777
0.8460835436979592 2.071959627332779 -1.1186228025537266 0.7943362156417656 1.2509912247397237 1.3022378806141557 -0.5506717817024644 -0.3126672596952275
0.6946021236092477 0.7062044161184505 -0.45342775224994514 1.36163164364566 2.0284336485887846 0.514285944401748 -1.5949821272025118 0.5416967187655526
0.5047384760139362 0.5367817392298999 -2.5335554578980224 1.1932792996996846 1.5572688629655382 -0.2933210772296733 0.1244515020864923 -1.5737772477487395
0.7809418254691123 0.38181142387430445 1.3600591884286637 1.3098248783749253 -1.3765452972673837 0.49030736132843383 -0.493910186820503 -0.9141220139863745
-0.07385893045378361 -1.0694086256782767 0.9578546444126862 -0.8627722241970451 -2.418892695770087 -1.7705413468125337 0.5412538480014171 0.23715333701210392
-0.06801463362467501 0.05760109307428545 1.3465006841440839 1.0705506796482167 0.32597570579158036 -0.5428453736345404 -0.1891663103603001 -0.22164461056177115
-1.5604721797870034 1.2620226307967142 0.016623409960757698 0.2552750762269149 0.26973692782761416 1.2948295949110311 0.7935540774479725 -0.6685718401438123
-1.043455770782057 0.41951752631277595 0.19326709201271536 -1.1734488108664696 -1.90243128528387 -1.3096153373976531 -1.4553261644416973 0.6820724388867263
-1.867170214663755 -0.6993724485522346 0.36920608528526355 0.33028126387180134 -0.9561242769683971 -0.8887280690371608 -3.054626606855099 0.7985882878221214
-1.5810877940018606 -0.9787807808914342 -1.6412376265728494 0.7085318766483975 -1.312601786716151 -1.0202856026265426 1.4595501351612703 1.182625856090346
-1.1697011356350309 0.9112018567030239 -0.265978534103038 -0.944906096471639 -0.2846875305770942 -0.3493830182500318 1.0570337823969786 1.4943410846680965
-0.47474348703366837 -0.22517873710730768 -2.6883920991133925 -1.0797404301878069 0.3829502556784911 -0.22839805908023314 -0.09877171348734193 0.8666439536310111
0.5920429314117239 0.8426420614555428 -2.486539432475353 0.998553646997444 2.2663288526940177 1.459973610781936 -0.4402743967427124 -0.37027047006996
0.44806883461695785 0.7461948305173832 -2.0015957633857657 -0.7709257216396956 -1.206915773604712 1.0305332231662683 -0.3278672176734816 -0.8724084630816115
0.8856437184650258 0.20562959077925766 2.46747701278351 0.7744079966220342 -0.21341640962531422 0.4946675914043288 -1.8342648198918095 -1.3068593181508352
2.2400624734207017 2.197299605559854 -0.5017613430167059 -0.34128892351860957 -0.299508743595306 0.12078119861712105 -1.8644938652695617 1.1333592779642034
-1.7486853805109448 -2.178454274512767 0.7499599085106411 0.16136546539866176 1.2980213051466905 0.6770257307985924 -1.7151306486381788 0.6427681051118213
-1.002395725787002 0.7530570484188355 -1.149705634161989 1.3825351195137408 1.4300509148940246 1.3065211434831117 2.951457414401762 -0.8472662567555166
00000000: 332c 5d8e 2a9b eb3f 08bd ca54 75d4 eb3f
00000010: 5361 c174 033b 05c0 9a84 2ec3 e860 f13f
00000020: 3056 aa0a 38ec f5bf 73c9 4fc9 0dc6 e63f
00000030: 5750 6777 ee5b efbf 74a8 0218 ddfa a63f
00000040: b0d0 99b9 21c1 f53f 5c98 8e3c b97e a5bf
00000050: 0f57 ecf7 a230 91bf d693 00c8 6a17 eb3f
00000060: ab70 f374 37ce ddbf 70a3 dcd2 d13d f0bf
00000070: 858b 45b4 1e03 c33f 3e37 ab94 acb7 cd3f
00000080: c149 0fce 3535 f03f c8a3 f0a1 3c94 e9bf
00000090: 7210 281e d85e d5bf 854a e16d 569f b5bf
000000a0: 7d9f 2ffd ded0 be3f d099 4913 abfa e1bf
000000b0: 1c7f d82b 4930 01c0 3971 b54c 0090 d93f
000000c0: 3b86 7247 9b0e d43f bf20 a937 7587 e3bf
000000d0: 59fc eba7 cdea 01c0 fc87 99c7 4bf4 ee3f
000000e0: 60fd 6d46 b87c e2bf af3f dff7 5b9e d3bf
000000f0: ed01 1205 457e 02c0 7883 0cad f5c7 f23f
00000100: ac65 6b9a 63ae f33f c16b 2520 756d e53f
00000110: 92b9 3dc2 ca47 ff3f 2e74 568e 8467 f6bf
00000120: 6b1e a745 1ba6 acbf bffb 9b9b e1b9 b8bf
00000130: e216 2b81 632e 0440 8d2f 3b0a 6431 e23f
00000140: f874 bc59 f3de cfbf 8de8 ca85 31e1 b73f
00000150: 3214 634a cc21 08c0 b2d2 4478 f77b f63f
00000160: 517c afdd 116f e4bf 6756 0463 c18d e33f
00000170: f2a2 2903 88aa b4bf 63b6 cd9b ec37 f0bf
00000180: 083b 42e6 1fe1 f43f 66b7 d687 7a06 b93f
00000190: 8cfb f9a9 20ad ddbf 6be1 565c 4cbc ec3f
000001a0: 3c86 be53 cfc0 d03f 6582 0a67 3204 92bf
000001b0: b3d2 08d5 bc22 0240 2e6c b91e b16b f5bf
000001c0: eb18 cf95 6603 edbf 2f9c 4818 a8fc d6bf
000001d0: b0cf bedc 457c f7bf 43fa f1d5 f629 f4bf
000001e0: 6232 d8d9 0c04 f1bf 443c 93aa 0781 dbbf
000001f0: a473 91e7 52b9 f4bf 54e5 b2e1 31f1 e8bf
00000200: 6845 a86f 1aff f6bf d5a4 9939 3e1e ddbf
00000210: 5dfd 58ac c47b c53f 9216 7963 6365 d4bf
00000220: ad2c e140 b256 0240 7018 62f5 af37 1140
00000230: eeb6 d027 6eb5 e6bf b256 91a1 f31c d0bf
00000240: 9eb8 c5a9 7c05 e73f a06e df63 1844 d03f
00000250: 4934 849f 9087 0140 f19d cb7d f162 fa3f
00000260: 48bc 7964 23f4 f0bf 6176 285f 0b3c f4bf
00000270: 6e73 428a acb4 ea3f ff94 3030 86ed e8bf
00000280: 9bc0 82db 9b1b e73f 9cc9 57db 5807 f3bf
00000290: 6081 ab7e 65f1 f43f 316b dd08 b410 f6bf
000002a0: a03f ad96 880a 06c0 0c53 d18e b093 f5bf
000002b0: bb7a b246 241f f5bf d0bf 3efb 3058 e43f
000002c0: b167 aa1a ac59 de3f 40f9 fc10 9b6c b4bf
000002d0: a278 9e85 7e40 d4bf f097 4c69 5803 0040
000002e0: 3f16 77c4 67e8 f33f fe24 cb28 ba19 e4bf
000002f0: 9aa5 91fc 9612 d1bf 7982 e612 711f ee3f
00000300: cc56 8f64 76d3 f73f 050d 59f4 14e1 98bf
00000310: b3f8 a8d4 f965 c03f fadb 6856 c688 bc3f
00000320: 9402 d8f9 6f23 02c0 1821 5cef 75d1 0dc0
00000330: 56c8 c8b8 049b e33f 2b87 ae2c 92e2 cc3f
00000340: 15e6 db3f a208 f53f 9882 2675 6635 edbf
00000350: a2bf ce86 d17d b3bf feda 6d6e 6240 f03f
00000360: c38f 06ed 2421 b2bf b464 6b24 cff6 c1bf
00000370: 0b6b f6c3 80d3 f9bf 941d 4ecb 012b fcbf
00000380: 8cba bbcb 1d13 eb3f 8c36 b091 5f93 0040
00000390: 2f73 1806 e1e5 f1bf 93b6 86c8 336b e93f
000003a0: 0c71 dd5f 0f04 f43f 389a 4d63 f7d5 f43f
000003b0: 94bf a76d 1a9f e1bf b3f0 ba89 bd02 d4bf
000003c0: a648 943b 2e3a e63f e99f f000 3a99 e63f
000003d0: 9ac9 c0d5 f504 ddbf 6682 2a43 3ec9 f53f
000003e0: b95b b66b 3b3a 0040 78ef ffcb 0775 e03f
000003f0: f9a0 a0fa 0b85 f9bf 965a 6e5b 9455 e13f
00000400: 5668 f04d d126 e03f 30a3 e2e5 502d e13f
00000410: ca31 52b9 b844 04c0 4a43 f308 ac17 f33f
00000420: ea41 58c1 92ea f83f b573 7bc4 c5c5 d2bf
00000430: 9449 66bb 0ddc bf3f cc50 240d 312e f9bf
00000440: f2fc 0eb6 79fd e83f 90e0 b12e 996f d83f
00000450: 7dce 6e6c cdc2 f53f 3fb8 81ee 0af5 f43f
00000460: be9d 935c 5406 f6bf 0732 7920 3261 df3f
00000470: 368a e378 399c dfbf 1701 54cf 7c40 edbf
00000480: b408 d13a 6be8 b2bf 7993 1538 4c1c f1bf
00000490: d15f 82c8 bea6 ee3f 055a da7e d49b ebbf
000004a0: 29ed e669 e459 03c0 f768 cc29 2354 fcbf
000004b0: fa01 0097 f351 e13f 2758 4d61 0a5b ce3f
000004c0: 3341 1133 6869 b1bf a791 eff5 e37d ad3f
000004d0: 260c 274d 448b f53f 6ccb dcbf f920 f13f
000004e0: 2f95 ea34 c9dc d43f b472 d142 fd5e e1bf
000004f0: 1951 4006 9a36 c8bf 7a46 d9c0 d95e ccbf
00000500: 560c 28ad b1f7 f8bf 1f57 61a4 3e31 f43f
00000510: d78f 8428 ba05 913f 7439 f845 6d56 d03f
00000520: 66c2 e2ac 5e43 d13f aa92 c03c 9fb7 f43f
00000530: 45e3 4785 cb64 e93f 0037 8ec5 f064 e5bf
00000540: 724d a5ad feb1 f0bf 282e e709 60d9 da3f
00000550: a237 cbdf f9bc c83f a839 a342 72c6 f2bf
00000560: 4be7 92c9 5b70 febf 2568 4736 2ff4 f4bf
00000570: b1a4 9416 0449 f7bf b4af 5094 89d3 e53f
00000580: f0bc 00e0 eddf fdbf 562b 4854 4261 e6bf
00000590: 8233 728f 12a1 d73f 54e6 b306 5423 d53f
000005a0: 8cb5 8ff0 9198 eebf a4a8 f1d8 7570 ecbf
000005b0: 0979 0f13 e06f 08c0 c944 6506 098e e93f
000005c0: 037c f5b6 224c f9bf c439 7c12 2c52 efbf
000005d0: 5285 b162 8242 fabf a21b cc0a 4bac e63f
000005e0: 61df 29bb 6a00 f5bf 3bc5 fdfe 1653 f0bf
000005f0: 963d 163e 515a f73f 1cfe f416 09ec f23f
00000600: 2358 ba89 18b7 f2bf c501 d3cb 9028 ed3f
00000610: c346 5ad4 ca05 d1bf ef5f c4b5 ab3c eebf
00000620: 7116 5a0c 5238 d2bf 9a58 4a97 4a5c d6bf
00000630: 6398 6241 9ce9 f03f 8e7f 7b32 d2e8 f73f
00000640: 5b1c b381 3262 debf 2eb3 d027 a8d2 ccbf
00000650: 6e22 84b7 d381 05c0 aa35 bde6 9d46 f1bf
00000660: c392 08ca 4182 d83f d417 1cc9 253c cdbf
00000670: 28b1 325f 1a49 b9bf f6e1 c319 8cbb eb3f
00000680: f0b8 8704 04f2 e23f 42f0 057c ecf6 ea3f
00000690: 7e91 35c9 6ee4 03c0 45fa 24c7 26f4 ef3f
000006a0: 836a 8205 7121 0240 9d4d f549 0d5c f73f
000006b0: 46ab d1a9 742d dcbf 6900 e8e9 82b2 d7bf
000006c0: bf58 c2e7 28ad dc3f 8b86 30fb d3e0 e73f
000006d0: a16e bca3 4403 00c0 60ce 426b 6cab e8bf
000006e0: 5b8a 0aea 864f f3bf aa0c af67 107d f03f
000006f0: b4a3 55c8 c6fb d4bf 790d 3627 c5ea ebbf
00000700: 3de2 d67e 3157 ec3f a34e be07 1252 ca3f
00000710: ac4b 8c96 64bd 0340 9b14 6847 f3c7 e83f
00000720: 929e e299 3a51 cbbf 7040 de41 a2a8 df3f
00000730: eb37 5a11 2659 fdbf 22e4 fe50 e5e8 f4bf
00000740: d4b5 c2df a5eb 0140 6c25 cbd0 1194 0140
00000750: d9eb d4cd 6d0e e0bf 5ff7 3f7f add7 d5bf
00000760: a6e7 a6b8 262b d3bf 443f 0842 84eb be3f
00000770: 6ece ee84 f7d4 fdbf 4197 9756 3d22 f23f
00000780: ed9a 8485 9dfa fbbf f1e8 466f 796d 01c0
00000790: cda8 0bec abff e73f 3ea8 4ba2 9fa7 c43f
000007a0: 40dc f1fc b1c4 f43f 1593 8add 31aa e53f
000007b0: bb4a c4d5 2c71 fbbf ccbf cb6a 8e91 e43f
000007c0: 587c be19 d009 f0bf e265 5f18 0b19 e83f
000007d0: fd0a 2cbc 3165 f2bf a320 3e25 dd1e f63f
000007e0: fe5a 7111 7de1 f63f 08ae ecb6 82e7 f43f
000007f0: 6723 73b4 959c 0740 f79d f81f ce1c ebbf

module.layer_1.bias f8 [512]
-1.0626326990467159 1.5384075002869526 -1.969463969469037 -0.981380887486809 0.28215744448771934 -1.1360293227525484 -1.1549038019325297 -1.013465813369455
0.561237059393181 -0.0544261780863827 -0.8796158102219309 0.6598564350546502 -0.9679555735403131 0.4058717662365001 0.3112859490565521 0.5789768523537471
0.7796921327229447 0.3741808336022815 -0.32013917092867494 0.45104839261867063 -1.3498981493933133 1.0288136953265505 -0.43848010592783704 -0.9628436478809088
-1.4859650906284096 0.12642109865148235 -1.9392561416401293 -0.12686838577915097 0.331627656645903 1.9026305018506144 -0.30654038139328654 -0.7847067560290143
-0.7187503310074316 0.17599572790327472 -0.7613410387330538 1.953094804749624 -0.2329202548252438 -0.7223596228826563 -0.3182943066906002 1.5164209134939526
-0.22188588828632927 1.4246911845642751 0.53706544070491 -0.6595924349290012 -1.9377856690737292 -1.0789714724518054 -0.8968135912195465 0.038667469214700205
1.9237432575354438 -0.1236606354621307 -0.16081119556627188 -1.063466141408167 -0.7805073651007388 1.6249365248120786 0.20036610884080355 1.436248994172358
-0.3977045104185601 0.6480464831461327 1.393409055488403 -0.9464347036778259 -1.993090984457174 -0.29552358650246874 0.17377909320976517 0.6122676627367583
0.01659821931915106 -0.5146027682714502 1.7875487073419467 1.0884926015520189 0.8756402071327626 2.2174756075303037 1.6863599230262434 -3.148827713067444
0.14388363643022778 -0.5170522297779073 -0.13532804643188873 1.1729883512891712 0.8691862635579939 -2.2609056096180247 -0.28387220772137084 -0.8577576099350306
1.1938420950229411 -0.17771424581775716 -0.217328956240598 -1.1527091413492137 0.998223995646496 0.12985104318928611 -2.1534560336279376 1.0486927906731578
1.2625403644460593 0.65737376589438 -0.11515163703396397 -1.3861775013039508 -1.8326373858287979 -0.5324817673185933 0.3052876169696393 -0.12960808503306956
-0.42055300669284457 -1.3172631060617304 0.35467976630786807 0.2730131466413328 1.1045551822259931 1.3577666129395236 2.4690425102661164 -0.14395618283385372
-0.5860929496953671 1.065306726892277 0.014291425394644178 -0.25744702660593816 0.8528347916616033 2.0659344052854025 -0.6610374108652156 -1.682175513914943
-1.4584133014489338 1.6444123180502546 0.6539507732420401 0.8682133370354577 -0.8147980098643256 0.4503534510579251 0.6927467765158617 -0.9541340023352876
0.7245867813975526 -0.08165139884721276 -0.6516300493564573 -1.2086200603260073 -1.6183944837696795 -0.9350831714271663 0.13282757771789142 0.08309247777548345
1.047807071720184 1.1798969568864959 0.698721913515636 1.3455300356977702 2.2232107660474534 0.704774541874647 -0.9790946427141891 -2.230523785029319
1.1808673595674122 1.0097864651639643 1.4870360634870237 -1.410380706730868 -0.4215976355939374 -0.7121070226057872 0.047536367130932664 0.8739993773217933
0.23292340943420478 -0.03058154408010494 0.7568024396190586 1.720581457774396 -1.58778147763412 -1.220772140285122 0.027992069932409724 0.9041469731045356
-1.2991011586990366 0.6876486341016048 2.108000175656545 0.14896738241888713 0.288305819612292 0.033901815164587026 0.8237191255703935 -0.5842550189779436
-0.5451001276831862 0.8346858550898179 -0.8553103228205412 1.0995301193858618 -0.7697778417803234 0.934221809907335 -0.3298634317215535 0.8633087698405582
0.6282075356106083 1.0524461852657534 1.2949785730346344 2.4120324190338884 -1.5486897044500314 1.8169505918282136 -0.20955506408997251 0.21109079287642563
-0.2518648951507646 -0.37149248214934844 1.0185929401125815 1.8298054460519477 -0.8251434093148828 1.8251827144365897 1.1446279899607992 0.31174586012551275
-0.9691702833925268 -0.34406771134182274 -0.8064173238778012 1.0689782759725754 1.2668353165162904 0.6567402111303072 0.7374560818124918 -0.3012786270311459
-0.2588521781330995 -2.6634071779875765 0.7823638301972731 1.1714065325569853 2.3842980201641932 -0.7112573632065144 -0.7879561174984058 0.6532155124276104
0.06753964229633225 0.2729524478812795 1.1294419634495114 0.5866913258940233 -0.5124725947214953 0.09225059917473094 1.4801660184586576 -0.3983820537313721
-1.7491847428506477 0.21326744189593427 -0.443087683346928 -1.9268188502396724 0.1429746633891167 -0.5476443571859421 -0.22572385679296728 0.30784821937397705
1.3826054066494429 0.5627585758741994 0.5024151000357773 0.312183291457861 -0.9084516341242106 -1.333174413344667 -0.8428128789979371 0.8150040742674958
-1.7418465776957786 -0.6683695258461702 2.025479403584454 1.8382703604441268 -1.3849423571055823 -1.1936779171274703 0.10497333297979734 1.041855150789979
1.5619177649905513 -0.47359711839595503 -1.3497683209831028 -0.1859004581585121 -0.037685579917246345 0.05138774705276762 1.8164959644388368 -0.5192490376435699
-0.6416595430688126 1.1285604481053992 -1.8955710704526902 0.21351751155508064 -0.9304995049530256 -0.33045255314763405 -0.37831794453054157 0.4862343746375794
1.6224053724468637 -0.35265301514030206 -0.44482932254540913 0.15957970789026227 1.725021996565352 0.7608128833464338 0.4985947772277327 0.09088535463407825
00000000: be0d 2125 8b00 f1bf 0875 da2e 519d f83f
00000010: 5551 b8a6 ec82 ffbf 0f9c 15e4 7867 efbf
00000020: c173 1919 de0e d23f be4e 4815 2d2d f2bf
00000030: 6e38 b568 7c7a f2bf d692 c0ed 2737 f0bf
00000040: 96b3 ec6b a7f5 e13f 2cc5 da7d bfdd abbf
00000050: da53 3e0e d025 ecbf 05ad 133e 8b1d e53f
00000060: 2ac5 8af7 7df9 eebf ecc0 9692 cdf9 d93f
00000070: ddbd b9e6 1bec d33f fc02 c076 fa86 e23f
00000080: 12cb 5fea 3cf3 e83f 0228 c72a 94f2 d73f
00000090: 60a9 5301 297d d4bf c979 cd13 fadd dc3f
000000a0: 0834 49cd 2e99 f5bf ccab 7159 0576 f03f
000000b0: fa06 badc 0e10 dcbf 3cea 597b 9dcf eebf
000000c0: 77f2 b354 83c6 f7bf c5c2 1d0a 912e c03f
000000d0: 8095 ae72 3107 ffbf 85ac e827 393d c0bf
000000e0: be91 ef34 6339 d53f 9720 5dae 2c71 fe3f
000000f0: bc33 3f8c 5b9e d3bf 2709 c357 511c e9bf
00000100: a350 b5b1 0000 e7bf 9a46 ca2b 0787 c63f
00000110: 9fc1 cee1 e75c e8bf ba31 8656 e03f ff3f
00000120: c873 86b6 54d0 cdbf be6b 87ed 911d e7bf
00000130: c64d 6f15 ef5e d4bf e0d4 6693 4243 f83f
00000140: e01c d1bc c166 ccbf 24a6 c9fb 88cb f63f
00000150: 1876 f4dc a32f e13f b0b0 1698 611b e5bf
00000160: 2e44 b58b 2b01 ffbf a2f5 3797 7743 f1bf
00000170: 34ae 9c6a b2b2 ecbf 7f77 64f7 38cc a33f
00000180: 693e 9002 a7c7 fe3f 29c8 1c31 39a8 bfbf
00000190: 90d6 e414 7695 c4bf b005 9c12 f503 f1bf
000001a0: 3ea2 ec94 eaf9 e8bf e24c 0271 bdff f93f
000001b0: f958 59be 98a5 c93f 7921 ae39 e0fa f63f
000001c0: c30a 6e9e fd73 d9bf 87d0 6cfa cbbc e43f
000001d0: f75d 344b 674b f63f 1510 836e 3149 eebf
000001e0: d822 435f b3e3 ffbf fb61 cec2 dbe9 d2bf
000001f0: c940 08b1 643e c63f 9a49 7b5a b297 e33f
00000200: 9f21 97a4 1fff 903f b205 8539 a077 e0bf
00000210: dba6 60ac cc99 fc3f 7ea9 d937 776a f13f
00000220: 0b55 969c 3e05 ec3f c029 f0d9 63bd 0140
00000230: b8ec ea8a 54fb fa3f b8e7 8295 cc30 09c0
00000240: 6edd 726c c76a c23f 270a 271e b18b e0bf
00000250: 3a09 d4ee 6d52 c1bf e403 f66e 8fc4 f23f
00000260: 0ea6 03b6 5fd0 eb3f 0838 25ae 5516 02c0
00000270: d705 1a56 f62a d2bf 561d 5216 c072 ebbf
00000280: f262 2b2b fa19 f33f 7f08 e924 57bf c6bf
00000290: c07a c36b 6fd1 cbbf 6352 fe23 7f71 f2bf
000002a0: ee4a ec72 73f1 ef3f 59bb ec7f f59e c03f
000002b0: 6b72 2e28 473a 01c0 ffdf 7717 72c7 f03f
000002c0: dbcf 7286 5d33 f43f 9b78 38b5 3409 e53f
000002d0: ec48 24e3 937a bdbf ced2 a875 c82d f6bf
000002e0: 66fc 5894 7b52 fdbf 4030 0b34 170a e1bf
000002f0: 3989 b012 d589 d33f fdd1 416b ff96 c0bf
00000300: 32bc 7e28 57ea dabf 3f33 8c7a 8213 f5bf
00000310: 0518 36c3 12b3 d63f 04f7 0c22 0c79 d13f
00000320: 7d9b 040e 42ac f13f abd0 e27b 69b9 f53f
00000330: b636 105c 99c0 0340 f508 aafc 276d c2bf
00000340: e472 6b00 46c1 e2bf cd60 0311 7f0b f13f
00000350: 623c 77a5 d244 8d3f 8565 ee17 037a d0bf
00000360: 5e7b 6230 6c4a eb3f 5d0e 139e 0887 0040
00000370: dd27 a3ed 3727 e5bf c658 26df 30ea fabf
00000380: 9964 9c2f a955 f7bf 74a5 724a 834f fa3f
00000390: 5797 082c 2aed e43f 0c96 1056 67c8 eb3f
000003a0: 3dd2 a646 d312 eabf 42cf fb47 97d2 dc3f
000003b0: 0671 b149 fb2a e63f 4203 0108 4488 eebf
000003c0: aaec 269e d02f e73f b2af b827 1be7 b4bf
000003d0: 8e75 e242 27da e4bf 693c 06fd 8156 f3bf
000003e0: cb14 3d9d f1e4 f9bf 803a 0a8b 33ec edbf
000003f0: 2b12 277b 7e00 c13f e8dc 9672 8c45 b53f
00000400: 37e4 1859 d1c3 f03f 85a3 a7a1 dbe0 f23f
00000410: d48a f10e ee5b e63f e0b8 b180 4a87 f53f
00000420: b54f e2b9 22c9 0140 b1f5 0c57 838d e63f
00000430: 0eae c449 be54 efbf 5f35 adda 1cd8 01c0
00000440: 3318 242c d5e4 f23f a829 3dda 1528 f03f
00000450: b963 ca53 e6ca f73f 5a18 255c eb90 f6bf
00000460: cb99 3ca6 74fb dabf 5100 abaa 94c9 e6bf
00000470: ee60 65cc af56 a83f 7449 ca8a cdf7 eb3f
00000480: b111 ff2c 6fd0 cd3f c0ad bdae c450 9fbf
00000490: c54c f6bf b937 e83f abeb 336c 8087 fb3f
000004a0: 2e21 fa8c 8d67 f9bf c647 265e 4888 f3bf
000004b0: 53d0 a003 f4a9 9c3f 295d 08a2 c5ee ec3f
000004c0: d9ed ec4b 1ec9 f4bf f45f 53b5 3701 e63f
000004d0: c641 3332 2fdd 0040 d275 d4f9 5c11 c33f
000004e0: 1fcd 9e40 9a73 d23f 325a d026 945b a13f
000004f0: 0e44 2d36 e85b ea3f 9217 e194 37b2 e2bf
00000500: 0e3b aed2 7571 e1bf 0f6d 411c bfb5 ea3f
00000510: f040 0ec1 b35e ebbf 04ab fbe4 ac97 f13f
00000520: f238 f423 05a2 e8bf c161 1823 25e5 ed3f
00000530: 56fc d882 7b1c d5bf 0616 9ab6 39a0 eb3f
00000540: d28b 91b0 461a e43f 0b43 a8cf d1d6 f03f
00000550: a445 c373 3bb8 f43f 7823 25a7 d74b 0340
00000560: 953c 04db 6ec7 f8bf b199 a5c8 3a12 fd3f
00000570: 8522 7d49 b3d2 cabf e80a f2e9 0505 cb3f
00000580: 52b6 ebef 8d1e d0bf e9a4 6267 88c6 d7bf
00000590: 3885 5b1c 284c f03f 785f 4d13 e246 fd3f
000005a0: 3e8e b026 9367 eabf b0ac 3bca f233 fd3f
000005b0: 4f7c 6f70 6550 f23f 08c2 79e8 a4f3 d33f
000005c0: 6ba1 ed65 7103 efbf 11a7 f493 3405 d6bf
000005d0: b474 1fb4 2bce e9bf 9efc f6f6 881a f13f
000005e0: 36af dd1b f544 f43f d1ba 180c 0404 e53f
000005f0: d8de 337f 3d99 e73f 8d48 8526 2648 d3bf
00000600: 311f e5b9 0891 d0bf 391b 2b6c a84e 05c0
00000610: a2a8 08df 1f09 e93f bc72 bac6 14be f23f
00000620: 9c2e 24d7 0a13 0340 885b 40cd 9ec2 e6bf
00000630: 56d7 6abf ef36 e9bf 1cba e337 24e7 e43f
00000640: 28a6 d82a 474a b13f ecd8 408b 0d78 d13f
00000650: 4dee 7bbc 3112 f23f 83f9 31e3 2cc6 e23f
00000660: 4b9a 4ded 2c66 e0bf 74eb 7d3a bc9d b73f
00000670: 31e3 1e90 c2ae f73f 51bb 0571 177f d9bf
00000680: 8e4a 1324 a9fc fbbf a44f 1ff8 584c cb3f
00000690: c511 4f71 8c5b dcbf 0c88 b100 40d4 febf
000006a0: c1d8 b467 fe4c c23f 677b 7e75 4d86 e1bf
000006b0: f527 6df3 84e4 ccbf c7f4 9504 c9b3 d33f
000006c0: 7050 cdd8 261f f63f 078b dd45 1e02 e23f
000006d0: 8a72 f5d4 c813 e03f 57d3 caa0 cffa d33f
000006e0: b2f5 5129 0912 edbf 8ade 92b1 ae54 f5bf
000006f0: 2933 feb6 52f8 eabf a4bd a26c 8314 ea3f
00000700: 72a5 5d84 9ade fbbf dedf e47c 4863 e5bf
00000710: 3def a88b 2e34 0040 bd04 752e 8e69 fd3f
00000720: 6dd1 2951 b928 f6bf 7151 0004 4e19 f3bf
00000730: 65b0 1948 88df ba3f 65fe 7c4e 70ab f03f
00000740: 35d0 7a7b 9dfd f83f cf63 bf49 6a4f debf
00000750: c2c9 bcaa a698 f5bf bd15 0d12 96cb c7bf
00000760: f6fc 8c3a 864b a3bf b275 03aa 7e4f aa3f
00000770: e34a 8912 5e10 fd3f 4c13 6528 b09d e0bf
00000780: 06b3 1498 7988 e4bf acbf 8266 950e f23f
00000790: 8468 ad54 4254 febf c64d a0b4 8a54 cb3f
000007a0: 3af5 d6e5 a6c6 edbf c785 2977 2226 d5bf
000007b0: 5ce9 cf77 5c36 d8bf 439a 50c8 761e df3f
000007c0: 4239 f855 5ff5 f93f c941 b7f3 dd91 d6bf
000007d0: 7b99 2868 1578 dcbf 6e38 3f9d 1b6d c43f
000007e0: 9c0f 42aa b099 fb3f 1026 8b42 9458 e83f
000007f0: b291 8911 fae8 df3f e3b6 d639 4344 b73f

module.layer_2.weight f8 [128, 512]
0.04177284169901462 0.14836402603807347 -0.09164120810495668 0.06091830501896841 0.16095808695193198 0.3879627749824191 0.18570065872054053 0.10176302242814136
-0.05635376873621327 -0.264086728017583 0.05091646319321142 0.15162325833550452 -0.10353273590239982 0.054773980353414325 0.2662850100360002 0.3509801384349123
0.15666699012628946 -0.017103643567575974 -0.29437546578573287 0.09345064068442029 0.054943936369690916 0.24301896337385884 -0.16848624727817482 -0.032849409576593325
-0.07318800631532614 0.11871033953567714 -0.018906478079319788 0.24189464755259865 -0.09843993250080145 0.07648720928546787 -0.17809870309791595 0.14383283845296452
0.02502134023270436 0.1290414577881209 -0.2773530594912807 0.16938488401460405 0.07112252023378668 0.05920193018358317 -0.20050842856350556 0.15343921664859686
-0.04154140583528382 -0.15956243969527123 0.10164765984148483 0.1831846639746053 -0.010957395600741042 0.41539499851808875 0.14234237130385688 -0.08469310129858251
0.047120988895709696 -0.17522387259053218 0.268234462131072 -0.12882248977405225 0.011876022780988411 0.03146304467088169 0.22871538147439321 0.0796351156558405
-0.3367675829410722 0.29255081610121936 0.03130733934632472 0.03148139081355036 -0.029640514083446742 0.055092237926072214 -0.12024216755024246 -0.33604184956745076
0.6055722509772565 -0.2670890428946021 0.06599310059095856 -0.04943125216305181 0.184735410817648 0.08918480467622612 0.23503712712468836 0.00816474453890951
-0.05488614986146369 -0.14153014699537664 -0.019402161170400573 0.21482743602949184 -0.057451596259953046 -0.04958219583062868 0.09058126335355217 -0.00986630042571331
0.19115138301903586 -0.2599652918470079 0.016893176290053498 -0.007604158626419901 -0.35007409618519275 0.027855440099638466 0.028732947569108543 0.19414902761084585
0.012022936028737446 0.09985414949773985 -0.17636819662928474 -0.1392459569295462 0.018515302055909715 0.1649880694751073 -0.04370929064919112 -0.1908733936807467
-0.21196660678954343 0.2724150659398082 0.23054841463191253 0.08669255381102998 0.23743689606170046 -0.14272576782326385 0.00026031406203992635 0.07847009556635995
0.07073705511720031 0.10428456389578863 0.36357746945497876 -0.07060380474332288 0.06496227535611565 0.02455997869176373 0.0659683365190055 -0.14075508706869763
-0.12141939034131646 0.2480418827027736 0.11938311234580257 -0.0208930072153431 0.6873184880650378 0.018999972559903308 0.2299992243652456 0.6880330970206543
-0.02262611512079287 0.0320217725575133 -0.12239348054980641 0.19371735149725047 -0.10995593491308009 0.12195645463280678 0.09564527253735615 -0.12138275373274215
0.09272953718907764 -0.278506503602004 -0.2207804119534597 -0.0530837059857053 0.14573749982948753 0.10871981647421053 0.022030488236315655 -0.29021904090104594
0.051827536141174566 0.22360156892801258 0.17369426703924623 -0.013791175127776101 -0.013671410801034775 0.3694075429885178 -0.08786400742975592 -0.3094476419502902
0.3538262054378969 -0.19879620293792105 0.2845746543761258 0.07463842599701435 -0.08371258232045103 -0.02299623541259874 0.23608557323714466 0.34490407059159095
-0.13493615124949762 0.08926008297276342 0.10444124546521677 0.21696489682409748 -0.23768748181233393 0.2569929103165743 0.10154026467571829 -0.2821258140421048
0.02375716994268612 -0.2937452620051304 -0.34988059292610413 0.02950904370249923 0.10860703607962487 0.3205202940363876 -0.10134119398809613 -0.046724429345456724
0.21713053464658386 -0.069150859346784 0.2073531214060027 0.10756423840239861 -0.10974769040208535 0.022560359674090483 -0.1936271467991157 0.13335882559083695
0.0213875805353181 -0.1567884914842624 -0.040296487485670565 0.3408152099766304 0.08685821168190959 0.15478344737230776 0.2913438765621689 -0.2068769226083767
-0.14555047936350324 -0.18873300148942823 0.034834803128516854 0.015754573410431766 -0.003536627024209174 0.038863000580731534 0.13311313915132209 -0.20605353497065046
-0.208304553825761 -0.010135709295481377 -0.20392330960677998 -0.05862161106603213 0.07631121412692138 -0.04421209807412969 0.08070486888586613 -0.039322784077393286
0.22681520308193512 -0.1360228925581686 0.010372190572303154 0.17927408440124531 -0.266984339485476 -0.15966779587406363 0.06184745849263261 -0.1421270085692117
0.10354335934367477 -0.07568140187580309 -0.10707251830658059 -0.047282699053147685 0.18560748119057502 0.16497951348354137 -0.07005899907503353 0.13412788588137858
-0.40757376443118254 0.26933495955558584 0.07094034441627711 0.16317422635961337 0.05523409116301411 -0.0021395942697111908 -0.2177768744772803 -0.01074615068316868
0.019924634687954884 0.2088902648663033 0.06524609911119557 -0.4222676406388591 0.1214166280983151 0.06559534208041919 -0.20562580880295311 -0.03232336202603876
0.133669824654414 -0.14870946051913353 0.7194252317976377 -0.24522231508868597 0.07776641386883103 0.24838647545422782 0.1544988177205507 -0.10065109581914643
-0.33386296148297073 -0.37236215341628204 -0.11186371152260167 0.13192716378527947 -0.12322338281043041 0.05880297282230287 -0.18274858865571456 0.3301984840978197
0.1989796321237545 -0.06259945396422839 -0.07385813154405396 -0.04222075001739087 0.0038832260970029036 0.1563202239320334 0.4016616657165415 -0.09447558066258385
00000000: 1fa0 eaf9 3f63 a53f f242 dea7 97fd c23f
00000010: 10d7 c657 cc75 b7bf 8b85 911f af30 af3f
00000020: 661d be4b 469a c43f 795a a7d1 61d4 d83f
00000030: d072 0608 0ac5 c73f 0e5f 4535 240d ba3f
00000040: a6ee 74b3 66da acbf a129 0905 cce6 d0bf
00000050: 5154 7c00 b911 aa3f f595 ee13 6468 c33f
00000060: 7d26 c412 1f81 babf 744e 94cc 550b ac3f
00000070: fd41 6148 d00a d13f 71e7 0766 7576 d63f
00000080: f342 7af7 a90d c43f 3c8b 0f17 9e83 91bf
00000090: ebd8 9231 0cd7 d2bf 15a3 8795 61ec b73f
000000a0: 0885 a493 9c21 ac3f 57d0 ffd1 3e1b cf3f
000000b0: 0b59 f114 f590 c5bf d014 a647 a3d1 a0bf
000000c0: c571 95fd 72bc b2bf cab6 0002 cd63 be3f
000000d0: 4304 2244 385c 93bf 066e 2860 67f6 ce3f
000000e0: a31d b602 5c33 b9bf 2482 716e aa94 b33f
000000f0: f7fd a134 f0cb c6bf de87 9f4c 1d69 c23f
00000100: 7097 01b8 319f 993f 379a 8334 6e84 c03f
00000110: 5b7a fd0b 27c0 d1bf ecc5 a364 67ae c53f
00000120: 44c8 69e2 1535 b23f e943 ff23 b74f ae3f
00000130: 7b55 a09b 42aa c9bf 8dfc b670 e5a3 c33f
00000140: d81c fc46 ea44 a5bf f6a0 14c2 8a6c c4bf
00000150: a0ee bbbe 9405 ba3f b028 7356 9872 c73f
00000160: 3c40 09be d470 86bf 81a8 63e7 d495 da3f
00000170: 55e6 ca5a 4638 c23f be33 4674 72ae b5bf
00000180: ef45 8604 3e20 a83f 809d 2061 bc6d c6bf
00000190: b5d6 a0e0 c02a d13f 0ad0 485e 417d c0bf
000001a0: 776f 9bcb 7452 883f 82bd c997 ec1b a03f
000001b0: d128 c3ad 8b46 cd3f 1ae2 5a89 f762 b43f
000001c0: 8d6e c59e 998d d5bf 88a9 e40e 27b9 d23f
000001d0: b606 3cfd 8307 a03f 4b1e f42f 541e a03f
000001e0: 2c08 803a 155a 9ebf 31d6 4fc0 0c35 ac3f
000001f0: 4b7b 3ad1 30c8 bebf feb0 7eac b581 d5bf
00000200: 5aff a90e d960 e33f 628b 16a4 fc17 d1bf
00000210: 0ac0 cc80 ece4 b03f 259b e196 0d4f a9bf
00000220: 78fd eff1 68a5 c73f 2771 62bb d0d4 b63f
00000230: 9354 2c53 b215 ce3f 15d0 3276 adb8 803f
00000240: 2212 5195 091a acbf ae21 5fec a81d c2bf
00000250: 955b cbfe 28de 93bf 94dd 0326 777f cb3f
00000260: 9738 14ae 4b6a adbf c9e2 1c6b d662 a9bf
00000270: e5de bb6b 5530 b73f ea9f 496d c834 84bf
00000280: 6772 5305 a677 c83f dcfd a476 45a3 d0bf
00000290: 42ef c3de 714c 913f cf3a d3c9 8925 7fbf
000002a0: c5b2 922e 9d67 d6bf 3e7b f9f0 2286 9c3f
000002b0: 4f0d 8278 2b6c 9d3f acc3 1116 e0d9 c83f
000002c0: a3d4 5c28 7b9f 883f b072 76a2 0a90 b93f
000002d0: 29e4 49aa 3b93 c6bf 836a 8ebf cfd2 c1bf
000002e0: cb07 39e3 acf5 923f f618 503d 541e c53f
000002f0: bb40 bd6b 1061 a6bf 0786 c413 8a6e c8bf
00000300: c2a9 00c6 b821 cbbf d58b c999 3f6f d13f
00000310: 1f8e 7e46 9c82 cd3f f5d2 6cb3 7b31 b63f
00000320: cb70 b90b 5564 ce3f d877 8c84 d644 c2bf
00000330: 0025 1662 580f 313f 1ee8 2bbe 9d16 b43f
00000340: 59fe 57da d21b b23f 06f8 68a7 64b2 ba3f
00000350: d9c7 376f da44 d73f 8382 5848 1713 b2bf
00000360: e0d5 2020 5ea1 b03f 9d19 1645 4026 993f
00000370: caaf eb07 4de3 b03f 0354 da3f 4304 c2bf
00000380: 1ac0 9d56 5715 bfbf 3c93 1f1f d6bf cf3f
00000390: 684c 3843 e48f be3f 11e9 d1fa f964 95bf
000003a0: ba9d 8557 83fe e53f 8c27 1493 ba74 933f
000003b0: 3a86 6055 9d70 cd3f 269e 48fc 5d04 e63f
000003c0: 2ed7 eae1 4c2b 97bf f6f7 c963 2865 a03f
000003d0: e37c 34dc 2d55 bfbf 4599 acec bacb c83f
000003e0: a0e9 7378 1226 bcbf 771b 2fc8 8938 bf3f
000003f0: aba0 9065 357c b83f e49e 94ad f012 bfbf
00000400: 8aad 9979 1fbd b73f 1469 2cf1 0cd3 d1bf
00000410: 8e00 7854 8842 ccbf 6b73 519a c92d abbf
00000420: 1ec3 c8c1 86a7 c23f 3411 2fd8 0fd5 bb3f
00000430: 52a5 f509 298f 963f b52c 56e2 f292 d2bf
00000440: 9667 8489 2389 aa3f 3ea7 f0e8 f99e cc3f
00000450: 26d7 371e 9d3b c63f da7a 2d31 8c3e 8cbf
00000460: 98b8 3eb2 c1ff 8bbf 6d02 0289 5fa4 d73f
00000470: 7403 686e 417e b6bf 560d 807b fdcd d3bf
00000480: f4b4 34ab 16a5 d63f 16fb 176b 2772 c9bf
00000490: bf38 749c 7836 d23f a39d aefe 801b b33f
000004a0: d47d 5413 306e b5bf f9e7 1c3c 538c 97bf
000004b0: 9533 0e54 0d38 ce3f a1ae dc85 e812 d63f
000004c0: f314 557a 9645 c1bf cecd 34b1 bfd9 b63f
000004d0: cc69 a055 a9bc ba3f 5ca8 1e78 81c5 cb3f
000004e0: 95ba 861c 8b6c cebf 5d44 4764 9272 d03f
000004f0: a767 02f4 8afe b93f 14c4 2a6e 590e d2bf
00000500: b122 ccaf cc53 983f e8af 6aed b8cc d2bf
00000510: 6bda 0792 7164 d6bf ceca 8d66 9e37 9e3f
00000520: c9d5 13b4 abcd bb3f 34cc 258d 6783 d43f
00000530: 6e9d ea19 7ff1 b9bf 3f0e edaf 43ec a7bf
00000540: bd91 a2f0 eeca cb3f e07d 62e7 deb3 b1bf
00000550: 38c6 940d 8c8a ca3f 994e 2876 5489 bb3f
00000560: 42a7 16b5 6c18 bcbf 91e2 f11b 101a 973f
00000570: ee5b 8f3b c6c8 c8bf a2d6 45e9 e611 c13f
00000580: c44f c23b a0e6 953f d333 a831 a511 c4bf
00000590: ba0c cabf bda1 a4bf 580e 3599 eacf d53f
000005a0: bb16 90fa 563c b63f b08d 36aa f1cf c33f
000005b0: 2f5c 6ec9 60a5 d23f 8236 7368 f17a cabf
000005c0: 7245 64ea 65a1 c2bf 8258 892a 6728 c8bf
000005d0: 232f 6608 ded5 a13f 68ae 3d86 f721 903f
000005e0: b931 072d d8f8 6cbf 3d8f 09e9 d9e5 a33f
000005f0: 5952 a9f1 d909 c13f 174a f654 f65f cabf
00000600: d50e 253f b9a9 cabf cd1c 91df 07c2 84bf
00000610: 259c d3b4 281a cabf 0e21 bcdc a603 aebf
00000620: 1441 feb8 2189 b33f c9c1 a1d6 f7a2 a6bf
00000630: b725 7e04 13a9 b43f dc3c 33af 1d22 a4bf
00000640: 337b bcd3 4708 cd3f 49b7 85b9 3269 c1bf
00000650: 210c 5eda 033e 853f 5a08 c304 74f2 c63f
00000660: 0f98 a87b 4516 d1bf eb72 c08c fe6f c4bf
00000670: 0e16 2257 78aa af3f 096f d7c2 3731 c2bf
00000680: f15b 194e d181 ba3f 79d5 f839 db5f b3bf
00000690: 0f58 6dc4 1a69 bbbf 6723 331c 7035 a8bf
000006a0: 50a0 cd66 fcc1 c73f 95fd 7577 0c1e c53f
000006b0: ef58 d1f5 62ef b1bf 48cb ab41 1a2b c13f
000006c0: 6021 3c45 b015 dabf 807c bdb2 c83c d13f
000006d0: 8421 3c7b 2529 b23f bedf e19e e4e2 c43f
000006e0: 4bbf 568e a447 ac3f bca6 48ed 0d87 61bf
000006f0: f73d dad4 1ce0 cbbf d6d0 efed 1302 86bf
00000700: b861 7a99 1f67 943f beda 068c eabc ca3f
00000710: edc8 dfe5 f7b3 b03f a1fd acda 6e06 dbbf
00000720: a073 dffe 2815 bf3f 815d 0139 dbca b03f
00000730: 84d8 024e f251 cabf bae2 980d b08c a0bf
00000740: 5327 adc2 171c c13f aa8a c45e e908 c3bf
00000750: 4c9e 4f10 8805 e73f 8414 c7df 7163 cfbf
00000760: 7338 4bec 7fe8 b33f 5a1c 6cc6 20cb cf3f
00000770: f3b1 b004 9ec6 c33f 3f8c d92c 45c4 b9bf
00000780: 7590 3ac1 025e d5bf 6d3a cc11 c8d4 d7bf
00000790: d947 99a6 19a3 bcbf 38b6 f442 fde2 c03f
000007a0: 26f6 454f 918b bfbf 13d6 5b5a 6c1b ae3f
000007b0: 414e d545 4e64 c7bf eee3 98d2 f821 d53f
000007c0: 5954 4522 2a78 c93f f818 868f 8406 b0bf
000007d0: 287f 86d3 5de8 b2bf 0c17 1349 f59d a5bf
000007e0: 5303 de22 b7cf 6f3f d1e8 be14 4d02 c43f
000007f0: b4cd 9321 d3b4 d93f 7e66 3739 8d2f b8bf

module.layer_2.bias f8 [128]
0.03870932970042624 -0.08329879755795506 0.003268007385510128 0.06761539626812191 -0.09304723358235585 -0.04487382646231321 -0.07623703289389319 -0.08361871056067641
0.040750674026334345 0.1052745970244848 -0.13530310748995641 -0.05854461634957166 0.057755686694909346 -0.03217148280297083 -0.013222521547653396 -0.057775467814618384
-0.08737775454684268 -0.026654864473021324 0.035330658278304526 0.02296594143329105 -0.05861195478991537 0.049431520550146456 -0.07844511444695364 -0.028406245061694813
-0.15482679126368568 0.055648558734943725 0.03782363296447735 -0.03287384070142141 0.0844109252496019 -0.21999903398353807 -0.01683954444495557 -0.12769949168866598
-0.27736000547186185 0.13305562145462088 0.12205598759115592 0.1085922303700222 0.022526713294077415 -0.046048726307606105 -0.06264153181150343 -0.029742658341729514
-0.11420412456703363 0.00857484957289008 0.02278820608540816 -0.01101663953963433 0.06658035705351359 -0.03355425069037816 0.031601094555864635 -0.011840228744439537
-0.08310663239879108 0.019819088605774672 0.06095841890628928 0.033429320650199545 0.060843341255494794 0.10203340427467929 -0.031596230899986456 0.048906950680963235
-0.07218387579053057 -0.19282354260718032 0.13583572030894397 0.09329077908083595 0.13891174314799845 0.11163226573911333 -0.06057809937765193 0.09582534868364206
-0.058218469823882374 0.03086540175228423 -0.020621213780646967 -0.10810652560958564 0.02819034244780011 -0.017895741072816475 -0.03449671966642549 -0.0509905337239248
-0.05262157957319921 0.0740759722039009 -0.04622486970822166 0.0038916261802068217 0.10424204325237016 -0.10381371247202802 0.03151463159740107 0.054935525199570276
-0.1282742512938425 0.0038892057561280696 0.0011288420729946079 0.04861265137052212 0.017990602523439543 -0.14252207315653254 0.044590818133070434 0.03643655341834693
0.06850217208107016 0.13137559611072308 0.08296386579356757 0.014438165740488474 0.06197766072570822 -0.0037408283396299434 0.07723818995371047 0.05259446126860469
0.07039769547021844 -0.04014710828248625 -0.04794908195394273 -0.061034344162190765 -0.15707996481435982 0.07360668038726523 0.09878495538064747 0.033918190348194106
-0.0008270679753080467 -0.09270947016027879 -0.09561439470702822 -0.01335350742476103 -0.053543346636341235 -0.06556507587885221 0.006062045088932912 0.1764686663308679
-0.11766335231989823 -0.02685496479916109 0.15396136739937344 0.11244684523818448 0.09227051089177113 -0.05292463475179883 -0.05334085229797356 0.06789820571669308
-0.022313290147076146 0.004368825813830952 0.09009200558287715 0.026687337943535987 0.06727132811024716 0.032856553798371935 -0.08594421178945268 -0.10672727519138585
00000000: 2911 3a92 b5d1 a33f 0dbb 4eeb 1153 b5bf
00000010: e2d6 001b 82c5 6a3f 647b ad1b 3e4f b13f
00000020: 9530 3889 f1d1 b7bf 423b 34c2 b3f9 a6bf
00000030: 1afa 052b 4584 b3bf 7a19 312b 0968 b5bf
00000040: fd53 77b8 45dd a43f 8eda 51a7 46f3 ba3f
00000050: 6fb7 dbba 9c51 c1bf f213 2859 8ff9 adbf
00000060: 1b7b 0643 2792 ad3f f852 01d5 c778 a0bf
00000070: 184f f1cc 6814 8bbf eebd 8c01 bf94 adbf
00000080: f635 2d76 635e b6bf 7a85 c3ac 694b 9bbf
00000090: d3f3 b32b dc16 a23f 8de7 823d 6284 973f
000000a0: e762 f4d9 6202 aebf 9311 4f98 164f a93f
000000b0: 05a5 14a1 fa14 b4bf f026 2bd6 8616 9dbf
000000c0: c3d5 8242 5dd1 c3bf b717 acc7 f77d ac3f
000000d0: 5359 3285 9e5d a33f d0bc 690d d7d4 a0bf
000000e0: 9f44 5f53 f49b b53f 9931 0ea8 ed28 ccbf
000000f0: b4b7 aeb2 623e 91bf ef62 42fa 7458 c0bf
00000100: ef14 2e2e 44c0 d1bf a328 5973 f707 c13f
00000110: bb28 fcaa 0f3f bf3f 31f8 094e b3cc bb3f
00000120: 43a8 8923 3e11 973f 9af9 06db b293 a7bf
00000130: bf72 8082 4609 b0bf 41cd 7e03 dc74 9ebf
00000140: a66e 1544 7b3c bdbf e994 ded3 b08f 813f
00000150: 913f 7c9f ca55 973f 1fc2 4654 e48f 86bf
00000160: e6d0 1908 690b b13f 69c3 b6d2 052e a1bf
00000170: 793e 45c7 042e a03f ab4f e099 b03f 88bf
00000180: c5c6 3bec 7946 b5bf 6ae3 9785 744b 943f
00000190: 609c 3c1f f135 af3f f017 d7dd a51d a13f
000001a0: c951 bec1 db26 af3f 4d94 7576 dc1e ba3f
000001b0: 65dc c894 612d a0bf a892 71f3 540a a93f
000001c0: 7aa0 d179 a47a b2bf 22c7 b21c 71ae c8bf
000001d0: 9881 2d9c 1063 c13f 41a9 2b8d e7e1 b73f
000001e0: bfed ec28 dcc7 c13f b022 87a2 ee93 bc3f
000001f0: c398 5cb7 1704 afbf a45a b992 0288 b83f
00000200: a45e d5af cfce adbf fa74 6a0c 2e9b 9f3f
00000210: 41b4 2a3b ba1d 95bf 0e34 fa87 deac bbbf
00000220: d05f 81db eddd 9c3f caeb 94da 4253 92bf
00000230: 4aba 92d5 8da9 a1bf 4eeb 7f65 6e1b aabf
00000240: 5c58 a936 37f1 aabf 3500 0996 a4f6 b23f
00000250: 993d 513f c9aa a7bf 6b09 83e5 54e1 6f3f
00000260: 161c a346 9baf ba3f d396 f113 8993 babf
00000270: bdd6 1c90 af22 a03f 66d1 3d58 8220 ac3f
00000280: 94eb 1c69 4a6b c0bf 20a3 f570 41dc 6f3f
00000290: 9e8a 4bf2 b47e 523f e8d1 9de7 c1e3 a83f
000002a0: 42df e4e5 206c 923f b42c 95cd 293e c2bf
000002b0: 32b6 2a93 9bd4 a63f 8d1b 9fda cfa7 a23f
000002c0: 930c cbbc 5b89 b13f 2adf 6460 ead0 c03f
000002d0: 6c46 55b2 1e3d b53f ad64 5bcd c191 8d3f
000002e0: 528b cc33 89bb af3f cffc 1dec 15a5 6ebf
000002f0: e179 dacb e1c5 b33f 02e4 3246 a9ed aa3f
00000300: 9723 c257 9505 b23f 015a 346a 298e a4bf
00000310: bb16 bb35 c88c a8bf 9e05 38c0 e43f afbf
00000320: 4c04 de3f 321b c4bf 2eca 072d e3d7 b23f
00000330: f05a b288 f849 b93f 11eb 919c b95d a13f
00000340: 1efb e7f3 f219 4bbf bb2d 5ece cebb b7bf
00000350: 3d24 4b5a 2f7a b8bf 77f1 686d 1559 8bbf
00000360: 7665 7195 086a abbf 52d0 a870 dfc8 b0bf
00000370: 6825 76d6 83d4 783f c974 5477 8696 c63f
00000380: 11d5 267a 2f1f bebf 6bc5 302e de7f 9bbf
00000390: b2f3 e98e 01b5 c33f b71c d602 51c9 bc3f
000003a0: 9c55 aa4a 0a9f b73f 1acd d20e f018 abbf
000003b0: 4c35 5200 7e4f abbf 84a1 02dd c661 b13f
000003c0: 7999 ca8d 4bd9 96bf ae8f e0bf 0be5 713f
000003d0: a308 9c09 4510 b73f cb38 bdee ec53 9b3f
000003e0: b826 319a b138 b13f 50ea 0b00 93d2 a03f
000003f0: e18b ea9a 7000 b6bf 1bc7 898c 7a52 bbbf
