old_models/old_kml_ml/saved/7_ft-33_pct-all_wl-200_epch.pt (torch, 634920 bytes, 8 tensors)

module.module.layer_1.weight f8 [512, 7]
00000000: 9c8d c888 6774 03c0 229a 6af1 7283 ec3f
00000010: 6876 37f8 8034 d33f b59b 471a 126d e53f
00000020: 783c 486d c3b3 ed3f ae24 a5e8 10a9 0fc0
00000030: aef3 6c7b c7e0 e43f d7be 14a7 419f 8abf
00000040: db09 a235 f11b 02c0 2cea 9175 275f f2bf
00000050: da36 9cbc 94b4 fd3f 0ea7 cd84 ccf1 f5bf
00000060: 766a ae97 aa22 0cc0 e8a6 79f0 cecd 0240
00000070: 643f d7b1 75a2 d8bf aaed 8799 4fc0 d83f
00000080: 11d3 55ac 34f4 d03f 063a b842 75fe f83f
00000090: a930 f9ec 3c0a c03f cc94 53a4 5c55 e8bf
000000a0: 72b9 48b1 65a3 0140 349c d099 3aca f1bf
000000b0: 1730 5a2c 5d17 f73f 9a1f d270 20e7 973f
000000c0: 9226 569e 758e dbbf 5c69 ae97 9001 e7bf
000000d0: c581 ed19 20f9 0640 42df e2c0 1eda ee3f
000000e0: f0a0 4cba ce8f e63f c5bd 6b9b 95bc dbbf
000000f0: 57d9 5a30 2854 01c0 875a 695f 8b34 dfbf
00000100: 617c f2b0 8798 00c0 6df6 3db7 5fdc e0bf
00000110: ec2d d46b 0ee0 0140 73ec af89 9509 08c0
00000120: fe96 b093 6fad dbbf 08bb 4eb6 0632 e03f
00000130: a42b 247f 3f57 c93f 4edc 4619 b7f9 ee3f
00000140: 97ed eb6b ff3b bbbf 50ed 245d 6d2a f0bf
00000150: c848 65fe cb0b d4bf 984c a5af 74b0 0040
00000160: 46f0 438a 4983 e9bf 1153 2cab 762e c6bf
00000170: 3a8b 6b8a 349a c8bf b2ab bd5e 7fa5 0b40
00000180: 201b 0a8f 6faf 0940 0822 0f42 789c f23f
00000190: 2421 e730 adf4 0140 4e3f ef02 8969 fb3f
000001a0: 41e6 9420 5f0e 0840 cc72 0d31 b4ad 0340
000001b0: 4792 8a11 5678 f03f 6ddd 8d4c 43cc efbf
000001c0: 7bfe 036e ae61 2d40 7784 0d1e 0dd6 813f
000001d0: 0797 9c9d 263e c63f 23bb 2200 a7e5 e0bf
000001e0: 1291 8f5a c77a aabf 7cc9 c577 880b c13f
000001f0: a485 4979 8d19 653f 0265 9d1c 4a05 e0bf
00000200: caef 34f9 ed90 ebbf 3b06 8ce4 1af3 fbbf
00000210: 7776 b5a9 a5a3 ed3f 2a18 f670 d8f9 05c0
00000220: 1be4 1f6b 1629 09c0 c172 4600 82a0 ec3f
00000230: 6a23 faba 45ee e43f c184 b997 c19c f3bf
00000240: 9827 b0ef dedc f0bf 7108 7da4 6875 f1bf
00000250: 3cf1 ab75 11a3 e4bf dbca 230a b192 f63f
00000260: 5249 4452 1e6d fcbf 4db0 2e77 a35e e13f
00000270: 7293 5e8e 4cbf 0ec0 1147 8f48 c9cd af3f
00000280: ad3a afff 9d71 b93f 70db 67d8 533a fa3f
00000290: 84ed 9aad a116 ea3f 16b4 8f93 4660 cd3f
000002a0: 6e56 d97c f8cb 06c0 5088 9437 ae74 f8bf
000002b0: 2627 f2db ad1f e7bf 3aa1 5726 d48c e0bf
000002c0: 05de a47c becc c43f e514 05fa 6585 cdbf
000002d0: 03bc 5879 b788 c4bf 814e 2320 6896 07c0
000002e0: b658 cd29 2636 e23f 2969 567a 19aa 11c0
000002f0: a46c a263 b80b e83f c082 770d 84a0 11c0
00000300: b51a 9b30 91ab ee3f 8efe a97b a3ea efbf
00000310: a227 ed36 31c7 dbbf 50be d356 7dfd ed3f
00000320: 6a81 df21 4844 bf3f 1ed2 4045 fa34 e13f
00000330: fd6f f30f cc0a f33f 5705 b4a9 39b2 10c0
00000340: c918 fdfd e68f e63f a1d2 145b ff29 b9bf
00000350: a7f2 10cf 0955 f53f d977 7e26 6ed9 d0bf
00000360: 4943 785b 3c5e ef3f c063 fe09 014e 04c0
00000370: 9d6b a338 09c6 e03f 7c7b 10f5 18e1 0dc0
00000380: b178 ab47 87d1 e93f 479a 7a2a 2628 e3bf
00000390: 6872 8ad9 8724 f1bf 15b2 132d af55 0440
000003a0: 5724 dee2 d744 fd3f 5578 47bf 7899 1540
000003b0: ea8e 085b d12e 09c0 dd97 3065 47bc f93f
000003c0: dbf3 f233 0fc9 e83f 674f 4117 454d ec3f
000003d0: 4e34 b920 565e 0640 4c40 94ba 2fc3 f93f
000003e0: 7aeb 53e9 3b61 1b40 30fa bae9 664b 9c3f
000003f0: f80c 5b2c 0172 bc3f 3b2d 0bfe d4af fb3f
00000400: b7cc 2bfa 9033 1640 96b8 5b02 b466 e43f
00000410: 348f 2bc5 7ff7 f53f 64a8 7d83 ba99 e5bf
00000420: 7c82 96f9 4e80 dbbf 24c8 faec 1e50 1040
00000430: 255a 0a22 284e b4bf 67b1 2d79 e5c3 0540
00000440: 4cec c22c ab35 e8bf d8d3 56a9 a482 dbbf
00000450: 796b ee51 1059 9c3f 769a 9515 425d 0d40
00000460: 7d4d eccd 25ac ec3f 51e0 c7b7 8104 f1bf
00000470: 30c7 cb6f 9475 0440 d766 559a e505 ddbf
00000480: 46ed 4c17 90fa 0440 e0fe 95bd f7e2 eb3f
00000490: 2c8b 86bb 0fe8 a83f bcdd b27a 27fa f8bf
000004a0: fa9a 2a76 e7b8 ffbf e52e 0e90 df0c c23f
000004b0: 53fe 4109 cb0e e8bf ec69 7b2a 560b f43f
000004c0: 5229 0ff1 f02f dcbf 19eb 6f40 38f2 d9bf
000004d0: 0734 a4b9 e586 923f 8da8 df43 2b9a d9bf
000004e0: 6b33 8eb8 1086 07c0 c639 8f06 312c f33f
000004f0: f9e9 fa7b fff7 e5bf 6ec4 0963 1b4f 1240
00000500: 8d1b 6220 c07c 03c0 5c74 30d2 9058 0840
00000510: 413a e730 37bf 02c0 f861 c2d1 c52d 0540
00000520: cd7d be1b 1149 e2bf ea6f 9d18 b3e7 f93f
00000530: 0ac8 4cde 72a1 e5bf 4422 2ca7 e27d 1040
00000540: 9e12 b079 47f9 1240 815d c6b8 d68b eabf
00000550: c91d d9bc 9928 e23f 8c96 b96e 86b9 f33f
00000560: ef61 53e9 8383 f93f 430f 11e9 7043 bb3f
00000570: 9b89 89d4 b893 f6bf ec82 d82e 00b7 c43f
00000580: 9089 ba1d 0a7a b03f 0502 46ed c468 a0bf
00000590: 279f 5663 8c83 ed3f 82b2 0809 81e6 f4bf
000005a0: 8626 69b4 667c da3f 7bc9 4b28 d45e 0ec0
000005b0: e3e3 2c3f 643c f83f 4d45 5f51 1f27 e3bf
000005c0: a505 55b6 07fe ecbf 7552 627e c897 e43f
000005d0: ba13 fa2e bd0f ecbf ea80 267a a01d aabf
000005e0: 6dcb f9bb 0477 dabf ebb0 2103 ee03 fcbf
000005f0: 3add cb00 0ea7 f0bf ec1f 3205 b4c1 05c0
00000600: ef67 1d01 5d51 ff3f 8278 8c80 b158 f2bf
00000610: 8468 85fb 43c7 1140 36e7 fadc db3f 02c0
00000620: 13bf 62f0 b48a 30c0 773a 1f6f 5d74 db3f
00000630: 7769 956b f33f 06c0 95ba d8eb dd4d 17c0
00000640: 8427 c966 2c2d e33f 3917 5342 7de5 b2bf
00000650: 4ae9 d218 8b2c b8bf 2421 7e53 c257 03c0
00000660: e315 3bd4 1f86 e5bf 6c56 e4e0 e654 cf3f
00000670: 0435 3bc2 0cc7 2240 40de fbcc 8a42 1040
00000680: 9b48 1fa3 e24a bebf 237a 4e92 f53e c23f
00000690: e4d1 89d2 b158 f43f d553 129d 7b8d f1bf
000006a0: 583d f4ae c265 f83f e7de 3558 1f2c 1240
000006b0: 7e34 4556 268d f63f da73 1b08 a69e e63f
000006c0: 6099 06f3 9279 a63f 1a45 6e3b ed92 0e40
000006d0: b6d0 a6db bc97 eb3f d809 94e3 6b91 bfbf
000006e0: 2e8f 6f12 25ac 24c0 1d4a 319b 8181 0dc0
000006f0: 10ce a080 c4ed a23f e2fd e1fe b9a5 bbbf
00000700: 5915 1991 905d 0d40 455a 2ab1 70de 9abf
00000710: ac92 9cb3 c2e6 06c0 3267 7216 08cb e23f
00000720: 22e2 c582 f682 0bc0 f820 641f c7e5 f1bf
00000730: 97a2 58f3 b9dd e03f c794 79a1 4418 ecbf
00000740: d256 7ef9 f725 e8bf 206f 21d4 3389 f4bf
00000750: cfeb 2181 4c5e c73f 213e 4280 fe8e f6bf
00000760: 430a 7728 88af 0f40 2563 bffb 66a6 dd3f
00000770: 861c 5531 5d7b 1840 0079 4e02 f0bc f3bf
00000780: c9d5 b0ac 7e8c e3bf b322 a9c5 a3c6 aebf
00000790: 60bf ebd3 3a90 f6bf 4d9e 2383 a9af da3f
000007a0: 5cb3 7b99 6bd0 cd3f 08b2 606d c10b 0240
000007b0: 4501 2c8d 02f2 b1bf 3f98 499e 5050 fa3f
000007c0: ed6d c309 7cc2 f73f aea3 b9e5 e43f d2bf
000007d0: 68b2 92a0 e42d 0ec0 7155 89a8 270d 0240
000007e0: bf0a 437a 6012 ecbf 3232 3107 4b4b d4bf
000007f0: 666f b9c1 baf7 e2bf 9ea7 ce5b 3729 ffbf
-2.431838101025006 0.8910460200466483 0.300079576872895 0.66956429608114 0.9281937727372584 -3.9575517821691255 0.652438870492565 -0.01299907008305416
-2.2636436643672204 -1.1482309906556436 1.856587158926621 -1.3715329349165049 -3.516926941881418 2.350492361748241 -0.38491575591341687 0.3867377280546075
0.26490513639082375 1.5621235471950299 0.12531243868796096 -0.7604201516629927 2.204783806831238 -1.1118722923654447 1.4432040913116049 0.02334261597255214
-0.43057003462363597 -0.7189410173917099 2.871643259583126 0.9641259925183265 0.7050546301516345 -0.4333852784902457 -2.1660922792172346 -0.48758205716641395
-2.074477560424882 -0.5269011095949289 2.234402506268216 -3.0046797520458823 -0.43246068404037874 0.5061067162222068 0.1979750986868939 0.9679828160941584
-0.10638424286655944 -1.0103582037398446 -0.3132200226147117 2.0861600611038504 -0.7972762775893976 -0.17329295499862288 -0.19220597037118542 3.4558093454010868
3.2106620001753896 1.1632006245073416 2.2444709606680977 1.7132654299384344 3.00701737837224 2.459816344473756 1.0293789563376252 -0.9936844344328343
14.69078391836887 0.008709051589621304 0.1737716931904105 -0.5280337336206212 -0.051717977337633184 0.13316446159621964 0.002575661006901613 -0.5006456908114674
-0.8614415995903013 -1.746851818811037 0.926226455175949 -2.746994860182004 -3.145062291060197 0.8945932393431449 0.6540859844109097 -1.225770561861552
-1.0539235461060112 -1.0911642480209844 -0.644905786349717 1.410813369377755 -1.7766402448219947 0.5428025558262647 -3.843407737981061 0.06211689959276446
0.0993899106244764 1.639240117392287 0.8152626410223296 0.22950060086387286 -2.8495950464082886 -1.528486458883453 -0.7226170821970512 -0.5171910046456454
0.16249829374440608 -0.23063349445343487 -0.16042226243141053 -2.9484407912039505 0.5691099945495555 -4.416112815403076 0.751430697058272 -4.406753740710599
0.9584432553609391 -0.9973924079240122 -0.4340327297583092 0.9371935554353943 0.12213564707736216 0.5377169945336993 1.1901360152323825 -4.1740480915189755
0.7050662003246312 -0.098297080742507 1.3332613075755633 -0.2632708908002975 0.980253389980228 -2.5380879193075714 0.5241743189065918 -3.7349108834891336
0.806827201824282 -0.5986510114351596 -1.0714186189353772 2.5418380281100874 1.8293074476262257 5.399874676453767 -3.1478602516161702 1.6084665253379093
0.7745433821324882 0.8844323591424484 2.796062713291156 1.610152939629205 6.844955106494007 0.027631385818262355 0.11111457188512819 1.730427734716456
5.550357731746025 0.6375370069561253 1.372924585529245 -0.675015694444721 -0.4297063290960421 4.078242972189432 -0.0793175776583231 2.720652529437007
-0.756551349091191 -0.4298488286688644 0.02768350124425065 3.670536202075989 0.8960141202864375 -1.063600271123523 2.557412026792825 -0.4534849173702304
2.6223451443053447 0.871456022534371 0.04864548839693436 -1.5610728066366013 -1.982642613971335 0.14101786169009425 -0.7518057995620872 1.25276772112431
-0.44042609730663174 -0.40540891926473105 0.018092717605259902 -0.4000347292736784 -2.9404615801235443 1.1982889419774536 -0.6865231915938345 4.577252910109662
-2.4359133272113866 3.0432449742352627 -2.343366987282281 2.6473499667592897 -0.5714192907216159 1.6190672837756162 -0.6759580938144165 4.122934925144879
4.743436719295145 -0.8295701607593601 0.5674561203422225 1.2327942204659932 1.5946082224164646 0.10649781885245795 -1.4110649397121964 0.16183473861112618
0.06436217523381615 -0.03204932590870516 0.922308153171774 -1.3062754013909914 0.413842846090667 -3.796303095639073 1.5147440402781676 -0.598525675706847
-0.9060095368551414 0.6435282200278168 -0.8769212644116273 -0.05100728503316694 -0.41351431233413544 -1.7509594080284454 -1.0407848387820438 -2.71958164271563
1.9573640864896296 -1.1466536542352803 4.4445952701736395 -2.2811810745305605 -16.54182341013718 0.4289773545432704 -2.781226006028358 -5.826041874983862
0.5992643363508567 -0.07381422871830247 -0.09442967754413192 -2.4178511164538055 -0.6726225991375795 0.24477849942256868 9.388769216277531 4.0649826077201965
-0.11833015902019144 0.1425463642489869 1.2716539596705099 -1.0970417152031946 1.524843867697049 4.543088320053108 1.409460389131055 0.7068662794441665
0.04389628616927399 3.821741546919509 0.8622726717062708 -0.12331270509824976 -10.33622033702667 -3.6882354854981387 0.03697027273338105 -0.10799753639911772
3.6706858955173343 -0.026239167035408312 -2.8626760513455647 0.5872841299453511 -3.4389467445983124 -1.1185981012550297 0.5270662072044442 -0.8779624131972462
-0.7546348450584566 -1.28349669326321 0.1825652723817641 -1.4099106798274834 3.960708919651809 0.46328138909079747 6.120472689456738 -1.2336273279284455
-0.6109002468935439 -0.060109250906469035 -1.410212352577183 0.4169715672164543 0.232922983115169 2.2557400269636254 -0.07009902903155758 1.6446081336121237
1.484981573236719 -0.28514978822800685 -3.7724087281006184 2.2564232985411583 -0.8772432697226903 -0.3170955248104149 -0.5927404197386579 -1.947562559721042

module.module.layer_1.bias f8 [512]
00000000: 9758 b48c fe20 03c0 896f 5c93 2542 c0bf
00000010: f42e 1dda d839 09c0 abce aeb8 e627 03c0
00000020: 6c88 ffbe fef6 f8bf b4f2 2ca3 1b96 f03f
00000030: d323 c220 848d ffbf ea9d 0872 7de2 dabf
00000040: 377f 4c5c ee0d c93f b7c4 9045 5186 e8bf
00000050: d4a2 1480 2fb0 d63f d0de 86b9 51da 00c0
00000060: 24f6 ea48 2255 fd3f 201f 1bd1 abe4 f13f
00000070: e11b 2e40 75e8 01c0 5b9b 98c1 bf1c e8bf
00000080: cbe5 2e05 3109 0840 11b4 8dd5 a561 ce3f
00000090: 99d6 05ac 740a f63f 8fd1 3fe1 6de4 64bf
000000a0: b752 45ff 3d0d 0ac0 9a9f 281f ffd2 0c40
000000b0: d3b2 8761 5a07 e73f 9120 5a26 63b6 00c0
000000c0: 709f d6d5 f2fd fe3f 726e 16ee 83ae cd3f
000000d0: 1e96 a049 6123 ff3f 402d 960d 9cde c43f
000000e0: 74c2 5a73 b25a 00c0 48a4 2e40 9e43 03c0
000000f0: b22c 7c88 6533 08c0 1f63 1d43 5ac1 f93f
00000100: e72c bd90 d095 d13f 9afb a6ca 9db6 c1bf
00000110: c9a0 c26a fe11 f9bf 34ee 7a7f 145e 0fc0
00000120: cee4 8d41 fb5e 00c0 df85 a50a 06e2 ea3f
00000130: 6317 b6aa a060 ff3f 797d ab2f 275a bebf
00000140: 87f9 fc1f 51cc c73f d764 9889 82f2 e03f
00000150: a969 9a09 0421 eebf 64d0 381e e41f ae3f
00000160: 6ccd f029 f53a e5bf 1626 5479 071d 09c0
00000170: fea3 3ff4 c895 c8bf 0d00 aff7 577f c63f
00000180: 89de 93ab 6df8 f3bf dd3e d5f2 ca30 dbbf
00000190: f2d8 bcd7 d683 07c0 96be 12d7 b25e f53f
000001a0: b2cc 8865 e1cd 0740 4c0a 8b8d ef71 f4bf
000001b0: 85ee d972 480d c7bf 924f 16b3 98d6 e7bf
000001c0: 4539 fbae 8d57 d63f 7255 9907 ac61 f13f
000001d0: 2208 fa21 dba0 c83f 0a9a 6d69 2817 fdbf
000001e0: 0bbd 65cf 474c fabf d7bc a526 e202 f0bf
000001f0: 3395 7f03 0c7a e0bf f23f 26e6 724a ec3f
00000200: d0f3 286b 9897 0440 0c34 f467 b2ff 06c0
00000210: e917 cc43 a51b f73f 321c 1bf2 08ef 03c0
00000220: a21b fc20 7486 f2bf 5113 72fa f17a ebbf
00000230: 6d8c 88e6 67c9 09c0 368a b9c9 c1bd efbf
00000240: 25e2 bd66 197b 0fc0 8297 d58e 6675 ecbf
00000250: 8f47 a3b3 5734 e8bf 1fae b47c 9b7e 943f
00000260: b136 1cd8 4932 cd3f c99d 182b e0a6 d9bf
00000270: 6b24 f83a 64bb dcbf 7988 24dc bd51 f9bf
00000280: 0344 e159 ae3f ec3f e962 3804 4294 e63f
00000290: caec 7b38 3596 e8bf 53eb 2b8a 8132 06c0
000002a0: d033 a6d8 b6df f13f 358d a77a 855a b9bf
000002b0: 0cc9 924d e43f f7bf de2f 1e00 390a ef3f
000002c0: 0385 9944 7df5 f1bf 6e68 ffc9 36e5 d0bf
000002d0: 5573 b33f bb4d ecbf 6739 fb2c 6501 f0bf
000002e0: 1b8c 612b ce8a db3f 5204 1e46 0955 f93f
000002f0: e1ff f593 7d11 f1bf 3a8f 969c 8855 0540
00000300: dd09 aedc 9c16 e9bf f9d5 46ce a7c3 f6bf
00000310: ae22 ba55 f300 f7bf d3f6 76d4 c40a f23f
00000320: aba2 c4bc 8c3d c9bf 6525 f142 7e31 d43f
00000330: 20df 49e2 63e8 ea3f 3649 14fe 0d0c cb3f
00000340: f284 0652 5722 f43f 620c cfe3 817c e2bf
00000350: 2917 1344 689d f0bf 57d0 24e3 c8e1 02c0
00000360: 0dee 2370 c284 f6bf fbfd a8b0 5aba e2bf
00000370: a75f de96 09b2 cc3f 9090 ed43 b38d e83f
00000380: a03f 8217 6c07 dabf 6b52 9a86 bb8b 02c0
00000390: 47b6 be29 8cf2 f5bf d591 bce0 fb10 e4bf
000003a0: fe9f 2f46 3ba3 01c0 e89f de51 1833 f1bf
000003b0: 09e0 5baa 278a f23f 94a6 1abb efa1 11c0
000003c0: 3391 6c74 4ae6 f93f dda9 b083 5b44 e5bf
000003d0: 8f2f 29b4 c0ff f23f 05ff 4531 4510 fcbf
000003e0: ddda 900e 91b5 9d3f 715b 073f cda1 e03f
000003f0: 3c2c 801c 37b2 fabf b3bd 656e d793 e03f
00000400: 5c00 3d05 1a99 06c0 21b7 3d04 6070 03c0
00000410: 0451 1682 f14f f7bf fb56 8748 15ab 03c0
00000420: ea32 ba3d e4ce 00c0 46e6 c734 5c4e 07c0
00000430: c860 7fe8 f144 00c0 688f ee97 3b34 f13f
00000440: 1608 cd9d 0519 e7bf efa7 2237 0f77 eabf
00000450: 6ccc 7c44 41e9 0240 fb38 88d3 916f f3bf
00000460: 5a7b 08e5 d8ca f7bf 0695 bacf 024a de3f
00000470: d5af 7e3e 4f77 d8bf 1bee 8d20 d651 f13f
00000480: 9909 5891 6d1f e8bf da62 226a 1f0c e2bf
00000490: c2a4 1c43 7465 fdbf 780a 9fbc d3c8 f1bf
000004a0: 4d35 3cce de03 d73f 7f56 cb93 88ea e5bf
000004b0: d233 75ef 8937 dd3f 4799 b554 ac92 a9bf
000004c0: f997 69c7 9379 f83f 42fa 5a22 a428 e9bf
000004d0: e588 0288 552f c73f 7edc da63 97e3 f33f
000004e0: 59bd 53d9 7d4a 02c0 a470 d2a2 ff00 c03f
000004f0: 60a0 c966 6559 f03f 7014 b33b a4b0 d6bf
00000500: bd02 e739 810c e9bf 0034 ee6f 2234 f63f
00000510: 34c4 ab78 1fde ff3f 2786 b13f 97c7 f7bf
00000520: 142b 8221 7ae3 f4bf 58cf 3051 30f1 f33f
00000530: 404a 33d4 fc9d 0240 7c39 90b5 e33a b5bf
00000540: 2b91 4b1c 6cf1 fe3f 6f66 d19a a002 ecbf
00000550: 0ca1 a10e 097e fcbf b221 800e efe6 e03f
00000560: 5767 2801 1a13 f2bf f7c7 9650 6fe4 fb3f
00000570: b66d 2083 1936 fb3f 46f7 79ff 8544 e8bf
00000580: 99fd 579a 6585 fb3f 5e92 fdf0 6cdb 08c0
00000590: 4eed c903 5175 f53f bec1 2244 92e2 09c0
000005a0: 267c 5e63 d811 f2bf edad 2b98 ff71 0fc0
000005b0: 9a3c d755 100b dbbf 5910 7c6c 07ad 0740
000005c0: 6bf0 30eb b060 0ec0 c59c 44ca 75bb e43f
000005d0: c910 86e4 ad6a 1140 326f cb39 0cbd 03c0
000005e0: 7631 ea96 e3fb cfbf ebdf c17f a318 e13f
000005f0: 5bc8 4807 aa6a f2bf eb87 b8ba b6ae 00c0
00000600: 2ac5 b522 ce29 e93f 3414 55d5 5d77 f63f
00000610: 0bf9 e039 42dc e7bf 87e1 c213 42a6 e2bf
00000620: bdba 964b d58e 0f40 c95a 0238 d0fa 0cc0
00000630: c0c6 d288 c9d3 debf c33e 7900 1953 efbf
00000640: 3c88 881f 7a46 b6bf 8d49 315e 59ec f33f
00000650: 3172 4a91 d3be f0bf 7826 ff6f 193e e6bf
00000660: e420 49d2 2bb0 f1bf d669 cea1 5414 d63f
00000670: c4f6 630d 5739 fa3f ec6b 9b91 16e8 eabf
00000680: c02c 7277 35ff fb3f 6b82 41f4 9e73 ffbf
00000690: 295a 0280 58de 0340 8188 ecea 257b c03f
000006a0: b690 8114 75e0 e3bf 3cba 428b 0f4f f0bf
000006b0: b964 57b6 b229 fa3f 69ab 34a7 2d99 f0bf
000006c0: c527 2bee 0142 f1bf eb9e 5a78 4d81 d93f
000006d0: ae7f 86f9 a9e0 c53f a683 6b75 c189 fd3f
000006e0: 349f 2bad f785 10c0 0043 5925 376e e9bf
000006f0: 246a 1b9c 08b3 f43f 2089 eaca 1391 d2bf
00000700: 2b02 1dfe 2526 0ac0 2671 7287 dc6e 04c0
00000710: cd50 1ec0 9b13 0c40 3ffb 9035 6d61 ec3f
00000720: a5bb 6d8e 02c4 eebf 1b76 d295 0059 0dc0
00000730: 5e3f 56c0 4029 f43f 7b62 fd04 40b3 f9bf
00000740: d238 cf47 485f 0b40 b4c9 e780 f9e4 e1bf
00000750: 77ce 4e3a 12b1 ea3f aa8c c3b8 54ce eb3f
00000760: 8e40 4a05 7d11 efbf cd9f 64b5 618f f7bf
00000770: 32ce 9ebe 7e1b c0bf 6705 5800 2201 08c0
00000780: 18d5 dd5a 6765 0d40 1b4b 11e4 6f12 05c0
00000790: dfe7 71f8 c8ee c43f 535c e42b f678 dcbf
000007a0: dec7 8f9c f5b4 90bf 9ab9 8e71 bc62 ea3f
000007b0: 96ce 3b2a 72f5 0cc0 e921 c7eb 5ca4 fabf
000007c0: da99 786b 850e fc3f 3bf5 d31f 557f 0140
000007d0: 0cc2 fa27 2c72 0dc0 29e1 b357 1a3e fcbf
000007e0: 3fa0 fa6e 4dfe e8bf 380e 28c0 4cfb e73f
000007f0: 3ac9 4123 09b1 d53f 8042 f14b 0f05 ea3f
-2.391110514882779 -0.12701863952031214 -3.1532456436306067 -2.3944830349299386 -1.560301538550017 1.036647450832942 -1.972049835169163 -0.4200738538370091
0.19573764330652363 -0.7663961752606586 0.3545035124575808 -2.1066011900219124 1.833284649691799 1.1183279197884488 -2.238504887969143 -0.7535094052480916
3.0044880299508114 0.23735497405451203 1.3775526733055925 -0.0025503297892958752 -3.2564659064322217 3.6030256685516635 0.7196475891956545 -2.0890563007597582
1.9369991639195767 0.23188828587887006 1.9461377025667228 0.1630435053196866 -2.0442856800148608 -2.4080166830285954 -3.0250960028548315 1.6097052213355665
0.27476896414436996 -0.1383855094445295 -1.56689302161435 -3.92093753427414 -2.046377670424227 0.8400907714787386 1.9610907238397537 -0.11856312669578085
0.18592275678561185 0.5296032607467634 -0.9415302455484397 0.05883705967826883 -0.6634469813492792 -3.1391744116597335 -0.19207107473565083 0.1757612189667274
-1.2481514646769105 -0.4248530742088244 -2.939374623728434 1.3356197739885025 2.975527566182415 -1.2778163460758547 -0.1800928650662749 -0.7449458596988612
0.34909383857747783 1.086345700915754 0.19240893515603924 -1.8181537740980525 -1.643623170992046 -1.0007039556183395 -0.514898306687121 0.8840879912477233
2.574021184146183 -2.874852001323694 1.4442494057016069 -2.491716281368576 -1.157825592848646 -0.8587579623714224 -3.2233427057668025 -0.9919136943756885
-3.935107042951375 -0.889331130002333 -0.7563894756842603 0.020014218794285662 0.22809718181854557 -0.4008102818356432 -0.44893747099610576 -1.582456455166293
0.8827735667674691 0.7055978853632868 -0.7683359244541859 -2.774661139931973 1.1171177351818535 -0.09903749699110594 -1.4530985861025014 0.9699978830626568
-1.122433917968295 -0.2639901135095276 -0.8844887012634027 -1.0003406292995238 0.4303470061915406 1.5832607974009716 -1.066770151111989 2.666764472336493
-0.7840103445199095 -1.4227674539264383 -1.4377320622171896 1.1276291179087152 -0.19719084946816187 0.315520825741791 0.8408679408739523 0.21130537897313112
1.2583840564842004 -0.5776986550703322 -1.0384295138514494 -2.3602464433297814 -1.407411993072745 -0.585248322524364 0.22418327204354435 0.767297394439554
-0.4067030171945536 -2.3182287708134957 -1.3717157011664243 -0.6270732297312472 -2.2047029002460468 -1.0749743650467227 1.1587292341846498 -4.408141063214902
1.6187233493629491 -0.6645944187233074 1.1874396359953356 -1.753972237085635 0.029012934221294685 0.5197511893301067 -1.6685095895106903 0.5180470615577434
-2.8247566613427306 -2.4298706370672254 -1.45701742949774 -2.4585366884519977 -2.1010212728927984 -2.913261806822251 -2.0336645282623955 1.0752521452750106
-0.7218044359253806 -0.8270336224425118 2.3638940191827285 -1.2147386801694313 -1.4870232531172491 0.47326727186221296 -0.3822820768643827 1.0824795982033553
-0.7538364256618478 -0.5639798233924822 -1.8372690793569721 -1.1115300529496874 0.3596112264647971 -0.6848795782668303 0.4565148199515622 -0.04994715246248176
1.5296819486188709 -0.7862110777858293 0.18113202229603256 1.243064298685368 -2.2863728502922354 0.12503047418875213 1.0218252196446187 -0.3545313437464932
-0.7827764635950057 1.3877281544002926 1.9917292321881748 -1.4862282264733808 -1.305536394970379 1.2463839694509797 2.327142389121292 -0.08292983229350698
1.9339409928589457 -0.875320722941252 -1.7807703563249246 0.5281901629651229 -1.1296634717204677 1.743270220566499 1.7007079240928369 -0.7583646764539729
1.720067599206095 -3.107141382921596 1.341141714858924 -3.2356305430514274 -1.1293567544560204 -3.9306632889108557 -0.4225502813614611 2.9594868159638676
-3.7972124456701315 0.6478833151385507 4.354178972895348 -2.467308475037407 -0.24987454289329109 0.534257649923345 -1.151041058019948 -2.08530946612972
0.786353175919577 1.4041422208113206 -0.7456370478101076 -0.5827951799356449 3.944742765939138 -3.622467458316667 -0.4816764675298195 -0.9788937577486297
-0.08701289434296283 1.245202415408673 -1.0465884852811878 -0.6950804889140292 -1.1055105413707276 0.3449908809795067 1.6389990351739678 -0.8408310741318679
1.7498068490847771 -1.965727762341113 2.4835672379224616 0.12875818224808103 -0.6211495781431242 -1.0193019332761102 1.6351801989278967 -1.0373970538591613
-1.0786151221714004 0.3985170054752262 0.17091870006424642 1.8461317621915696 -4.130827623164624 -0.7947040299860362 1.293709382813753 -0.2901048165896487
-3.2686271526911432 -2.5541315633582995 3.5095744141818614 0.8868928953378158 -0.9614270002183402 -3.6684581475117404 1.260071517292054 -1.6062622256196437
3.4215245828737375 -0.5592010038074506 0.8341151369881591 0.8689368828458062 -0.9708848098107568 -1.4725052915255106 -0.12583908374436842 -3.000553133665267
3.674513540167606 -2.634002477433922 0.16353714114285275 -0.44488291059810087 -0.01631530540539205 0.8245527475281051 -3.619846658659138 -1.6651276788780882
1.7535452077951192 2.1871740805205753 -3.680748283710505 -1.7651618410000742 -0.7810427825506919 0.7494262459808345 0.33893040125908025 0.8131176455736551

module.module.layer_2.weight f8 [128, 512]
00000000: cb95 7a8a a80a b53f f1d1 e917 e0a0 dbbf
00000010: abf7 fe32 e3f5 dfbf cd84 8770 01f9 da3f
00000020: 537e 29c5 a7d5 bf3f 1123 6036 b604 f0bf
00000030: 86ae b1f5 26d2 d43f bcbb 4f6f 40ae dbbf
00000040: c8ee 9562 9f71 ff3f 803b 89bd aa81 ce3f
00000050: 2e77 4481 4dff f13f 0359 9b90 19f7 b73f
00000060: 661d bef0 f647 f6bf 823a 93f5 24e8 dbbf
00000070: 5578 0416 3d8a bd3f f411 ec3f 0599 f23f
00000080: ab8d 8e50 71d9 973f ecee 9028 55a3 d1bf
00000090: 1b6d 2e54 db74 b63f db19 1658 e7e4 cebf
000000a0: 038e 1bc5 cdc0 bdbf 10ea 293e 5767 00c0
000000b0: 1c37 ff83 9e54 ab3f d701 696b 8d3f ecbf
000000c0: ca33 be0d 742e d8bf a2ee 7173 bfc3 e53f
000000d0: 431c 5090 662e b0bf 9e61 2529 4d0c c7bf
000000e0: dcfc a501 d292 fabf 887a a22b c93b f1bf
000000f0: 39ae e635 b81a debf cc97 4584 0eb2 f53f
00000100: f8d1 2f55 5122 d93f d12f 62bc 3a36 c3bf
00000110: ece4 2eaf 5ee9 f43f 4cbf 41d4 17d9 603f
00000120: 7048 6418 1973 dc3f b6f3 d471 f1db cbbf
00000130: 9c07 fd84 ce39 e2bf ea5f 2b06 31f1 d93f
00000140: b9d8 3659 c5d3 e6bf 7f04 ade8 2fd3 e5bf
00000150: c0df c984 8286 f1bf c8ca 5585 8711 bbbf
00000160: 09d7 a602 c2e0 91bf 1683 38ea fe60 cf3f
00000170: db01 2784 3082 e7bf b392 7508 ef12 d53f
00000180: d221 835b 3008 bd3f 46e8 b425 028a cdbf
00000190: b7b8 3ead 9bda d6bf 3df1 fb65 d6cb a53f
000001a0: f8ef befa 2d17 01c0 d2e3 d629 ef89 f3bf
000001b0: b17d 280a f4d6 5b3f 3af9 136e 0320 ffbf
000001c0: 1cdf 380f 306f e33f 5012 6431 71da e4bf
000001d0: 617d 68f1 f5c3 cfbf 10f6 094b 645f e83f
000001e0: 3f37 195d 07ed fc3f efcc abe1 c7d2 f73f
000001f0: 8f4b efc1 a32b cc3f aec9 3b85 e4f4 e4bf
00000200: 5935 9b4e 58ec fbbf a091 61c4 78a6 dfbf
00000210: 247b ca96 ec17 edbf 5b6d cf22 6811 d2bf
00000220: abbf 8e76 b1e1 e1bf aa63 2656 c482 f0bf
00000230: b11f 93a0 abf9 e6bf 796c e30f fcc9 c63f
00000240: 3f55 56e8 ba36 f0bf 1c3a f80d 426b c2bf
00000250: 2d2c 4dda f1a8 d6bf 9df0 6669 256f b73f
00000260: f842 9236 997f cc3f 2e7c 5df4 3e1e e63f
00000270: d992 3242 c810 bdbf 0498 4522 ebfa fcbf
00000280: c71e 084f 9926 af3f 8e79 f3f8 11f2 c03f
00000290: 9ce4 d844 40a6 efbf 03d5 ab20 366d e03f
000002a0: 64e5 3754 97b7 c4bf cad6 4e94 867e d63f
000002b0: 9614 e27f bf28 da3f a382 121a 9cb3 e33f
000002c0: cdc3 8596 0ff0 d73f 7be3 de35 ba63 ec3f
000002d0: d859 02e7 5e12 e2bf 690f fcba d039 c43f
000002e0: b130 76dc 19d5 e4bf 57a1 bec2 2fe0 d53f
000002f0: 4dd4 6448 c26a e3bf a39c f6e9 c8ed bbbf
00000300: 2647 5c2b eb85 debf 2ba7 e3ad dcef e2bf
00000310: 52b0 6947 4187 b5bf ab08 0290 67e5 e13f
00000320: 1f42 3bca 39f2 97bf 3785 ad61 422a a0bf
00000330: 25cc f7f1 7e14 94bf 8866 35cb 395e a63f
00000340: 5538 090c 6620 c6bf eebb f21f 4bf5 f6bf
00000350: 5204 72df 11d7 edbf 8e2b 37db a6c6 f53f
00000360: 5173 b859 4fbc eabf dfbc 9264 d03f c63f
00000370: ed34 66db a58c cabf ad7c 87a0 ce47 e43f
00000380: 4319 179c cfc7 e5bf ddd3 0326 3c41 b23f
00000390: 58f9 9efc 2ff1 c73f 9ec8 92cb e338 d83f
000003a0: 2e6d 0de1 4241 b03f bc40 dc22 fa55 0540
000003b0: 88a5 7311 dec2 0140 407e 8a10 c2f2 d03f
000003c0: 5152 ccec 3627 da3f 83f8 2a02 2cd0 d63f
000003d0: 19ba 9551 85a4 c73f 65b7 a721 b099 f53f
000003e0: 0925 eb34 e667 fbbf 34f1 8960 b029 eabf
000003f0: 18d4 1ba3 f344 c63f fadd 6ac9 890b aabf
00000400: 0671 ce5d 7fa3 d2bf 6f00 d190 65b3 b7bf
00000410: 4e51 75c0 420d 0740 6380 7f0d cee9 c0bf
00000420: e5e8 3555 779c c33f a4b6 8bac d78f fdbf
00000430: 4c0a 1a63 63ab d2bf 3f8e d012 2b81 d03f
00000440: e155 4a7d 31d0 eabf 67bb 899d 8cb4 c4bf
00000450: 5c92 6ed5 000c eebf 5290 67f2 11e3 c1bf
00000460: ad16 bb13 0000 98bf 349b 5943 cb10 e5bf
00000470: 9977 a877 6ab3 e9bf 59e8 e214 ca19 dd3f
00000480: 45cd d8fb 068d 00c0 c0d1 fac8 b1e8 ae3f
00000490: 3ee3 f9d7 1af3 dabf a7d0 28a9 0f42 cbbf
000004a0: e0a3 1904 bb65 e7bf fd90 0c77 e339 d03f
000004b0: c3f0 7927 f050 ff3f 71d0 2497 0345 f73f
000004c0: 277a cb9d ead6 eebf d1a6 d5bd 8689 cf3f
000004d0: 6623 5d3c 1301 e6bf fc60 4d94 8d33 c03f
000004e0: 3040 bfb4 5f7d e93f acb9 b548 0774 c3bf
000004f0: 56be c0fa 0b56 d9bf 8618 c9bb 9e8f bfbf
00000500: 7bd9 3227 9570 f1bf bdb0 5db4 319a d7bf
00000510: d863 a579 56df fdbf b731 6675 c65b fabf
00000520: 58bd 1bb3 c3ad d63f 130a 6e7a bac6 cbbf
00000530: f36f 4f48 ee3b e73f 036d b97d 470c f9bf
00000540: 4629 a18c 96cb f43f 0968 a184 be0e fbbf
00000550: 2954 57a5 33eb d43f 0412 29a3 fbf1 c73f
00000560: 7c08 0d65 d1e9 cdbf 3101 abc3 327d f43f
00000570: 73e0 0639 9eff f5bf 3cd9 cdb2 e9c7 b23f
00000580: 6cc8 b1ea 8e60 c23f bae0 b4d2 8f29 d23f
00000590: e23b 17b2 5c40 f23f 09a6 cade f98c e6bf
000005a0: 0c00 378c c275 c1bf 1208 9ab4 8f02 e63f
000005b0: 5306 950c 7093 c73f be7a 9b3e 7917 f9bf
000005c0: 73ca b0d9 8c39 d5bf 35c9 2806 e65d e13f
000005d0: 31ca c3e8 cf27 02c0 5e29 0d28 eb91 d3bf
000005e0: 0a55 7ec2 418b d1bf 97ea 71b7 bef2 ca3f
000005f0: 8255 b37b 51b8 e6bf 4646 a67d edba c0bf
00000600: efcd 02d7 c86b c8bf 631d 5cd6 159a d0bf
00000610: 7319 cd06 dbfe f9bf c3a1 8f0b 547b aebf
00000620: c286 c6bd 7a99 04c0 db22 4041 c9ee a8bf
00000630: 9d56 bbdf 8b19 f5bf 0abb 930a 95ac ccbf
00000640: 2e7d 1ff6 7dae cf3f 9bd1 c1fc a433 df3f
00000650: 1801 4a44 3dd0 ef3f 67df becd afd4 fabf
00000660: 8951 784b 52e1 e1bf bfe8 24ba 18fd bbbf
00000670: 00ac cbef 233e f1bf c88f bf73 b8b4 b0bf
00000680: ccd4 1200 85f2 d6bf 621d ad63 28a3 d0bf
00000690: c3d1 35bf 502b e0bf 0154 b3e3 41bf bc3f
000006a0: 04f3 56be 8179 e3bf eb85 a6c8 3250 823f
000006b0: 6f1d 9286 1226 bebf 3e2f 8045 7d19 0340
000006c0: 0ee9 1dc1 bf78 fd3f 4da8 e0f5 8722 dd3f
000006d0: 8b24 2184 eaa9 d6bf 60ec 3890 8b8e b4bf
000006e0: f835 2c70 b6e9 bb3f 4f33 4a8f 3d2a f5bf
000006f0: a1ab 071a 4ec6 b73f 0444 4a49 97bb b7bf
00000700: bbc9 0734 f63f 8d3f 5b10 41cd 0a61 ce3f
00000710: 06ff 1898 1998 f5bf 6ec9 3f00 ecb8 f33f
00000720: 9a4b 42f4 c488 e23f bea4 9641 d5b2 e83f
00000730: c78b 0413 ee80 edbf fff7 6771 aef9 adbf
00000740: 97c6 cfa0 96a4 e93f af4b 696f 7078 ce3f
00000750: 16d0 ceb6 a80f e0bf 7ce4 2af5 98de c2bf
00000760: 0d33 5123 4af1 ec3f 4692 6093 0ab0 c3bf
00000770: 79a3 700b 70db bfbf 005f e5a6 e7cb e03f
00000780: d7c7 c2d6 91fd f6bf 10ad 4569 4e7b cdbf
00000790: 8828 0aba 1888 d7bf c3e8 222a 842d c5bf
000007a0: 13f9 1912 db8e b23f e5dc b78c 0268 da3f
000007b0: 9bf1 9800 660f e0bf 0363 604f c243 dd3f
000007c0: fb8c a1f0 f583 e73f f4ab de20 ded8 e0bf
000007d0: 585d f17f 14fd dd3f 2c86 1378 08c2 db3f
000007e0: 5abf abef 4578 b43f faf1 762d 9a26 f6bf
000007f0: aab8 c463 4466 c6bf 38b5 7471 6fe1 e0bf
0.08219388371306662 -0.4316940530327705 -0.499382781792401 0.4214480971259718 0.12435387195136487 -1.0011503337902392 0.325326671538939 -0.4325104796434365
1.9652398921015664 0.23833212141695626 1.1248297738561166 0.09361419468345748 -1.3925694850930426 -0.43604396802849277 0.11539060390029594 1.1623585221251433
0.02329041532688129 -0.27559403382814085 0.08772059254845425 -0.241360586176781 -0.11622320234487664 -2.0504593712369186 0.053379968274027884 -0.8827578637938654
-0.3778352865418212 0.6801450018678745 -0.06320801757111476 -0.1800629092129044 -1.660844808997175 -1.0770961479644559 -0.4703808332803621 1.3559708754414599
0.3927195865537949 -0.15009245108046668 1.3069750636189452 0.002056643048540174 0.4445250261497966 -0.21764963205523963 -0.5695564839772831 0.40534616091235753
-0.7133509390321456 -0.6820296806764786 -1.0953393160871059 -0.10573622708561026 -0.017458945667121948 0.24514757572708196 -0.7346422749615685 0.3292806227312141
0.11340620264230175 -0.23077418175836523 -0.3570927802892458 0.04257078165935233 -2.136318167640635 -1.2211753496505833 0.00169919807434114 -1.9453157710955353
0.6073227212245658 -0.6516653027216055 -0.24816774642475095 0.7616445031741836 1.8078683506641509 1.4889601531293086 0.22008177728147557 -0.6548941232888887
-1.7452014036710664 -0.4945356290611702 -0.9091704316268516 -0.28231242560805975 -0.5588004413202631 -1.0319255223496193 -0.7179773460602431 0.17803908134269245
-1.0133618426965112 -0.14389825517760435 -0.3540615684366369 0.09153970549863506 0.22264399685493408 0.6911921284444185 -0.113537326966774 -1.8112593973869489
0.06084136094801589 0.13238739639104974 -0.9890443176910995 0.5133314741239307 -0.16185275661681964 0.35147251589965534 0.40873706329905113 0.6156750210976337
0.3740271539637064 0.8871737529908467 -0.564742518606006 0.15801438455684583 -0.6510133081333348 0.341808262043306 -0.6067820943777719 -0.10909705841059973
-0.4769237445299147 -0.5917800327563091 -0.08409507745244696 0.5592534840254947 -0.023384955375890578 -0.031572412894784234 -0.01960943557601182 0.04368763547490767
-0.1728637274522408 -1.4348860977149758 -0.9325036396186397 1.36099897032793 -0.83548705600297 0.17382244978714476 -0.20741723263601078 0.6337655196511115
-0.6806409882199563 0.07130790641879466 0.1870479568005503 0.37847227935993455 0.06349580759472381 2.6669810031381456 2.2201501239221137 0.2648167764218421
0.40864346623246656 0.3564558049364523 0.18470827563892625 1.350021487679862 -1.7128660266046742 -0.8175889859699397 0.1739792391232704 -0.05086927970608808
-0.29122909699232513 -0.09258112702900843 2.8814749751856317 -0.1321351591022931 0.15321246777222722 -1.8476177921360568 -0.2917107074537497 0.25788380467767874
-0.8379142233922573 -0.16175992672239234 -0.9389652412979319 -0.13974212967071026 -0.023437501148484575 -0.6583000483923116 -0.8031513535568023 0.4546990589111651
-2.0688609767472905 0.060369067939436416 -0.4210879429952462 -0.21295352706659296 -0.7311682777482211 0.2535332357968086 1.9572602788967266 1.4543491272025018
-0.9637349206857991 0.24638447064653815 -0.687631242654885 0.12657327405282348 0.7965544252601884 -0.1519784073856959 -0.39587687957371054 -0.12328521809203793
-1.0899859934994243 -0.36878626455178304 -1.8670258285330785 -1.6474060617357347 0.3543557404618318 -0.2170022104074439 0.7260657703695855 -1.565497866736053
1.2997041219083072 -1.6910996609572087 0.32685557505220914 0.18707223383729865 -0.23369805750013828 1.2805659907608737 -1.3749067523586092 0.07336292853674292
0.14357172450724265 0.28378673149883193 1.1407134014768805 -0.7047089911840781 -0.13640624853542282 0.6878126647354768 0.1841869412838145 -1.5682308621978076
-0.33163758524748416 0.5427122230815146 -2.269439524149924 -0.30578116332312344 -0.2741245650625649 0.2105329890944929 -0.7099997917199945 -0.130704580642986
-0.19078932283956315 -0.25940462049080376 -1.624720598761624 -0.059534670268309074 -2.5749411417208146 -0.04869679376139909 -1.3187369098208486 -0.22401679054697637
0.24751257436489865 0.48752712901412004 0.9941698392649725 -1.6769254719674451 -0.5587550615332911 -0.10933069748435552 -1.0776709906592714 -0.065257576235637
-0.35855221755202815 -0.25995836004263684 -0.5052875265669673 0.112293356028502 -0.6085823743411258 0.008942028759352424 -0.117768438200178 2.387445967649824
1.8419797462107144 0.45523261081200844 -0.3541208544089122 -0.08030006667188294 0.10903492201415321 -1.3228126141795717 0.09286964545724043 -0.09270616092022982
0.014282153570978609 0.23733649274993493 -1.349633783465778 1.2326469430668925 0.5791954775507862 0.7718302041077079 -0.9219885226669867 -0.05854554304458758
0.8013413563587218 0.23805051269536423 -0.5019115038362567 -0.14741813632079814 0.9044542970455908 -0.15380985447076706 -0.1244421031884836 0.524890733689034
-1.436906660947434 -0.23032550945513508 -0.3676816765588531 -0.16545154626311928 0.07249230567865465 0.41259826414120787 -0.5018796931904491 0.4572606825982321
0.7348584842515317 -0.5264731065739157 0.4685717820588784 0.43371783949087006 0.07996022321071675 -1.3844243789636708 -0.17499594565874094 -0.527518960565124

module.module.layer_2.bias f8 [128]
00000000: 3fc3 8138 4ffa cbbf 2018 d470 9319 b43f
00000010: 6e03 34d1 4aec c2bf 7822 1f66 6909 c23f
00000020: c5bd 2760 3c89 b2bf a9b6 75f1 0747 b03f
00000030: dbd2 f957 d627 883f f3a3 03f1 a81b b23f
00000040: 227e b172 0d9a b63f 664d 9401 4084 bf3f
00000050: e474 60a7 aaaa a0bf e746 ede3 1d1d c33f
00000060: 9d30 ad60 4301 a83f 61c6 1314 6579 c13f
00000070: c7c9 f989 d13e b8bf e9d4 fe87 9cac 99bf
00000080: 2279 cf84 92dd b3bf dbce 28f3 b1ec d13f
00000090: 94fa 74b2 387a cbbf c110 ceef c5d9 d23f
000000a0: 4c4a 0115 415e c53f d972 5575 d8fe c03f
000000b0: d4a7 fded 4421 cfbf fef0 dffd 39f7 cf3f
000000c0: 2c3e ad95 3e86 983f 2369 163a c664 9b3f
000000d0: a474 21f8 c4b2 a33f 6a3b 1eae 7cb7 cbbf
000000e0: 88f6 e9e3 764c d4bf e593 e189 36d8 c73f
000000f0: aad5 9ca1 5a69 98bf 5a56 69f6 6f3b aebf
00000100: 45ca 41ad 1019 bfbf 9f63 d48d da61 cdbf
00000110: 7f5e 0fcb 606a bd3f a793 4341 b537 c33f
00000120: 4a34 4dbc c68b b63f 9790 a134 fc1c c9bf
00000130: c5cf 5d98 3597 ba3f 40b9 192a 6988 ce3f
00000140: 00d7 e587 a14e c03f 12df 3c83 1300 b73f
00000150: 4689 a829 e8c0 a73f 0456 7aa7 480b 973f
00000160: dffe c321 5748 d23f 2a36 04ab cff8 c8bf
00000170: 174a 1968 17e1 95bf e397 6894 6808 c93f
00000180: 2ec2 b0c2 2fe6 783f 7e65 06e9 1098 d13f
00000190: 0754 9539 33fd b4bf f67e d1e3 281a c63f
000001a0: 0498 6a08 2ca0 c23f 89d0 8011 462f a83f
000001b0: 78a4 e57b dc4e af3f 3a52 4145 e91f a33f
000001c0: 680f 6def 313b b0bf 3f39 8569 b86a cc3f
000001d0: def4 ab29 1d70 c0bf 7d6b a69c e2d3 933f
000001e0: 6e99 fdec 49e2 cdbf 0899 7d69 bf4b a13f
000001f0: a92d f4f8 0ed3 b7bf 00bc de3d 6865 9c3f
00000200: 923a c136 e7e1 c03f 9ed1 7a52 a8b9 873f
00000210: e09a 9d8e b3e1 bf3f df94 2c21 2714 b13f
00000220: b1d6 b7b0 8d61 d13f 825e ef18 219a 93bf
00000230: 939a 2038 956e cb3f a2d7 10cb c7c1 c0bf
00000240: 2d02 79fb 3251 d13f 7c85 4dc8 3487 c7bf
00000250: 2cc7 96d7 56a3 d53f 30ee 0dc2 ff4e c43f
00000260: 9fde cb50 5ecb b53f 0d33 4832 e884 b8bf
00000270: 838e c0c0 7ee9 b1bf 6a5c d928 8a4a 993f
00000280: 77d6 9a20 aaef 9e3f 02dc b677 72c2 9a3f
00000290: a39b fa3f 55a1 71bf b0ff bf7a 78d1 bd3f
000002a0: c33a 677c ef8d a0bf 6ab3 3960 32b5 c1bf
000002b0: eedc 5f29 e819 ae3f 6ae9 c6e2 e989 d13f
000002c0: 8564 494b a889 c63f a794 9fd4 867a d33f
000002d0: bcda 7504 b39b 963f 97cc 5b06 aed5 c43f
000002e0: ffaf 6edd db85 c03f 953d 950b bd35 98bf
000002f0: 9faa d902 e916 c0bf ddaa 3ce5 8343 b63f
00000300: 1410 8d6f 144d b03f a1d3 8889 51f8 d63f
00000310: bf9f 61c3 c46c b4bf 44b2 30c5 cf7c acbf
00000320: 5565 a5aa 4ce2 a6bf e38a d096 a147 c2bf
00000330: 85ba cd24 6e61 bf3f 7715 7b01 833d babf
00000340: 5cf0 70a2 f1f0 aabf 12b8 774a 766f b83f
00000350: e234 d6ee fdf1 a7bf e91e 549f e6af 95bf
00000360: 9cff e89d 2dbf d1bf 71ee ac56 ca02 b73f
00000370: 351c f7b6 9ad8 b73f 85d2 40d7 35ae 543f
00000380: 11bc 15b2 fef2 64bf 8724 fcda 4c02 cb3f
00000390: 259c d0c6 6b4f d33f 8635 973d 3a05 c6bf
000003a0: fbac 7a27 7c86 cf3f 3ee3 00ee be32 c63f
000003b0: 522f 9e08 9c98 ba3f fa85 6cb3 bc96 cd3f
000003c0: 7402 7ad1 7013 d0bf aaf2 a97d 9615 c9bf
000003d0: 7327 a092 ad87 d2bf 9951 9d0e c166 adbf
000003e0: 0e21 ce55 e140 a93f 1cb7 1dff 4883 c43f
000003f0: 2139 b80e 1b02 db3f 4898 db02 8d9b c73f
-0.21857633837819354 0.07851525787927516 -0.14783606734274762 0.14091222273261272 -0.0724065527681353 0.06358384747519587 0.01179473358136234 0.07073455700050583
0.08828815508012913 0.12311172522122646 -0.03255208295034054 0.14932607297173847 0.04688463740475977 0.13651717644056574 -0.09470853441761228 -0.02507252292680998
-0.07759967558329042 0.28007172342334535 -0.21466740335195722 0.29454182070209006 0.16693891072880473 0.13277726868809372 -0.24320279713293635 0.24973225494603207
0.02394960201792011 0.026751611037618816 0.03847327736796416 -0.21653707982883513 -0.3171670175287109 0.18628579838255557 -0.023839393724491544 -0.05904722102119982
-0.12147621374041602 -0.22954875874782218 0.11490445096512224 0.1501375740691888 0.0880703172417309 -0.1961970574367384 0.10386977167018958 0.23853792720496791
0.1273996270717177 0.08984491304442724 0.04639363773846354 0.02250398180202319 0.2856653051130546 -0.19509311533367796 -0.021366468170819965 0.19556910749923792
0.006078898014536578 0.2749063754686957 -0.08198852687685597 0.17267333148901515 0.14551306162792355 0.047235669743174453 0.061148538707876676 0.03735283823394693
-0.06340324492799498 0.22200684692729486 -0.12842144522429683 0.019362965403711286 -0.23346828529174551 0.03378103411414385 -0.0930642469212929 0.027730587745903534
0.13189401792120187 0.011584582345087576 0.12453767997576959 0.06671375808635414 0.2715791917574775 -0.019142644068635757 0.21431222191423113 -0.13091370978662292
0.27058100278739766 -0.18381366520319975 0.3380944352494335 0.15866085982621447 0.08513440582816621 -0.09577800014103506 -0.06996910291541707 0.024698408835629605
0.030211122741738507 0.026132381970196412 -0.004304249770632848 0.11647751805139595 -0.032332881866400175 -0.13834218691354333 0.05879140381869684 0.27404257913771934
0.17607597042186654 0.30435343517303654 0.022078320643653213 0.1627709895179563 0.12908504783752048 -0.023642495948761406 -0.12569916381047094 0.08696770044904718
0.06367614482320533 0.3589061587438725 -0.07978467721989001 -0.05563973695857219 -0.04469527800638199 -0.14281101097102242 0.12258041761900003 -0.10250109468605283
-0.05261950595783624 0.09545077627237245 -0.046768126873851804 -0.021178821062703888 -0.2772935907450973 0.08988632789708519 0.09314887015271796 0.001262238100946751
-0.0025572752498912517 0.21100769703506136 0.3017224732925022 -0.17203453070980518 0.2462916558045903 0.17342363950026568 0.10389113626859839 0.2311626316159588
-0.25118656593989575 -0.19597130905085197 -0.2895311290636677 -0.05742457679176311 0.04932312176157626 0.16025650460090268 0.42200352132285174 0.18443453444996494
