old_models/old_kml_ml/saved/7_ft-33_pct-all_wl-80_epch.pt (torch, 634920 bytes, 8 tensors)

module.module.layer_1.weight f8 [512, 7]
-1.8396870119411894 0.736422957620628 0.09736267185840532 0.5065456030018298 0.7219976172527931 -3.0926416349028534 0.5273254657653276 -0.030683742743718028
-1.4437899188813994 -0.6181544143098947 1.283826935487456 -0.9560172507238327 -2.4930066333026994 1.5649990278941923 -0.3060053680761871 0.44969136482117955
0.04203463391476909 1.1110181102225187 -0.11922721093111462 -0.6496106008264204 1.7419028598981987 -0.780796267681126 1.133708519702195 -0.3442594712769702
-0.15561378593830702 -0.6227800697204229 1.6909295269314897 0.7928873976034879 0.5564946600177367 -0.007982358610409161 -1.5999039838774132 -0.24108692128008005
-1.1611097684064065 -0.5304347010062357 1.8025481491694757 -1.8604773107011214 -0.6419230397294998 0.40015427229505535 0.26081649325906425 0.7942566213263377
-0.1325838055901144 -1.2113431760133142 -0.27714015387251606 1.8276900552096171 -0.8174320611438681 -0.2252148559507142 -0.18422611400708916 2.2803040495387195
1.8613057149658834 0.6294745334700962 1.2966678049978857 0.8177426670636588 1.8939946665910794 1.823574397271982 0.5276015545792935 -0.5364899121384745
6.727116417544953 -0.2732377510240909 0.3590605898978851 -0.1307254228728547 0.06687981655405298 0.16974818263989908 0.10393583840361195 -0.36445878745803284
-0.5612088252046447 -1.2162455865187682 0.7281496644602943 -1.9809541105440716 -2.085223625528485 0.5928520675111679 0.45127230763818726 -0.9424197083837923
-0.7983249576035684 -0.7290890819213625 -0.37419437617461354 0.6622210559694419 -0.8400159691863849 0.5777535275470136 -2.341109708457373 0.00846975359462863
-0.16596823837072036 0.7845385740529908 0.5545269279093522 0.11582778811567448 -2.0101956118676876 -1.4058862091988649 -0.2603553913528991 -0.1995744202947721
-0.10588417369172365 -0.2610373668975553 -0.11917618019419216 -2.0254586961114387 0.5253663249090984 -2.430020170390745 0.47419794851506114 -2.332575210492103
0.5160329250776478 -0.6028596220327244 -0.2652114602851149 0.6261817248149759 0.0697239716951146 0.4236159600286813 0.9625972887523341 -3.257958562759008
0.5388811764889737 -0.031384295989401234 1.3140569023291289 -0.24480001947155602 0.533906353272993 -1.3894252553085196 0.34911515431116874 -2.8657830593967306
0.490126508593133 -0.09570956914287161 -0.2500847504929222 2.007836187118153 1.0946358705037984 3.3179763857744 -1.9469344692231638 1.2141882778800257
0.8080031656460235 0.7735448536724394 2.3611043161933893 1.41049760065689 3.2614650960243203 -0.02876391262728448 0.1838751172969698 1.4288016823709968
3.479912743622299 0.3519494305117129 0.8780975502808483 -0.5753463130599086 -0.47482684784233814 2.95541766112834 0.3080141348790874 1.2916772511685015
-0.41512316607715455 -0.27736609383827554 0.28930263337030576 2.62748285534911 0.48186516001350754 -0.9786562361201182 1.6125474121332555 -0.5221532935523894
1.7741087207444861 0.6668027104586809 -0.04566410030737778 -1.0357462643904363 -1.4840122907594504 0.07414852745226282 -0.48520045400896844 0.7085726368622497
-0.21097000668711757 -0.2473448058766439 -0.02298044210710657 -0.1780461132256732 -2.0673518277857195 0.9213447318527651 -0.330714976216645 3.1688325821090184
-1.7018357902231807 1.9945194128670194 -1.765250444127462 1.5014095663933325 -0.30206791309737974 0.6126791522169208 -0.3005393651832447 2.7398741027052202
2.7776468637593403 -0.3487837756360713 0.46919579606329537 0.7514377573020453 1.0593449073539676 -0.017722846033572076 -0.8648207979537144 0.09958875171138012
0.1398496310675032 0.16426379960491683 0.569210636783202 -0.8345497157381181 0.236091753228739 -2.6925556095901912 0.8141606470748134 -0.5259902177076314
-0.46552782363495143 0.6136406661700815 -0.4423231945000088 0.061758792307590835 -0.5186090395623478 -1.535776247166709 -0.43684756377471334 -1.776457484633278
1.3824718503473272 -0.4841647560495154 2.672788763024729 -1.4186898979543252 -7.911830678023828 0.4029830570023685 -1.3709440177594756 -3.6964795056058755
0.9343899269727194 -0.15496351201941885 -0.12847297810415897 -0.8774456910942872 -0.6211175370309695 0.02736707719805069 5.124819732574057 2.4141947945068742
-0.051565320957952535 0.10182961045328849 0.6299367150015974 -0.4729576363089733 1.1122210224081743 2.608094303410865 1.1867467366135205 0.4227940728302202
0.008348671242410965 1.615608732777425 0.7578479535308601 0.0676469890124071 -5.65659268159036 -1.8260147739846633 -0.03273736214810756 -0.10279368081633043
2.4947726171966544 -0.32927066768612895 -1.734388877430183 0.37066618817382324 -2.0979203836245315 -0.6291274278007283 0.2517243632874738 -0.5605308643489874
-0.4378622666643045 -0.9088704381724598 0.18675293819372982 -0.8722709727031692 2.2975756264188933 0.4911050345267377 3.1496527870050355 -0.7876287000418855
0.08012514347346882 -0.13991387186723506 -1.093168777884783 0.19726236424016674 0.2546190149290807 1.989432617582907 0.07059411168025166 0.8684039843039251
0.7692650297188187 0.03799736966006291 -2.6407735053015484 1.5295491320559391 -0.522954575892787 -0.37768042723832473 -0.5396635283556315 -1.6744809367783393
00000000: 2a9d f2a5 5b6f fdbf 5622 e0e0 c690 e73f
00000010: e1a7 7b93 c2ec b83f 286a da1f 9f35 e03f
00000020: 6280 3cbf 9a1a e73f ee3e c1e5 babd 08c0
00000030: edeb b9a7 d9df e03f 2b9f 691e 8f6b 9fbf
00000040: dd3d 3e75 c319 f7bf 5ad9 2ac4 ebc7 e3bf
00000050: c947 da1c 8e8a f43f 86a9 487d b197 eebf
00000060: 22f8 3576 adf1 03c0 d13c b16b 3c0a f93f
00000070: 1f69 128a 9795 d3bf 28d6 4c4a bec7 dc3f
00000080: 2931 ed43 9085 a53f 08b6 0aed bac6 f13f
00000090: f50f beab ac85 bebf 7ee6 b52b 9cc9 e4bf
000000a0: 6925 8188 d5de fb3f 02f0 5074 48fc e8bf
000000b0: 7a14 758b ab23 f23f fc42 9ee0 5808 d6bf
000000c0: fdb4 b40c 27eb c3bf 1898 0178 d0ed e3bf
000000d0: 1a2f a01e 0c0e fb3f cdc2 4364 555f e93f
000000e0: 1c98 a5e3 cdce e13f 2fc8 6909 0e59 80bf
000000f0: cae5 77eb 3499 f9bf 2515 32ad efdb cebf
00000100: 47f2 25d6 e793 f2bf bf87 af31 52f9 e0bf
00000110: 245f 62ba 3cd7 fc3f e194 46db 83c4 fdbf
00000120: cffc c52f a28a e4bf 0d2a 37aa 209c d93f
00000130: 8586 33a9 37b1 d03f 674c a7dc 8c6a e93f
00000140: cc8f 7e92 81f8 c0bf fb5b d361 a961 f3bf
00000150: 859d 520e aabc d1bf 8998 65ed 373e fd3f
00000160: ba12 2a48 6728 eabf 83da 7024 d7d3 ccbf
00000170: 0a64 5da7 b894 c7bf 2da4 ad0c 103e 0240
00000180: 8f2e 5a80 e8c7 fd3f cc67 ddc6 a724 e43f
00000190: 55df 83bd 26bf f43f a3a1 72ab f22a ea3f
000001a0: ece9 fc59 cd4d fe3f 7bb2 e158 5c2d fd3f
000001b0: 1194 c7a7 1ce2 e03f e098 68e4 ec2a e1bf
000001c0: 05f6 c634 91e8 1a40 8196 2b31 ba7c d1bf
000001d0: 6735 b944 d9fa d63f b851 ff53 9cbb c0bf
000001e0: 02b5 dc20 091f b13f e334 7ff6 4eba c53f
000001f0: 2e6b d302 8a9b ba3f eecf 37f3 4a53 d7bf
00000200: 7f60 cf35 6cf5 e1bf 070a a0ee bd75 f3bf
00000210: 2a69 6e86 004d e73f ed9d faef fcb1 ffbf
00000220: 60ee 63b9 89ae 00c0 4872 2ae6 a4f8 e23f
00000230: b05f b93e a5e1 dc3f e5a7 5360 4d28 eebf
00000240: fb9c 0fc8 e08b e9bf 2222 57a0 b254 e7bf
00000250: f317 01f8 ccf2 d7bf 1690 4336 ea30 e53f
00000260: 9abe 782b 69e1 eabf 60d1 3ef7 f47c e23f
00000270: 4e61 11ba 97ba 02c0 b588 8d15 9758 813f
00000280: 8f0d fd7d 723e c5bf 1b42 c0a3 f01a e93f
00000290: 91e7 8341 afbe e13f 46c2 ecd1 e3a6 bd3f
000002a0: 8246 dc6f e114 00c0 2f81 a689 827e f6bf
000002b0: c0ab cca8 a9a9 d0bf d360 2494 a78b c9bf
000002c0: f880 2ba7 391b bbbf 16f9 7612 d6b4 d0bf
000002d0: 2e71 6584 5482 bebf 5794 59b0 2334 00c0
000002e0: edef fc09 cdcf e03f ba96 436a ae70 03c0
000002f0: 6cf5 2c5a 4259 de3f f230 2431 1da9 02c0
00000300: 53c4 1b7b 5783 e03f ffb3 1643 a04a e3bf
00000310: f2bb 1c7d 39f9 d0bf b8dc ad41 ae09 e43f
00000320: d280 2d22 6ed9 b13f d0c1 981d 861c db3f
00000330: fb1a 4dd4 98cd ee3f 512f 3694 4c10 0ac0
00000340: 9967 aebc 833e e13f 18d2 c339 9a11 a0bf
00000350: 0563 c987 6006 f53f 2f62 d866 9b55 cfbf
00000360: 5fe4 cdc6 c215 e13f ad95 fcf9 153b f6bf
00000370: 537c 9316 e757 d63f 7a51 2cab 1fed 06c0
00000380: d0d9 5393 3b5e df3f b504 621d 6c80 b8bf
00000390: 601b 2678 6301 d0bf b42e 3b6b 0c10 0040
000003a0: 157a 0de7 a083 f13f 1e69 0e34 378b 0a40
000003b0: 374c 0cc2 a426 ffbf 7ce6 0ab0 506d f33f
000003c0: d973 7074 29db e93f 3664 1023 e1c0 e83f
000003d0: ddf5 e3a8 8ae3 0240 6486 9eee 6591 f63f
000003e0: 78c2 2303 7b17 0a40 f920 2880 4974 9dbf
000003f0: db58 ab47 3889 c73f 270d 2427 5fdc f63f
00000400: cd54 167e dcd6 0b40 4231 79e7 5686 d63f
00000410: 3ced a408 6019 ec3f 72ed ceab 3c69 e2bf
00000420: 15b8 af25 9063 debf 4789 c403 b2a4 0740
00000430: ffba 00eb 80b6 d33f 2218 ecc3 b5aa f43f
00000440: 3741 87c1 6091 dabf 8f7f 83b7 5dc0 d1bf
00000450: 9137 3e31 ef83 d23f 7533 34bb 1505 0540
00000460: a4bf d5f7 e0d6 de3f 1132 05e2 2651 efbf
00000470: cbc9 e583 fecc f93f 64cc e9d2 7ab5 e0bf
00000480: df55 72d3 bf62 fc3f f0bb 49a3 7256 e53f
00000490: 71c8 d7f2 4861 a7bf 702d c8ac 6a92 f0bf
000004a0: 39c8 faab 83be f7bf 1d3b 74dc 65fb b23f
000004b0: 8743 7e34 860d dfbf 3b3e c585 a0ac e63f
000004c0: ae3b 94af 1001 cbbf 09af 099e fea8 cfbf
000004d0: 9ac9 305d 2f88 97bf 98f9 bd0c 37ca c6bf
000004e0: ec52 4dc1 ef89 00c0 d5c8 74f2 a77b ed3f
000004f0: 5377 c925 6f2a d5bf 7f42 95e5 c459 0940
00000500: eabb 622a b83a fbbf f903 1830 8de9 ff3f
00000510: 486e ec3f 773e fcbf 76f9 9809 c605 f83f
00000520: 5b26 fba7 1455 d3bf 48ce 364f 119b e33f
00000530: 49d9 2776 093c d3bf cb35 121d 43eb 0540
00000540: 7877 3deb 9e38 0640 76de 6e2f 7952 d6bf
00000550: 71cd e0cd 4d07 de3f 99f0 1232 c70b e83f
00000560: a14f 44a5 13f3 f03f f8c8 6c10 f025 92bf
00000570: 1694 83aa 9cac ebbf 065c a6ff a57e b93f
00000580: a673 e5bb 97e6 c13f ea22 9c9f 9806 c53f
00000590: 2f9d b039 f936 e23f ec66 ff9a a1b4 eabf
000005a0: a082 7c2b 4138 ce3f 4acf 6e98 5a8a 05c0
000005b0: 770c 1ca1 9a0d ea3f 0e3f e26f e9d4 e0bf
000005c0: 95f8 7836 35cb ddbf e446 16c0 f1a2 e33f
000005d0: 3cf2 a8f1 054f dcbf be32 6732 d99e af3f
000005e0: 7191 0afc 7198 e0bf c1df 381d 8a92 f8bf
000005f0: 90fa ef7b 4ff5 dbbf e7bf f3ae 5e6c fcbf
00000600: 371e 8ecd 9a1e f63f 73f1 462c 8efc debf
00000610: c575 3213 df61 0540 0a12 ae2d f4b2 f6bf
00000620: 4b68 f6f0 b6a5 1fc0 a9b4 aa72 79ca d93f
00000630: d9c7 8efe 62ef f5bf b84a d7d8 6392 0dc0
00000640: b8e8 41b4 85e6 ed3f b12d 1928 d8d5 c3bf
00000650: 6244 b073 cd71 c0bf be83 68fc 0814 ecbf
00000660: 85a4 90e2 31e0 e3bf 2c00 3676 1d06 9c3f
00000670: 4434 75be d07f 1440 cba4 445c 4550 0340
00000680: 628a 3e0e c566 aabf 8d4a a95e 8111 ba3f
00000690: b968 af0a 7128 e43f cbca 151b f044 debf
000006a0: 2eab 5245 a8cb f13f be44 d08b 60dd 0440
000006b0: 9b3c 6625 eafc f23f 68e6 efde 0e0f db3f
000006c0: 6614 9caf 1b19 813f a293 e68a 88d9 f93f
000006d0: a52d f859 4a40 e83f 4a2d 7b25 5051 b13f
000006e0: e7e4 f8d4 59a0 16c0 6e6e 8444 5b37 fdbf
000006f0: c61d 9197 f3c2 a0bf 3773 57c9 af50 babf
00000700: 1587 8e58 4bf5 0340 d39d 4f47 c512 d5bf
00000710: 99bd 318d 0ec0 fbbf a221 fcac feb8 d73f
00000720: ac3b 6a7b 8ac8 00c0 9d76 edd7 cf21 e4bf
00000730: 9945 fb80 401c d03f 63e1 586c deef e1bf
00000740: 8a70 de74 ef05 dcbf 9b0f 0875 7715 edbf
00000750: 57ab fc30 85e7 c73f ba53 a0d0 a4e9 ebbf
00000760: 6772 7c54 6f61 0240 da5e 8ccf 436e df3f
00000770: f988 0f29 7d32 0940 bf44 821a 4134 e9bf
00000780: 9b4c ced6 1483 b43f d997 f69f b2e8 c1bf
00000790: f95f 608b 9e7d f1bf f052 92a5 e43f c93f
000007a0: 4ad9 838d ad4b d03f 02d4 e14b b7d4 ff3f
000007b0: 49f4 f4a8 7412 b23f 86a5 0927 f7c9 eb3f
000007c0: 5329 13b2 d19d e83f ca48 0c28 6474 a33f
000007d0: b64e 0bdc 4d20 05c0 19e3 bc82 0879 f83f
000007e0: 2719 183c 0bbc e0bf 84fc d486 ea2b d8bf
000007f0: 7a34 a472 ec44 e1bf 88d0 d385 acca fabf

module.module.layer_1.bias f8 [512]
-1.5712539246313901 -0.2136087434098191 -1.819978956295824 -1.6766607329191803 -0.9005542065109328 0.900439793781276 -0.999058087837735 -0.33602261801603295
-0.3838116308871124 -0.36213723483450344 0.17939463585272 -0.7263249769897742 1.04138741006978 0.8017826413457657 -1.0657155410266228 -0.6396806880582679
1.8331145044076553 -0.04582132309714029 1.0900411293802552 -0.04886179289952533 -1.5375098811301386 1.9071142601077566 0.6548135127548234 -0.9693973042564616
1.3479009435930545 0.1518245338125857 1.2431376458754377 0.5271157965189285 -0.941084991755042 -1.3590714984822854 -1.506744842592618 1.0373549014929853
0.113713693073665 -0.4385372349431567 -0.7311786008687748 -1.9422629442237398 -1.0211257405408714 0.45579211429384087 1.349065185856286 0.12012335392246133
0.2907973051534552 0.6093961144798395 -0.4604803947183112 0.011025688385504223 -0.5534436751905543 -2.000335671063745 -0.21914427814115867 0.4812040594440351
-0.5306045894798292 -0.5532430314779971 -1.7290875203372442 0.7696530666515101 1.717564061838674 -0.8266267104908749 0.18718242637230154 -0.5933780670526463
0.537513202164907 0.6758829039703245 0.11876459316585591 -0.6019297484820707 -0.9578646723583151 -0.5853128830089188 -0.19178684321814796 0.6906790666841967
1.252884172834305 -1.5512751426341516 0.8053229741466648 -1.206905954265578 -0.6624113441160506 -0.5781226715794925 -2.0601200289529173 -0.7138540592606736
-1.74810516673825 -0.40307399637168734 -0.18347900985819532 0.11892439076633482 0.12065326774588354 -0.39414387251789523 -0.0986196402680049 -0.739422408187764
0.3029711123628619 0.8409703711649594 -0.40746592824429795 -1.1322935764253754 0.4148309057498791 -0.08944149519442945 -0.9151093470923021 0.8695506273872474
-0.17124015409644655 0.04690321733986631 -0.212367808832812 -0.14748905911878232 0.3322491996153149 1.146675009759737 -0.46722470220393225 1.6004473651387063
-0.2768663485723626 -0.3689841029181605 -0.7901120854549172 0.5810423649645705 0.22948660074132735 0.9972692128531888 0.5973460124517678 0.21115242591824407
0.8234271495944138 -0.9154362103853171 -0.8494908034223777 -1.3365624421360964 -0.7613207481944726 -0.1719399181212019 0.2204310067107701 0.5010632740144234
-0.11939066889611141 -1.397334157156309 -1.2224527086982557 -0.30968275572240367 -0.822138113578078 -0.3282216618223905 0.9649073688014592 -2.486616934112187
1.0701945811171725 -0.4601586698014776 1.0423791223750287 -0.7771109611790751 -0.8525516424411785 0.11770638698173226 -0.709554765299732 0.4083842980668953
-1.164607015215657 -1.0062971196495847 -0.5467764541049672 -1.2635373202182105 -1.1624453937206323 -1.0474493779363636 -1.3397056401405887 0.7844266070070403
-0.5253516622632377 -0.3298698772147283 1.522900228795795 -0.9974573149133408 -0.8331778461112812 0.25212820874663305 -0.18044013557293614 0.6993223260981951
-0.05780401031760364 -0.27646843571052093 -0.9100170263482771 -0.7684685183708326 -0.04574405221554797 -0.43117450045517347 -0.29175820442276973 0.40678770503700923
0.7538348230193338 -0.09715875584149579 0.2634480993473081 0.7441632091455449 -0.7590524286089877 0.11541509693851067 0.5438937147009468 0.0655421678863137
-0.3505636654260052 1.0224775276626963 0.6726892401228299 -0.3852976358762645 -0.4181104554972945 0.9834475593775561 0.6919636004669301 0.025906556584136167
1.4943373316720943 -0.6461876484687579 -1.2500285801447941 0.3755926944883365 -0.42710040993570986 1.1481433134110883 0.9368341487081051 0.13272139471230485
0.5820152045124789 -1.592416263861738 0.5474527708484355 -1.8936193449692107 -1.2701386162003878 -2.225267226373026 -0.1407823759696384 1.6467336312007919
-2.127628777019613 0.2294923629217854 2.7095000625940036 -1.3091000148425307 0.2030806143560154 0.19952852747461633 -0.6983445929514063 -1.2776432146893977
0.5322945633023356 1.118180875872096 -0.31964531985816597 0.05747905071517081 2.368255619910578 -2.00957149943811 -0.4269578034396463 -0.3702246505528081
-0.28217881776073933 0.4330755608886924 -0.7595675792236031 -0.007019405397767945 -0.40951586286363323 0.3426316244937749 0.756874262197457 -0.23390835541849828
0.9089554795964908 -1.3057533509468802 1.761298163657508 0.24764522687652063 -0.32885439198529964 -0.5942702943040341 1.2765815413307977 -0.41883199531420506
-0.3756337055719437 0.19158479809420445 0.03692152462435952 1.1604912633442939 -2.2214207599900786 -0.3322904767042433 0.710242818807003 -0.03041557393195977
-1.618798903131283 -1.8068025697281267 1.648600995202977 0.21105138909440466 -0.8048358306495049 -1.9505206341458974 0.7474286207792517 -0.8390322358951506
2.004329071995681 -0.2692223487752575 0.7908738930954253 0.7032023305464482 -0.622860982705023 -0.9063357323503953 -0.019538591648483386 -1.7852214033615392
2.395773949188971 -1.2178189354032447 0.46507271564111685 0.01589131337437758 0.1456257211809284 0.3925977653070194 -2.1753274205074273 -0.963673742900359
0.8413384099081171 1.4323553322873948 -1.9882689136821374 -1.146419016321244 -0.3409563817916555 0.6926991294410196 0.4131469385038498 0.5568992323102975
00000000: 360e c027 db23 f9bf aadb 8a03 8857 cbbf
00000010: 312e 0b41 a21e fdbf 1b01 6634 9ad3 fabf
00000020: 83ab 270e 57d1 ecbf 92d7 491d 67d0 ec3f
00000030: df27 c2aa 48f8 efbf 2217 c602 6581 d5bf
00000040: 3703 9fa8 5e90 d8bf cecb 11a7 412d d7bf
00000050: 7d5a 0847 67f6 c63f 8e0c cee0 0d3e e7bf
00000060: 1b74 4bd8 85a9 f03f f593 e211 34a8 e93f
00000070: cdc5 38bd 2b0d f1bf 2cfa 62a2 4378 e4bf
00000080: e810 e4df 6f54 fd3f 04c6 5278 e475 a7bf
00000090: c8ba 9ff7 ce70 f13f 9405 0eb5 6904 a9bf
000000a0: 54b1 0bf6 a399 f8bf 6c5e 0e3e 8a83 fe3f
000000b0: d858 c877 3bf4 e43f 0896 d37e 4d05 efbf
000000c0: e4ac 6f94 0091 f53f e24d ba7f fc6e c33f
000000d0: 0962 d74c e4e3 f33f 091f 68f2 21de e03f
000000e0: cb04 cb45 5e1d eebf 9a83 6ec1 c1be f5bf
000000f0: a3a1 e57a a01b f8bf 6e1f 0474 0199 f03f
00000100: 8ad8 db30 571c bd3f 212f 8a7a fe10 dcbf
00000110: 8e86 48aa d065 e7bf 35c7 1a4f 8213 ffbf
00000120: 12a1 cbf1 8756 f0bf e1ab 2ab0 b22b dd3f
00000130: 6fcc 5660 c595 f53f b132 9574 67c0 be3f
00000140: 9589 d94c 6c9c d23f 2303 c047 2c80 e33f
00000150: 95ea f0c2 8278 ddbf 03c6 40d8 a294 863f
00000160: 24e3 a382 cfb5 e1bf 91ed 01fd af00 00c0
00000170: 1464 dc71 eb0c ccbf baee 801c 0ccc de3f
00000180: 448c dd79 b6fa e0bf 3f03 deba 2ab4 e1bf
00000190: bc52 fcac 57aa fbbf 5919 d177 ffa0 e83f
000001a0: c81c 2674 247b fb3f 26de f1db b973 eabf
000001b0: d4d5 d3ff 97f5 c73f 36f4 0400 f4fc e2bf
000001c0: aaed 0ee3 4e33 e13f 344c 0f2f d5a0 e53f
000001d0: d4f1 913b 5b67 be3f 3c0a 072d 0243 e3bf
000001e0: 1cba 38d0 d3a6 eebf cb6c 4e15 e2ba e2bf
000001f0: 3767 b6a5 788c c8bf fc17 6efc 0a1a e63f
00000200: 58fd 3f46 d00b f43f f661 4be2 05d2 f8bf
00000210: 16ad 95af 34c5 e93f 7ab1 2e9e 7c4f f3bf
00000220: 764a 6f46 7932 e5bf 7c52 f01d fb7f e2bf
00000230: b37f b135 207b 00c0 ab86 d477 e4d7 e6bf
00000240: 25c0 911f 3df8 fbbf ef33 12e0 f6cb d9bf
00000250: e0f4 6b7d 3d7c c7bf 0cc3 0931 d471 be3f
00000260: 1dc5 1fef 21e3 be3f 9585 9838 a739 d9bf
00000270: f4c1 b101 233f b9bf 8112 a32e 59a9 e7bf
00000280: 86cc cef2 e063 d33f 16df 21b2 3ae9 ea3f
00000290: 66c9 02f9 eb13 dabf 5f7c 83de df1d f2bf
000002a0: e335 64ed 968c da3f 48f2 c348 a3e5 b6bf
000002b0: abcf c065 9348 edbf 3906 5bd6 5bd3 eb3f
000002c0: 3899 cd86 32eb c5bf 6a93 1ad1 b203 a83f
000002d0: 677e d44c de2e cbbf e96b b7e6 ebe0 c2bf
000002e0: b713 9e25 9243 d53f d3ef 20e5 c758 f23f
000002f0: c159 f66f 02e7 ddbf 82d7 43b2 6e9b f93f
00000300: 88cc 1ea2 2db8 d1bf e1c0 b17f 6f9d d7bf
00000310: d580 e623 9948 e9bf 5fa0 6328 e697 e23f
00000320: 5df0 8622 d15f cd3f 3263 d01f a1e9 ef3f
00000330: 120b 7c62 751d e33f 221c e5ed 0a07 cb3f
00000340: 2fb0 c4e4 8359 ea3f 4abb 25e1 404b edbf
00000350: c775 5e56 072f ebbf 3495 a04c 8f62 f5bf
00000360: 4c5e 6854 bd5c e8bf b48e 9a92 2002 c6bf
00000370: 3c6e 6c4e 1537 cc3f dccb e3d8 b508 e03f
00000380: 9a3a 5b0a 6390 bebf 031f a90f 7b5b f6bf
00000390: fe3f 4c92 2a8f f3bf d69f fd9e d7d1 d3bf
000003a0: 859d d396 f44e eabf 8b6b d76d 9501 d5bf
000003b0: 637e 156b 85e0 ee3f 7588 4d6b 97e4 03c0
000003c0: 2613 645a 841f f13f 572a 7159 3d73 ddbf
000003d0: 9424 0abb 95ad f03f 7512 74ce 17de e8bf
000003e0: 48f3 cd61 1a48 ebbf 8dea 9d7a 0122 be3f
000003f0: a2dd f531 acb4 e6bf 3d6c 19e5 f722 da3f
00000400: dab1 30f7 3aa2 f2bf 7143 2f02 cb19 f0bf
00000410: 5751 9355 317f e1bf 98cd b9e8 7237 f4bf
00000420: c5a7 5657 6099 f2bf 513c 6747 5ac2 f0bf
00000430: abba 6a2e 6f6f f5bf b2a3 e6d3 051a e93f
00000440: 283c 0a4a aecf e0bf a7a8 a48b 961c d5bf
00000450: 51fb 5ba1 cc5d f83f 42ae 569a 2beb efbf
00000460: ed96 1996 64a9 eabf 7dd0 bd5a de22 d03f
00000470: e8f5 9590 a918 c7bf 688a fe36 d960 e63f
00000480: 0294 c8bb 7c98 adbf 9830 70aa a8b1 d1bf
00000490: 3702 df06 dc1e edbf ce10 4d4a 4b97 e8bf
000004a0: cb2c 81b0 c36b a7bf 2cbe 94ee 5c98 dbbf
000004b0: 7b78 959a 2aac d2bf 5820 634c cf08 da3f
000004c0: 0f87 ee34 6a1f e83f 57f9 db6e 65df b8bf
000004d0: 89f6 b86a 55dc d03f 2954 c55c 2fd0 e73f
000004e0: 3666 9a51 284a e8bf 65c9 d002 d88b bd3f
000004f0: 267f a4ca 9367 e13f 0ea6 941b 5fc7 b03f
00000500: c1ea 8a95 a26f d6bf a94c 6365 115c f03f
00000510: 4e5b d695 ab86 e53f 9723 546a b7a8 d8bf
00000520: af7f 1e5b 52c2 dabf a371 1b04 6778 ef3f
00000530: 5ae4 40d9 9024 e63f 1494 1f95 3f87 9a3f
00000540: a993 0b43 cee8 f73f 2614 28b8 91ad e4bf
00000550: 6598 ecf7 1d00 f4bf 4369 dcf0 b509 d83f
00000560: 640d 32f5 9c55 dbbf 188c e385 cb5e f23f
00000570: 2446 cf9b 8bfa ed3f e569 e2c0 03fd c03f
00000580: b6fc a459 de9f e23f 8979 ee79 897a f9bf
00000590: 6fc1 5cac bb84 e13f 8473 5bcc 434c febf
000005a0: 507a 9fde 7c52 f4bf ed0f 51e7 58cd 01c0
000005b0: 6546 522a 2805 c2bf 0eb1 335d 0559 fa3f
000005c0: 299f 7a3c 6205 01c0 7b25 b778 0160 cd3f
000005d0: 41cf 6a5e 0ead 0540 8c11 6fdb 12f2 f4bf
000005e0: 932a 8eaa 8bfe c93f 8fae 0f9a 268a c93f
000005f0: 3412 82c2 d658 e6bf 9ec1 f002 3a71 f4bf
00000600: b71b a79b 8e08 e13f f221 4ea1 11e4 f13f
00000610: dd0e c7a4 1175 d4bf a3b6 0de6 e46d ad3f
00000620: 51ac a000 30f2 0240 a17b e838 9a13 00c0
00000630: d2e5 a2d2 4653 dbbf 9b07 93bb c2b1 d7bf
00000640: 2301 7abe 370f d2bf bfae ad8e 82b7 db3f
00000650: a1c0 fbaa 604e e8bf 2ab6 ee49 61c0 7cbf
00000660: 5752 8c05 8235 dabf e1ab 7131 aded d53f
00000670: 854f 6a5f 5038 e83f d34c 6480 b5f0 cdbf
00000680: ad61 4ccd 2916 ed3f 2259 2fa0 5de4 f4bf
00000690: 249f b6fb 462e fc3f e2fa 38bb d6b2 cf3f
000006a0: ca42 ae4a f30b d5bf d6a4 e022 4304 e3bf
000006b0: ba16 2bc4 e06c f43f dd25 99b6 24ce dabf
000006c0: 113c 2df4 610a d8bf f7d8 1cc5 d985 c83f
000006d0: 0467 8fc9 60e7 a23f 2eb8 7549 5f91 f23f
000006e0: b980 563f 78c5 01c0 eae2 8d46 3f44 d5bf
000006f0: 7bd6 df25 4fba e63f 73ae 4e9d 4225 9fbf
00000700: 16fe bbad 99e6 f9bf 1efa b4cf a9e8 fcbf
00000710: 24cc e86f ab60 fa3f 93c9 f75e bb03 cb3f
00000720: 5c3c 6912 37c1 e9bf e746 dd1f 5535 ffbf
00000730: b3eb 4a6d efea e73f a5b3 ae21 5ad9 eabf
00000740: d925 35ae dd08 0040 eee3 d55f f03a d1bf
00000750: 965c 43c4 d64e e93f 1160 852c a280 e63f
00000760: 1585 d527 7aee e3bf 5c84 34cb b300 edbf
00000770: 847f 8fb0 ec01 94bf 9ee9 7851 4490 fcbf
00000780: d000 4388 8b2a 0340 831a 40b5 2f7c f3bf
00000790: 3a31 fc59 c0c3 dd3f aa0a effc cf45 903f
000007a0: 27d9 f616 dda3 c23f 387c 9e60 5220 d93f
000007b0: 1c5f 0910 1267 01c0 a8ab 3851 6ad6 eebf
000007c0: 7491 6d87 3eec ea3f 26cf c66c edea f63f
000007d0: 0fb1 7e10 f3cf ffbf b5cb 6977 bb57 f2bf
000007e0: f116 4ab7 3ad2 d5bf d656 5d5d 972a e63f
000007f0: 7d42 54db ff70 da3f 6616 be56 1ed2 e13f

module.module.layer_2.weight f8 [128, 512]
0.09812214479033535 -0.34983231016473126 -0.23342925091246702 0.34727874334594744 0.1518333044270262 -0.6324163879886027 0.30655598293682945 -0.3935899845261905
0.8907545896362297 -0.046602818375073955 0.48367543034170263 -0.08860867604704323 -0.8735460918261555 0.024009811890483485 0.111991456231938 0.7504294983718565
0.09101018153797377 0.07485416856048353 -0.0012739653206568498 -0.15891114522806116 -0.26962562320784034 -1.2289178839732944 0.16119053191288893 -0.22294507405201783
-0.17463208263888116 0.31790062654487355 0.051447557881365846 -0.16355131415822316 -1.164860905938699 -0.7785608330765508 -0.4154620479381926 0.8633671961548858
0.37733961486645895 -0.05399824835804901 0.8755000549935938 0.09680689793435933 0.22034652122535187 -0.19062052486815156 -0.3760938914347746 0.2274727300838109
-0.40724697527118925 -0.48134372241397383 -0.6354702944900388 -0.3437007711638948 0.08550241891913664 0.23332029395721954 -0.5653087022492175 0.03437289659393214
0.17881134127874548 0.15904918759526013 -0.13304184894492202 0.03784072806766556 -1.2470132574162043 -0.8553944689403454 -0.1405098196166035 -1.1768131831073445
0.41309207800130615 -0.6411779667953011 -0.1600895339052745 0.34297785396400116 0.9086851325397827 1.074158849783196 0.025100827600606335 -0.46318128153847027
-1.029871305608261 -0.2640982024891534 -0.398339395916237 -0.028467594214147404 -0.680813157503845 -0.5662710681976268 -0.3739988983604691 0.15422700995841113
-0.6836791185299503 0.41808818094155625 -0.2258921831237955 0.13203327062529777 -0.13673855487988018 0.30520266768172666 0.17699432022426323 -1.235702717651124
0.44653099062477536 0.16135165240039612 -0.43991587364855145 0.18611674012198176 0.32989974932661226 0.3612680413812315 0.14090722738259354 0.35747941513694054
0.1662055864762345 0.4652822852890511 -0.4110591655144449 -0.0024625685561407793 -0.4236657404339919 0.040328916098669024 -0.36605444244120816 0.1645157263788825
-0.3451864080839872 -0.6668857073606941 -0.08583709801922028 0.30697506754403137 0.0013665573795319432 -0.16367029437139866 0.1353314753888198 0.06401276676124383
-0.11409409069810464 -0.6430953800534249 -0.4711043963600936 0.7462711805343478 -0.4384012953277572 0.1804347061452564 -0.2744929989479274 0.08073437246832028
-0.25502521038585413 0.07678334300208646 -0.0634887002313116 0.18210435916605208 -0.27729718414203597 0.6951212809006555 0.7091142858636014 0.2624698393258226
0.20079026475432615 0.109515158722162 0.027215047354603894 0.8835688790449284 -0.8584980841814366 -0.30972194174241124 -0.001085991322633406 0.03713179147621138
-0.16510312335157692 0.015670640178633264 1.3500550239025813 -0.053209907091250334 0.20509037983001935 -1.0350817652651931 -0.18584772174431932 0.32114742225872694
-0.3602314539648197 -0.02115079693669362 -0.2897611760327385 -0.15960878652336719 0.024419478091552975 -0.3818026432039511 0.09702510235845274 0.06141433063396956
-0.6474259941454078 -0.16229482681077573 -0.46706643279328186 -0.11432742521820576 -0.39255446049031173 0.036771401844629674 1.1241056032431582 0.2713766916886493
-0.41488664060039526 -0.08353193167241366 -0.4687269972641202 -0.1388793610445169 0.5828897651117826 -0.17874910221056756 -0.29629045592067765 -0.06420499237477252
-0.6776233357519884 -0.11885942505175595 -0.9445885331617639 -0.9176080940374423 0.17693743932101627 -0.05888420572240426 0.19483414374811794 -0.5245546950822225
0.4160269182141995 -0.9307500014099845 0.3189781919231072 0.023458308432989884 0.012867534626545852 0.8683330031902727 -0.8843819256612157 -0.03961446160606988
0.18150455309458557 0.19202675574990236 0.6540101974076106 -0.008412214387708401 0.011437895238428347 0.2762649629901779 -0.041430053564800465 -0.7377545555858098
-0.04450689215816871 0.16349742537430428 -1.3592987124854905 -0.19540076920545657 -0.10338067487205309 0.5789382439168174 -0.38745860374561353 0.18086141649673468
-0.29641093008649444 -0.16932008413874436 -0.9543902084291512 -0.13264730692906837 -1.3219987199873127 0.08807813323004147 -0.5666450052036129 -0.2627296350715567
-0.05454348295953454 0.2770929442551035 0.26809635902256607 -0.8736012526614079 -0.23767658051614327 -0.0880699645024039 -0.7021683121013267 0.20678702977910604
0.06329976891726913 0.028426414808713628 -0.3363809870714304 -0.13251570919424507 -0.19181476694686586 -0.08697935621998999 0.14631748295992372 0.8120688632634713
0.591184994849983 -0.14971407431080477 -0.3886910340967432 0.1096454608360637 0.14726357312117871 -0.6031999616409162 -0.07956100992015994 0.20853547142829304
0.16614510868817137 0.08184753999738104 -0.9654543331411974 0.6588100359286553 0.3539297976685741 0.277241559545635 -0.49653733198085 -0.061529299041169126
0.43344453245416353 0.24249361011025494 -0.41701265985273755 0.05214656287167441 0.7342688203255613 -0.09204369522757103 -0.10531681750819162 0.2936217219193059
-0.6516338072236931 -0.002408635511310268 -0.2991334196946465 0.011154197697254812 0.23035783435410864 0.029626579434267337 -0.1583374528001086 0.24304607560563848
0.5384642747212229 -0.28512287907900286 0.489080753231568 0.25574328628645154 -0.009182744450175757 -0.6211752392480242 -0.13732278936486003 -0.2516156949495193
00000000: 424b e36a 881e b93f 2e77 cf0e a763 d6bf
00000010: 44a6 4c7b 02e1 cdbf 9c13 519f d039 d63f
00000020: 9295 7a12 466f c33f 24b2 fb4a c13c e4bf
00000030: 15d6 46fc 9c9e d33f 3bae e40b 9430 d9bf
00000040: f6fb e7c4 0f81 ec3f bf0d a519 53dc a7bf
00000050: d190 ccca 89f4 de3f 8e8f c3e5 0eaf b6bf
00000060: 7624 feee 16f4 ebbf 4834 6933 0796 983f
00000070: 3395 f2d9 78ab bc3f f2be 2eb9 8403 e83f
00000080: be01 4f79 714c b73f 9fc1 ef8d a429 b33f
00000090: 7e84 dcd8 65df 54bf 18ba dc4d 3357 c4bf
000000a0: bed7 75d4 8b41 d1bf 3b28 92cc a5a9 f3bf
000000b0: 55cf 7e2f e4a1 c43f 99c9 edd4 7689 ccbf
000000c0: 3718 e215 585a c6bf 4fd7 98de 7b58 d43f
000000d0: 287b 1e95 5557 aa3f 8681 c3dc 3fef c4bf
000000e0: 8f54 7630 45a3 f2bf 6254 8068 f8e9 e8bf
000000f0: 0deb 2721 ee96 dabf 1b95 fd3d b4a0 eb3f
00000100: 1c8c 550e 5526 d83f 216c 7a8d a8a5 abbf
00000110: 7cff fab0 1804 ec3f a5c0 a73c 56c8 b83f
00000120: fea1 3997 5034 cc3f fea5 20dc 4066 c8bf
00000130: cb03 fc1c ec11 d8bf 018d 3890 d31d cd3f
00000140: c6d1 0b9e 5510 dabf 70c9 79e6 55ce debf
00000150: 2c41 8dcc c555 e4bf f391 f084 31ff d5bf
00000160: bd90 fc8c 7ce3 b53f e409 057c 70dd cd3f
00000170: 35bf 8946 0217 e2bf acbd 7a05 5399 a13f
00000180: 061a 793f 4ae3 c63f 4da8 9649 b95b c43f
00000190: 45e1 1beb 8307 c1bf dcd0 0323 dc5f a33f
000001a0: 167f 642c c4f3 f3bf f6e5 a838 645f ebbf
000001b0: f994 02cc 39fc c1bf cc29 6f0f 3ad4 f2bf
000001c0: 8925 50c1 1970 da3f a5a6 c9a7 8784 e4bf
000001d0: 750b 4758 d07d c4bf 00c5 8162 59f3 d53f
000001e0: 56d5 d3d7 f213 ed3f e271 a830 c12f f13f
000001f0: 70ab 9606 08b4 993f 2eef 141a c3a4 ddbf
00000200: 22d2 8a55 5a7a f0bf 24e4 a725 fce6 d0bf
00000210: e6ca 8a85 647e d9bf 2f0e 95e8 9b26 9dbf
00000220: de4b c5ac 38c9 e5bf aa8d d280 e41e e2bf
00000230: 03b0 4c13 99ef d7bf f132 f7ed b5bd c33f
00000240: 736a e107 b3e0 e5bf 453d ffed f4c1 da3f
00000250: ca28 78f9 08ea ccbf b7e7 a859 77e6 c03f
00000260: 84db a722 a680 c1bf 0614 16c5 7088 d33f
00000270: 7171 78f8 bfa7 c63f 073d 7e36 70c5 f3bf
00000280: b391 58b8 f693 dc3f ae8d 1bc3 2ba7 c43f
00000290: 7af4 93e8 9427 dcbf 04f1 0760 acd2 c73f
000002a0: dc3f 94d6 131d d53f 9ca1 b4fd 031f d73f
000002b0: 506b b07e 3f09 c23f 5168 4057 f1e0 d63f
000002c0: 84f9 2983 3946 c53f 1d60 ae59 2fc7 dd3f
000002d0: 04c2 261a cb4e dabf d483 356d 612c 64bf
000002e0: 2d60 e6e8 561d dbbf ba2d 74df fda5 a43f
000002f0: cfca b59c 6f6d d7bf 4ecc 3cf0 d90e c53f
00000300: d3a4 6fbb 8817 d6bf 9716 e9b1 2057 e5bf
00000310: 53ae c688 6bf9 b5bf 127f f2c0 7aa5 d33f
00000320: d861 34d0 c163 563f d36f d3f0 25f3 c4bf
00000330: 620b 75b2 8a52 c13f c319 c403 2463 b03f
00000340: 7a18 3734 4535 bdbf 8838 31c3 3c94 e4bf
00000350: 4094 d70d 9326 debf 6af4 4a19 74e1 e73f
00000360: 783b 7d4e c40e dcbf 0d87 fa04 7c18 c73f
00000370: 7f96 5d15 4b91 d1bf e11d 6a01 02ab b43f
00000380: 1cd1 9042 5552 d0bf 994e 12bb 12a8 b33f
00000390: 41b6 28a3 cb40 b0bf b9e2 8915 324f c73f
000003a0: 846d 4ab0 3cbf d1bf 2c1a 07fc 6e3e e63f
000003b0: 5523 5d71 10b1 e63f 62cf 054c 4ecc d03f
000003c0: 34cd 3cd2 7eb3 c93f 58c0 2079 2f09 bc3f
000003d0: 2072 63e9 42de 9b3f f55c e83d 3246 ec3f
000003e0: 159d 67f9 d078 ebbf 17c9 a8fa 7bd2 d3bf
000003f0: 998d b94d faca 51bf 117f 102c f002 a33f
00000400: d798 a161 1922 c5bf 7967 4cdc f60b 903f
00000410: b364 f74b d399 f53f b76b 8f35 543e abbf
00000420: 250d 0ccd 6640 ca3f cfff a7e5 b18f f0bf
00000430: 61c7 76af dbc9 c7bf 98f0 f2ea ad8d d43f
00000440: 583e 713a 080e d7bf 9b7e 82f4 8da8 95bf
00000450: d782 ad75 728b d2bf 6cd4 228b 0f6e c4bf
00000460: fe88 276f 6b01 993f c296 855a 746f d8bf
00000470: 8046 8519 a3d6 b83f 3842 28fb b271 af3f
00000480: ffe9 edb7 b6b7 e4bf 862b bbae 13c6 c4bf
00000490: 8c04 7a9b 6ae4 ddbf bb1b 59e8 8f44 bdbf
000004a0: a81b 6dbe 9c1f d9bf 9f96 b380 b3d3 a23f
000004b0: 1ee0 3228 56fc f13f 5cc3 ec57 3c5e d13f
000004c0: a443 3bb2 808d dabf be68 b442 5962 b5bf
000004d0: 7d1b 0085 9fff ddbf 1746 e384 ccc6 c1bf
000004e0: d880 ca6f 08a7 e23f 1685 1726 40e1 c6bf
000004f0: 99f5 923e 6cf6 d2bf f154 7d06 bd6f b0bf
00000500: 7ff5 4122 17af e5bf f82c 6b3f 926d bebf
00000510: 8767 43bb 113a eebf 50f1 4da6 0b5d edbf
00000520: 152f a9d1 e2a5 c63f 6f46 a813 1226 aebf
00000530: 0d6b c541 53f0 c83f bbec 8aed 26c9 e0bf
00000540: f314 ff5d 2fa0 da3f ced9 193a b4c8 edbf
00000550: f19a 9c81 236a d43f da1c 286e 7405 983f
00000560: 6d94 3543 4b5a 8a3f 80ab 574b 62c9 eb3f
00000570: f96d fc52 db4c ecbf 64eb 17c2 5848 a4bf
00000580: 40e4 ce8b 8a3b c73f 4c8f f32d 5594 c83f
00000590: d7b7 23cb a6ed e43f 240a 754d 6c3a 81bf
000005a0: 567c df4f c06c 873f a4b3 443d 53ae d13f
000005b0: e2c2 43ea 5136 a5bf 06ea 1671 af9b e7bf
000005c0: 6e28 887c 9bc9 a6bf 423e 7bcf 7bed c43f
000005d0: e2eb b901 b0bf f5bf 14e3 ac74 e402 c9bf
000005e0: 0b27 9de9 2777 babf 48d8 007f a986 e23f
000005f0: f709 e92b 1fcc d8bf 5319 7b86 7726 c73f
00000600: fa7f b98c 65f8 d2bf b147 f7cf 47ac c5bf
00000610: 2f6d 9a55 5d8a eebf 61d7 9442 96fa c0bf
00000620: 9e30 3b21 e826 f5bf fb3b b7dd 498c b63f
00000630: 1052 b9b4 f421 e2bf 65a1 94f5 8fd0 d0bf
00000640: 18d2 0a97 1fed abbf 17cb 610b e4bb d13f
00000650: 1d6e 8ba1 7d28 d13f b69c 3d9d 8af4 ebbf
00000660: e4c4 2baa 2f6c cebf 7036 4cd1 c08b b6bf
00000670: 3268 18ae 2978 e6bf cdb1 1155 ff77 ca3f
00000680: 3c12 58e5 6934 b03f 76a8 c867 d01b 9d3f
00000690: 96f3 9d1e 4487 d5bf 1907 9956 46f6 c0bf
000006a0: 7d9c 76e3 628d c8bf 8959 6472 4744 b6bf
000006b0: 2bad 1202 88ba c23f cf20 3ad7 77fc e93f
000006c0: 0888 58cb fcea e23f 9939 75ae d429 c3bf
000006d0: 6669 ec5b 50e0 d8bf 2d1c 7294 b911 bc3f
000006e0: e249 3963 88d9 c23f 2f47 8601 6a4d e3bf
000006f0: 4ad1 a43f 1c5e b4bf 3a94 eb52 4ab1 ca3f
00000700: 3960 1a30 3e44 c53f 50fb 8bdb f5f3 b43f
00000710: 0fef 537c 00e5 eebf 96e2 d2c8 f814 e53f
00000720: 4540 842a c9a6 d63f 64cb d561 53be d13f
00000730: 4174 8684 44c7 dfbf 2358 41ae c480 afbf
00000740: 3752 e122 8ebd db3f 74cd 74d6 070a cf3f
00000750: 8178 05de 55b0 dabf a0ea 434c f4b2 aa3f
00000760: 47aa 3853 217f e73f 462f cef4 2c90 b7bf
00000770: a59e eafe 0af6 babf d678 42c3 b2ca d23f
00000780: a4cc 5f24 2fda e4bf 8950 f857 46bb 63bf
00000790: 61aa ae7f 0025 d3bf cf26 9512 03d8 863f
000007a0: f1d1 7692 5d7c cd3f 32d3 0c17 6e56 9e3f
000007b0: 9513 c1d2 6644 c4bf b7dc 1241 221c cf3f
000007c0: 90be 3f6e 193b e13f 6115 3f08 743f d2bf
000007d0: 6de3 0e5c 194d df3f 6566 b116 195e d03f
000007e0: 04e9 ce18 67ce 82bf b9f7 34e5 aae0 e3bf
000007f0: 26a6 a80c cb93 c1bf defb 3db7 781a d0bf

module.module.layer_2.bias f8 [128]
-0.12216352772286253 0.05092568431103466 -0.07061997625461575 0.08627539961826687 -0.09310391613124984 0.06289055318310877 0.019922707057687335 0.03685408865377211
0.06377365522279488 0.09071100655214918 -0.06804721494336276 0.10824482918410437 0.0180306635456336 0.13631380540750254 -0.0364629577125725 -0.038990210015270296
-0.020396920558157592 0.036835652190571555 -0.15647026812257134 0.16873457467574401 0.13749808617480921 0.09575024164542568 -0.10894140186449192 0.09927840632718321
0.03201260822476421 0.022536515567779147 0.01691709554827939 -0.1314532913455422 -0.1166615806266309 0.05891639759632726 -0.09275809740642289 -0.03634443441835431
-0.10716215012506196 -0.15901491117603941 0.06400162869590756 0.11100473563394882 0.020275563001739452 -0.13947778447323278 0.055458995646170725 0.13092996985365551
0.10722495879960305 0.05003405918236857 0.03716281320244133 -0.033767040306779045 0.17684299080249172 -0.0921457752052669 -0.007178939920889191 0.12849435701372183
-0.011421912691570326 0.17152663364413254 -0.05963941501764988 0.07282293173920115 0.051340615341768994 -0.019881828948790155 0.034989905383577775 0.008167656624900573
-0.023882710708710987 0.09900313075863727 -0.09601764596930933 -0.021253191760618604 -0.12320953025156846 0.033590473601489916 -0.057953055865474355 -0.020735949828799463
0.0802882262770104 0.01345348499606246 0.043152789487948866 0.053918502036638595 0.059698754032913894 -0.0064742785246004395 0.14929870785825783 -0.09530902805581465
0.1301553851197654 -0.03280907066799635 0.20746218416434872 0.11426764184949563 0.06795778582696094 -0.06847883956575485 -0.04235451214311304 -0.04364249921979936
-0.020526835462363165 0.03603964240255117 0.0237888503521099 0.06639655182593354 -0.02527297617585405 -0.06658657902900003 0.050254371932414985 0.09218094943404416
0.07367693664186911 0.07584024359783456 0.026153717269064472 0.0927505074981631 0.05620646524804248 -0.010487218305788802 -0.06704599004828682 0.02691903296735236
0.04308540877395539 0.19883698626149085 -0.07384687273653039 -0.04371211687422376 -0.01613572425929091 -0.11826836831908398 0.0897994658717788 -0.09818479473594582
-0.03804373995786247 0.06717340836252489 -0.005275769176620812 -0.029599321899609864 -0.14264646783698487 0.07740484859256512 0.02319737146556777 0.02429928646766696
-0.009886935906435005 0.12981861095175212 0.20057808163782398 -0.10924823654275402 0.16526441150501625 0.08239231951822891 0.03723601005987993 0.24165954681145055
-0.10148166164134946 -0.1229192994469858 -0.22762336098318392 -0.040002934441445516 0.030948672056082958 0.11916813858720696 0.2383208607073047 0.13255540359894769
00000000: 4f6c 55e4 1b46 bfbf 67dd 4869 ee12 aa3f
00000010: 0c37 7598 2614 b2bf 354e cf03 2516 b63f
00000020: 6bca e982 a8d5 b7bf d017 2665 9819 b03f
00000030: 0fcf 0a3d 9e66 943f ead1 fb02 8ade a23f
00000040: 983d 8763 7853 b03f 5b5a 8726 d638 b73f
00000050: 0900 c4d2 8a6b b1bf b78c 4ee1 eeb5 bb3f
00000060: 91c3 0359 a176 923f d6f8 1b14 bb72 c13f
00000070: f527 c8d5 45ab a2bf 966f c259 86f6 a3bf
00000080: 0912 f22a eee2 94bf e87d f862 1fdc a23f
00000090: 6fff 30be 3707 c4bf bfe8 f733 1899 c53f
000000a0: 1913 b18b 8999 c13f e181 737c 1683 b83f
000000b0: 143a 306e 95e3 bbbf f0ce 5f44 4f6a b93f
000000c0: b921 c5e2 f463 a03f e34f 51f5 cf13 973f
000000d0: 891f 7e10 b752 913f c9ec a321 76d3 c0bf
000000e0: 40b5 7d89 88dd bdbf eeab bf41 4a2a ae3f
000000f0: a5bd cca2 febe b7bf 7dd8 6fda bc9b a2bf
00000100: a3fb 278a fa6e bbbf 5de9 89c1 995a c4bf
00000110: a2c0 2326 6962 b03f 45ba 3f6d ce6a bc3f
00000120: 3478 0000 1ec3 943f 8c60 6a75 68da c1bf
00000130: 8e7c 2319 1f65 ac3f 4a3a 4b31 50c2 c03f
00000140: 51f7 5b4b 1873 bb3f 8eb1 bf6f 109e a93f
00000150: 44e7 a916 0107 a33f d4c4 99db e949 a1bf
00000160: 0e03 0387 caa2 c63f d89f f892 dd96 b7bf
00000170: bdf7 e102 aa67 7dbf 0918 8cca 8072 c03f
00000180: 3b97 be2b 5f64 87bf b77f f2b0 95f4 c53f
00000190: 4c54 1bb2 0e89 aebf 56fd 370e 86a4 b23f
000001a0: 5ae6 b22f 5149 aa3f d297 7af4 e65b 94bf
000001b0: 390d a066 32ea a13f 3114 b650 34ba 803f
000001c0: 0a27 bc95 b574 98bf 7559 cfe8 4458 b93f
000001d0: 5bef 46c9 9c94 b8bf e99c 308e 65c3 95bf
000001e0: 196b fce6 a88a bfbf 8fae 2643 c532 a13f
000001f0: 7b7b 4adf 05ac adbf a4fa 7609 ce3b 95bf
00000200: 6215 1dea c48d b43f ba3e 9a30 808d 8b3f
00000210: 7ff0 2957 1f18 a63f 9d18 cbb5 349b ab3f
00000220: 3ddb 5dc8 d590 ae3f 5823 74e8 c584 7abf
00000230: 140b cb55 381c c33f b065 8326 2c66 b8bf
00000240: 376c 3e81 eea8 c03f 14f9 0fbb 59cc a0bf
00000250: f140 12f0 1e8e ca3f 5d10 bce8 a440 bd3f
00000260: 94a7 a273 ae65 b13f 9827 6748 d487 b1bf
00000270: e143 fc98 7daf a5bf b2bf ba45 4f58 a6bf
00000280: 8f40 019c fc04 95bf ecfc f4ba c973 a23f
00000290: a945 16b9 1a5c 983f 82d8 a84a 5dff b03f
000002a0: ee6d 97b8 28e1 99bf 0a36 486b d10b b1bf
000002b0: 4e8a dce7 f0ba a93f bd29 22b3 2b99 b73f
000002c0: 96a6 58e1 7ddc b23f f62e f925 446a b33f
000002d0: 049c 5b41 0ac8 9a3f fc5a 644c 7fbe b73f
000002e0: 1bd2 2004 18c7 ac3f bfeb 319d 527a 85bf
000002f0: 68d8 950e ed29 b1bf 8c5b f0b8 a990 9b3f
00000300: 60e4 3c6b 4a0f a63f 1539 9d88 7d73 c93f
00000310: abb5 50ef a0e7 b2bf 36d3 d340 6f61 a6bf
00000320: e7b5 f61f e285 90bf 73ed 14f6 d546 bebf
00000330: 4918 1e09 19fd b63f e4f8 5a82 a322 b9bf
00000340: 2f83 df15 787a a3bf 14f1 13c8 4632 b13f
00000350: 3d82 3281 0b9c 75bf 969f 2bde 484f 9ebf
00000360: 54f8 1f4d 3d42 c2bf 1fc4 41dd cdd0 b33f
00000370: 7fec 303f 0dc1 973f 7770 c782 e9e1 983f
00000380: 559c 0113 9a3f 84bf 1297 3970 e59d c03f
00000390: 48e5 76e6 8aac c93f edc7 1843 b1f7 bbbf
000003a0: 5ca9 4d5d 6227 c53f 69ba c5bd a917 b53f
000003b0: e9a4 e12a 9910 a33f 5d22 2935 b3ee ce3f
000003c0: 83b1 e4c1 b3fa b9bf 7b0a 2ca3 a377 bfbf
000003d0: 783b 9d25 c322 cdbf 8d0f 57be 437b a4bf
000003e0: b98e 5739 02b1 9f3f 4e0e f599 cd81 be3f
000003f0: 0ba2 5847 4c81 ce3f b4ca ae51 93f7 c03f
