old_models/old_kml_ml/saved/7_ft-33_pct-all_wl-60_epch.pt (torch, 634920 bytes, 8 tensors)

module.module.layer_1.weight f8 [512, 7]
0	0xbff990d32eac7bf3	-1.5978576491540906
1	0x3fe511b7f648209b	0.6584129152479535
2	0x3fb3762d9c9aa1d1	0.07602200578060737
3	0x3fdc787f4bdec807	0.44485456856921285
4	0x3fe6c5ec72ea01d0	0.7116605991760085
5	0xc006f23700d7b3ff	-2.8682689729525914
6	0x3fe07e4e58df90fb	0.5154182182127721
7	0xbf9c8dd2146f5524	-0.02788475274777115
8	0xbff334f52572fac9	-1.2004291022164344
9	0xbfe2f0a0e318a797	-0.5918735919451475
10	0x3ff2509d986c53bd	1.144681544688168
11	0xbfeff6bc1c608388	-0.9988689951170366
12	0xc001810f58b0561b	-2.188017552262648
13	0x3ff5db00f0249f7e	1.3659676914776067
14	0xbfd1de8e9ffe94a6	-0.2792088091321808
15	0x3fdfa71144cc2d61	0.49457198828232235
16	0xbf90d50042eb78a4	-0.01643753441282371
17	0x3fef794ce93ee450	0.9835571818904416
18	0xbfbe52df11487207	-0.11845201656291958
19	0xbfe165e5cc689c6b	-0.5436886780124842
20	0x3ff83a6602c285ff	1.5142574413115424
21	0xbfe5c669af5d718d	-0.6804703164194038
22	0x3ff1517b5208565b	1.0823929981610465
23	0xbfd4160682b1ee94	-0.31384432566822196
24	0xbfbf5d33dbf94a53	-0.12251590843633524
25	0xbfe181069b960949	-0.5470002211371049
26	0x3ff62113093fc3d0	1.3830747948925257
27	0x3fe791d65377bdc1	0.7365523939351349
28	0x3fe1d2831811dad9	0.5569472761261195
29	0x3fa180e1fd2389ae	0.03418642249177438
30	0xbff708ca236b5243	-1.4396458991588055
31	0xbfc699e768c1791c	-0.1765717755797106
32	0xbfec9931c0e913f0	-0.8937004821569854
33	0xbfe0e19cec0af22b	-0.5275406465730773
34	0x3ff94ef5c3ce6f58	1.5817773483931514
35	0xbffa421ddb9d2430	-1.6411417559304589
36	0xbfe2d47012902cfa	-0.5884323465883476
37	0x3fd3fa66d9399b64	0.3121583100641401
38	0x3fd06c0644db1a74	0.25659329151350296
39	0x3fe5b56edb97a8a3	0.6783975876726526
40	0xbfb8aaa522a085b5	-0.096353836969249
41	0xbff30b91c2181d19	-1.1903245527080968
42	0xbfd37773606a063f	-0.30416569152302836
43	0x3ffb945ae5a49329	1.723719498674834
44	0xbfe8ad17f4e1622e	-0.771129587442436
45	0xbfca4035c119b59e	-0.20508453301173984
46	0xbfc696f4982c4be1	-0.17648179464649075
47	0x400028cdf61ebb7c	2.019924090206983
48	0x3ffa8808f61dcaaf	1.6582116712494714
49	0x3fe07804ef041848	0.5146507900506174
50	0x3ff2001b820340cd	1.125026233541621
51	0x3fe660c67193258b	0.6993133753068589
52	0x3ff928ad7faab193	1.5724310862525257
53	0x3ffa6404b761e5f4	1.6494185603499973
54	0x3fdea466d82153e8	0.47878428560699016
55	0xbfddac95f1856cc8	-0.46365879617742367
56	0x401599ac009cba0b	5.400070199552384
57	0xbfcee3f457ae6e3a	-0.24133161813084475
58	0x3fd9b3f8b5de9ff2	0.40160959015565745
59	0xbfc98f0b0e97937a	-0.19967783176903336
60	0x3fc62c1ff78821b1	0.173221584191436
61	0x3fc90563aac8e393	0.19547696913812426
62	0x3fc3ccb53775c47c	0.15468468864449736
63	0xbfd42f390ccab088	-0.31538225411601006
64	0xbfe1e996453924f1	-0.5597640373245253
65	0xbff056608300fc34	-1.0210881345117402
66	0x3fe4db287791cc03	0.6517526946394131
67	0xbffaa8d777116812	-1.6662211085408711
68	0xbffbf5abaa9e3be7	-1.7474781670350639
69	0x3fe0b27f5114ef49	0.5217892249706689
70	0x3fd9824e3b986555	0.3985782224641146
71	0xbfe9eb9a283a9c3c	-0.8100100312921152
72	0xbfe5ded1b1773457	-0.6834495988965824
73	0xbfe48703dfc315d8	-0.6414813394882755
74	0xbfd55ac0a45ad00f	-0.3336640934969645
75	0x3fe1f410f5b8a6a5	0.5610432433361053
76	0xbfe6c3d016d800e3	-0.7114029356162316
77	0x3fe08ea6c592c929	0.5174135073523632
78	0xbfff5ceb483bc541	-1.9601853200550325
79	0x3fb8bf7df1f03713	0.09667193562219394
80	0xbfc7d6cc7d04e824	-0.1862426386304047
81	0x3fe26a038153a469	0.5754411245262762
82	0x3fdaee74e01fbc23	0.4208042324743834
83	0x3fc175754f7bd8c0	0.13639704114001994
84	0xbffc3ab302299242	-1.7643308720081596
85	0xbff5188b473e1ae9	-1.31849220112934
86	0xbfd324398e3f66ab	-0.29908598796246605
87	0xbfc4c027a0dbcae0	-0.16211409906789864
88	0xbfc372d9d5779d13	-0.15194247172551253
89	0xbfcb2942f9a41706	-0.21219670476437374
90	0xbfc21251604e8435	-0.14118401720500776
91	0xbffc05c6993e90ae	-1.751410101519507
92	0x3fdafb3d7296fa90	0.42158447447210623
93	0xc00064cf54ec991f	-2.049223578901674
94	0x3fde573e9547b793	0.47407497957362316
95	0xbfff7da31fbf8bc5	-1.9681731453099343
96	0x3fd5bb609657af5e	0.3395616024197262
97	0xbfe0bddce1aa045d	-0.5231766135695001
98	0xbfcf2fc4a392ee02	-0.24364526736268038
99	0x3fe1b5a63b219490	0.5534239916711545
100	0x3fbde4c26f0092ce	0.11677184305205943
101	0x3fd9cf15a3415f94	0.40326443617731766
102	0x3fedec53dd9d7e5e	0.9350985840246258
103	0xc007bcad0b47a9e0	-2.9671269303555476
104	0x3fdf260a756113c0	0.48669682944119685
105	0xbfac72d2dc2f1b7c	-0.055563535097056665
106	0x3ff350fefea6d8e0	1.2072744319280488
107	0xbfc7568476a68c8d	-0.18232780259595352
108	0x3fdce520f421b373	0.4514849075410929
109	0xbff28e42392efcac	-1.1597311242801807
110	0x3fd2738ae29a600f	0.2883021557731817
111	0xc0053afeab42a5b2	-2.6538060550417066
112	0x3fdbd69f990dc27a	0.43497457453398847
113	0xbf971d174ad72d66	-0.022571910803703153
114	0xbfca263b66873125	-0.20429174906019756
115	0x3ffbaf07786ad5b0	1.7302317336847004
116	0x3fead9a94606dc97	0.8390699737273221
117	0x400768ba4c2c6d94	2.9261365843828546
118	0xbffb596de49ff1ca	-1.709333317819175
119	0x3ff19ffcfb7db87d	1.1015596221800756
120	0x3fecad46acb7652d	0.8961518643729157
121	0x3fe24cedb54eb672	0.5718906918679763
122	0x4001d4c5e1839eb2	2.2288930528919417
123	0x3ff49d3556717cde	1.2883809448901995
124	0x40047ba355a779c0	2.5603701297506802
125	0xbfa374a283c70803	-0.03799922808276792
126	0x3fc10be7f59abd60	0.13317584507374658
127	0x3ff6c4b015219ab0	1.42301948789979
128	0x4007922f1a229c66	2.9463789026081484
129	0x3fd75b020c46b625	0.36492968748902604
130	0x3fe33b08e53f924d	0.6009563901430482
131	0xbfdde016afac336c	-0.4668022838166539
132	0xbfd7c597758961f3	-0.3714350364512306
133	0x400560f7de22aef0	2.6723477701506155
134	0x3fda6db404ab364e	0.41294575172364467
135	0x3ff3b4afe19c210d	1.2316130459676657
136	0xbfda544b1097a9cb	-0.4113948499713415
137	0xbfd7ad3a32a93341	-0.3699479574905134
138	0x3fd211aeecf2a9cb	0.28232930316394506
139	0x40033042f63c20f1	2.3985652196025673
140	0x3fda93adffe93f6e	0.41526365271874155
141	0xbfeae482382b801f	-0.8403941247052024
142	0x3ff67eb5997ec514	1.405934905615429
143	0xbfdec650d904637f	-0.48085423653679266
144	0x3ff9a88171d34fe9	1.6036390730196166
145	0x3fe2e36a53f5c485	0.590260662064012
146	0xbfb1a6dfafdb67ce	-0.06895254176507068
147	0xbfecca4ccf3d1580	-0.8996948287610138
148	0xbff76966264281f0	-1.4632321829341173
149	0x3fb2c0151b828629	0.0732434456026786
150	0xbfdc13f103cb1884	-0.4387171303791393
151	0x3fe217fa1fe5044e	0.565426885885367
152	0xbfd02759f23b8a81	-0.2524018159439621
153	0xbfcde5dcaf2ae08e	-0.23357733300304456
154	0xbf993fc7176c709a	-0.02465735512224452
155	0xbfccc39a78a99aa7	-0.22471934215282838
156	0xbffcfff1d69d00c0	-1.812486494382071
157	0x3fe8845bf213ef81	0.7661571243365729
158	0xbfd3651b5be12d57	-0.3030460736524296
159	0x4006367ea9ce5282	2.7766087785806244
160	0xbff7ceb74bdb0100	-1.487967773733601
161	0x3ffb14891aa6dc7e	1.6925135651670469
162	0xbff5deffc649358c	-1.3669431443734963
163	0x3ff2a5409581caca	1.1653447952382288
164	0xbfd12cae7e09fbf1	-0.2683521490907302
165	0x3fe0a04eaec06057	0.5195687687983178
166	0xbfc1c1ecf603e7c5	-0.13873064053023945
167	0x4002c0a87afa5631	2.3440713508269018
168	0x4001cddca876857e	2.2255185280961873
169	0xbfdeac4eea93e982	-0.4792668619917536
170	0x3fdb919d20c16a9a	0.43076255987913614
171	0x3fe78894ac3d0557	0.7354224552183649
172	0x3febd523e4570e0c	0.8697680911795387
173	0xbf9f39daaa07bd4f	-0.030494133594342995
174	0xbfe60e72771d24b6	-0.6892635656778541
175	0x3fb3807a39681200	0.07617916013266068
176	0x3fc110df8d9e0ed3	0.133327430867317
177	0x3fb673978e0d4c7b	0.08770129411759513
178	0x3fdec6d25ef9a2e6	0.480885117291605
179	0xbfe83748486e7d9f	-0.7567483343772671
180	0x3fca141461991dcb	0.20373778119595295
181	0xc003463d5de8743a	-2.409296735435899
182	0x3fe46b182da90740	0.6380730525781715
183	0xbfe1ada0544ab429	-0.5524446150135464
184	0xbfda284d99b19a11	-0.4087099076190564
185	0x3fe291dfd41416f3	0.5803069250257223
186	0xbfd6242fa0ec55d3	-0.34595862116961235
187	0x3fae51b528a65f5c	0.05921712990965375
188	0xbfdc573bb97685c8	-0.44282429801577594
189	0xbff7cf695fcd58a1	-1.4881376020689816
190	0xbfd30b21d91fb957	-0.2975544567442702
191	0xbff81b4217ed85eb	-1.506654828517976
192	0x3ff2a8c702a7058a	1.1662054160700301
193	0xbfe2c2a8aa9afaf3	-0.5862620670448834
194	0x40023a63c3f6b8ca	2.278510600058415
195	0xbff35255174539f4	-1.2076006802559478
196	0xc018fdd027ed3aa5	-6.247864364485086
197	0x3fdbf486a159281d	0.4367996764818843
198	0xbff50a90a0ac0a7d	-1.3150793339015359
199	0xc0090eeb995ce8b7	-3.1322853070715513
200	0x3feb6e2d4936fb56	0.8571993284202601
201	0xbfc5fc4cd9914c52	-0.17176209090630096
202	0xbfbf4bb05a2adbb9	-0.12224867059090529
203	0xbfe3e01bc168f56f	-0.6211069848574605
204	0xbfe01efa25dbf01d	-0.5037813891826805
205	0x3fa1f7b3c1aa3ffb	0.03509294261050396
206	0x40102fec466d6782	4.046799755504141
207	0x3ffe653234b16c34	1.8997060831377555
208	0xbfb385af11212ac5	-0.07625860374643441
209	0x3fbaa0005fb30521	0.10400392853172892
210	0x3fdfbb4b274e86f7	0.49580649221944334
211	0xbfd932ebebcb3dc3	-0.3937330057787813
212	0x3feaec5f85a6752d	0.8413541422229734
213	0x40014dd0d0e2016d	2.162995941064017
214	0x3ff21e35152882d0	1.1323748423093782
215	0x3fd53d1023c0ec6d	0.3318519925266575
216	0xbf52b18dfe1fc738	-0.0011409651419822097
217	0x3ff359bcca3f802d	1.2094085598291813
218	0x3fe36b6b6fcd01a4	0.6068627532586572
219	0x3fa38d848e4c5791	0.03818907010115347
220	0xc011feb0d08a9207	-4.498721369226138
221	0xbff5ea351306d6b6	-1.3696795218688016
222	0xbf816ecc2b6c9ffb	-0.008512110781865081
223	0xbfb84e56d4c6b5fe	-0.09494536108714866
224	0x400105e7d83252fa	2.1278836145742135
225	0xbfd4f7213950711a	-0.3275836047848927
226	0xbff75455ef5a5a9b	-1.4580897664760986
227	0x3fd620f0bc21a6b2	0.3457605206700506
228	0xbffc72c4c7ebc264	-1.778019696179535
229	0xbfe33528dc535d62	-0.6002392104373195
230	0x3fce1968ace04ac0	0.23515041772096446
231	0xbfde185419820450	-0.4702348946667074
232	0xbfcf86d79c26fed9	-0.24630255818009664
233	0xbfe7e20417c3c8d6	-0.7463398422389911
234	0x3fc2c05d9c484356	0.14649553423853473
235	0xbfe6d55b7067eedd	-0.7135445781163657
236	0x3fff78918fd657a0	1.9669356936114823
237	0x3fe2669565546fa4	0.5750224093530858
238	0x4004786977e84c7c	2.5587949149863203
239	0xbfe5ee77ada3a5ec	-0.6853598014251339
240	0x3fc17388fa6b0b8f	0.13633835055778973
241	0xbfc01abcb9a6d945	-0.12581595482851973
242	0xbfedba57b4af5b20	-0.928996899509773
243	0x3fb438ed45369a4f	0.07899363460328711
244	0x3fd4405efd422084	0.3164288972116156
245	0x3ffddc822f357861	1.866335091027871
246	0x3f839edba10a0672	0.009580341197991536
247	0x3fe7cc8a00c9ba5b	0.743718148745596
248	0x3fe4178c81ddd0eb	0.6278746162847971
249	0x3fbe5d6eb8473968	0.1186131667993543
250	0xc002d5141ccae500	-2.354042267743921
251	0x3ff5d03000df2514	1.3633270296143722
252	0xbfdcf0b3c6f3c4c1	-0.45219129971435384
253	0xbfd79d73d4d6baac	-0.36898513588941273
254	0xbfdc8e93d2d3107c	-0.4462022360642164
255	0xbff9d10dfd67159f	-1.613538732389635

module.module.layer_1.bias f8 [512]
0	0xbff54545c2c8d82e	-1.3294122322818214
1	0xbfc77366ff7ba857	-0.18320929980046927
2	0xbff6dd324964d591	-1.4290030352543435
3	0xbff6e923b9eeec76	-1.4319188368815765
4	0xbfeb38ad3a852546	-0.8506685393305495
5	0x3fea1bdf851538db	0.8159024810099952
6	0xbfeb6dd70805ab70	-0.8571581989939272
7	0xbfcf43598a26ecb2	-0.2442428516932061
8	0xbfe01d5e7446c6df	-0.5035850783371777
9	0xbfd0f9c211725fac	-0.26524402335916863
10	0x3fb83124bbea79db	0.09449987018385946
11	0xbfdc44789ec2a976	-0.44167914871163505
12	0x3feca2716c08afd5	0.8948294744527582
13	0x3fe72a76e0fbd85d	0.7239336389745962
14	0xbfeb7460121dec90	-0.8579559663625265
15	0xbfe03fb3a2061f80	-0.5077760853318836
16	0x3ff846a28549433a	1.5172448355189787
17	0xbfa51b09c60620c5	-0.041221909926265655
18	0x3fe7ccab4ad9a212	0.7437340223232829
19	0xbfa2cc59b988e20d	-0.03671532049014923
20	0xbff3b425db94caa2	-1.2314814164534842
21	0x3ff887a6cc344a87	1.5331180550316803
22	0x3fe58e1b126d3c01	0.673596893300669
23	0xbfe867badc10ef44	-0.7626623438040743
24	0x3ff179c3ac16fac2	1.0922276232010266
25	0x3fccac010e64792b	0.22399914934880746
26	0x3ff0706c598799d7	1.0274470803502618
27	0x3fe2b71e24753890	0.5848532402103661
28	0xbfe67237085f3225	-0.7014422572625035
29	0xbff0d79d79dbb2b3	-1.0526404151998292
30	0xbff22329a56abc5a	-1.1335846387480815
31	0x3fe961ea9feacea3	0.7932026980765453
32	0x3fc52790502a0cde	0.16526988901396228
33	0xbfd98c8f5979e081	-0.3992040990629065
34	0xbfe4128453b7341c	-0.6272603640624115
35	0xbff9fd613acf89dd	-1.6243603036206118
36	0xbfea0a7b847fe3c9	-0.8137796008951393
37	0x3fd8db8014926150	0.3883972359558543
38	0x3ff3942bfb8a259f	1.2236747575537732
39	0x3fd01adb5a3188f3	0.2516392117305621
40	0x3fd1ea4044d210f8	0.27992254944571426
41	0x3fe51b274d04f60b	0.6595646385464432
42	0xbfddfc1ab75f5a69	-0.4685122290369806
43	0x3fa026a782d5893f	0.031544909211123066
44	0xbfdcf372148bb888	-0.45235874182152047
45	0xbffaefa04027f66b	-1.683502436265736
46	0xbfc9aafdad51f791	-0.20053072894000626
47	0x3fdd7a6deab4a7cc	0.46059749527432525
48	0xbfd9c926afa0ae72	-0.40290228987826204
49	0xbfddc373db9165ac	-0.4650544780939423
50	0xbff5d13d574881ab	-1.3635838899136654
51	0x3fe4eb4481511d61	0.6537191892356696
52	0x3ff8868ee865f35b	1.5328511312538555
53	0xbfe31496cfbac56c	-0.5962633187502155
54	0x3fc4ef5060bdcea8	0.16355328296378002
55	0xbfe125d6ee86aca4	-0.535869089003786
56	0x3fdabe06f87c17a6	0.41784834161841855
57	0x3fe288bdd9b47260	0.5791920902298209
58	0x3f735e213df89448	0.004728441097118959
59	0xbfd93a89c240585d	-0.39419788331850275
60	0xbfeb116744519d31	-0.8458744367934853
61	0xbfe14ad0eda5ac52	-0.5403828279062373
62	0xbfb52089cd9a6350	-0.08252774495703119
63	0x3fe34f0e70898dd2	0.6034004400248085
64	0x3feeef50c46f2727	0.9667133175473496
65	0xbff3d13653882049	-1.2385772002180764
66	0x3fe3e15df68bdee9	0.6212606253966132
67	0xbfed9d0823b21457	-0.9254189202480444
68	0xbfdf5e5339c2a21c	-0.4901321472230238
69	0xbfe3d06611101c73	-0.6191892941723282
70	0xbff9e770c643587e	-1.6190040344859251
71	0xbfe535169bfff371	-0.6627305075522668
72	0xbff49c52ea29dccc	-1.2881650111210545
73	0xbfd3bd464bcbc58b	-0.30842740442229716
74	0xbfa58a174f990786	-0.04206917616512755
75	0x3fb631ef73c6dd3d	0.08669945313055379
76	0x3fc52b1f9a74686c	0.16537852327093405
77	0xbfcc19fd224c3d81	-0.21954311537454532
78	0xbf77255d095a9343	-0.005650866912820632
79	0xbfe4bc92e760a5d8	-0.6480192679493326
80	0x3fd559a159d9148f	0.33359559797492805
81	0x3fe87d75c3715de2	0.7653149430506654
82	0xbfd829f821dfe336	-0.3775616007620103
83	0xbfeeb9c3ddf37016	-0.960176404474171
84	0x3fdd167fc0d99abb	0.4544982322026205
85	0x3fa08c7687c2de8d	0.03232164771310151
86	0xbfe93237cf17d5b4	-0.7873801274096679
87	0x3fe7ae6a19c588eb	0.7400408271171534
88	0xbfbb101b0bb3f2aa	-0.10571450267520768
89	0xbfad75213e0f4c52	-0.05753425486150178
90	0xbfc869d273a31125	-0.1907294335015958
91	0xbfb6a6407efda272	-0.088474303248981
92	0x3fcd9626da6b6df0	0.23114476838132658
93	0x3febc73405f507d3	0.8680667988157843
94	0xbfdb6e8f37541edc	-0.4286230125730819
95	0x3ff5b40ab0b4d0be	1.356455507525467
96	0xbfba373a1347cb75	-0.10240519495691365
97	0xbfc60f04c0a4e3d3	-0.17233333021593342
98	0xbfe4297324f42af1	-0.6300597879174729
99	0x3fe106c9ddb1c8d2	0.532078679081929
100	0x3fcf6b9bd1b36a09	0.24547145594881695
101	0x3ff0eb2d31e54b4f	1.0574161480951323
102	0x3fe147e212d1d7cc	0.540024792439675
103	0x3fccfd169b2e8d02	0.22647364213217008
104	0x3fe581d7b8cb4a46	0.6720999345073515
105	0xbfedfb0275e837d3	-0.9368908217309077
106	0xbfebb8bbf3cf722c	-0.8663005601807234
107	0xbff04e052b2c8ab5	-1.0190478979572337
108	0xbfe541d4b4f8d416	-0.6642859968766313
109	0xbfaa2bbab6fbc234	-0.05111487849888299
110	0x3fc704485309afe1	0.1798181920488551
111	0x3fdec10ae10d42df	0.4805323789378643
112	0x3f894ef5b294ed7d	0.01235763503301856
113	0xbff317f32577974f	-1.1933471168099066
114	0xbff31c9e2647728b	-1.1944867606427205
115	0xbfd2d87846c8b342	-0.2944622699022156
116	0xbfe2af3356905da0	-0.5838867846204501
117	0xbfc355034c297774	-0.15103188723417882
118	0x3fee89b713ee443c	0.9543109311363263
119	0xc0003ec46637df67	-2.0306480394173607
120	0x3fecbc242cd483ac	0.8979664683903272
121	0xbfc7137c4a95f083	-0.18028215066795292
122	0x3fef843941a864bb	0.9848905832651761
123	0xbfe58c246ef83338	-0.6733572165845549
124	0xbfea7daa204f279c	-0.8278399115599657
125	0xbf82df6bbb57aecb	-0.009215203909625732
126	0xbfe14072b71a0f6c	-0.5391172004897107
127	0x3fd9586082b87fd7	0.39601910367673326
128	0xbfeb0c4f5328b34d	-0.8452526687811798
129	0xbfe6b646aea0c73d	-0.7097505007461461
130	0xbfd027fa8d77d7bf	-0.2524401074909938
131	0xbff042991360f8b2	-1.0162592656120464
132	0xbfef71880d564c3d	-0.9826088200083017
133	0xbfea4757825b4b7f	-0.8212087198283909
134	0xbff268c76b949bdb	-1.1505808069575696
135	0x3fe58ac152a5428c	0.6731878866358598
136	0xbfdb9f9856fba02e	-0.4316159104769238
137	0xbfd329625c9983da	-0.2994008926671633
138	0x3ff3ae8b8db9fa79	1.2301135574522546
139	0xbfed3bd9c6163007	-0.9135559910660057
140	0xbfe48eb16404215b	-0.6424185708465687
141	0x3fc8c3cdb3f193de	0.19347544943153044
142	0xbfc24bf043ff24de	-0.1429424602522777
143	0x3fe06463eedef4b4	0.5122546830604251
144	0xbf81cdf362e6d879	-0.008693601089231106
145	0xbfce28ed5459f3fd	-0.23562399500579537
146	0xbfea143f5216af73	-0.8149715998929267
147	0xbfe8e1683e4c2874	-0.7775155274150749
148	0xbfbf70fcca3670f2	-0.12281780182678739
149	0xbfd3de9021c15e29	-0.3104591684000036
150	0xbfe16aa29aa7cc07	-0.5442669888128656
151	0x3fd92930f0829a4e	0.39313910949059483
152	0x3fe280e1987e1233	0.5782325723999463
153	0xbfc07607aff97966	-0.12860199062829308
154	0x3fcf45bf6d028928	0.24431603262662205
155	0x3fe5a7747e2d7566	0.6766912903218951
156	0xbfdfba5cb013c727	-0.4957496375565022
157	0x3fc84916f70d5c25	0.18973052085013467
158	0x3fde7cb45574bf16	0.47636135430637816
159	0x3fcd5d390d521f69	0.22940743589810644
160	0xbfdc0a886c3e30dc	-0.4381428772983449
161	0x3fee89f5838e930e	0.9543407029601398
162	0x3fe161aebb43384b	0.5431741387817594
163	0xbfd11f2a8572f6c7	-0.2675272277082112
164	0xbfd0ebca18c7ddee	-0.2643914453505819
165	0x3fec693f0dd0322e	0.8878474492826791
166	0x3fd5bd04f8268f7c	0.33966182931384714
167	0x3fa1e3eca697fe12	0.03494205030073884
168	0x3ff515261ae879df	1.317663292989543
169	0xbfe6d88ab518635f	-0.7139333283440513
170	0xbff187ea8dca2fdd	-1.0956826723731787
171	0x3fd1aa3ab4b66d5a	0.27601497314181744
172	0xbfd38bb33792e2c6	-0.30540161540151833
173	0x3fec2c3477790f48	0.8803961118178245
174	0x3fea83dfe5e577ff	0.8285979738391233
175	0x3fd3a067eb50d18b	0.3066654012684686
176	0x3fd860f167523d53	0.3809169301029744
177	0xbff3fc85d1793af0	-1.2491510565338864
178	0x3fdfc2ea9d76a85a	0.4962717569093279
179	0xbff845354fc2111e	-1.5168965449857477
180	0xbff3c0466c2a08e5	-1.2344421601451867
181	0xbffc459dc1148119	-1.76699614927208
182	0xbfce6b69ae2b5ddd	-0.2376529789387253
183	0x3ff62863617e2ab1	1.3848604019464512
184	0xbffb3b4457394627	-1.7019694716622185
185	0x3fc1003cf6d18340	0.1328197674911511
186	0x40026c17a0ab7cfa	2.3027794411024134
187	0xbff132b102bb0ea9	-1.074875841776626
188	0x3fcd70dc935926b2	0.2300067634080754
189	0x3fa867ca02bd71e5	0.047666848024821275
190	0xbfe0bb7d5c85c643	-0.5228869254189664
191	0xbff21c81e8596de7	-1.1319598270555333
192	0x3fe195e967f31add	0.5495497732416329
193	0x3feecfb79859c15f	0.96285609966257
194	0xbfd007bcd1f9272e	-0.2504722643394527
195	0x3fc9a620b829a4f0	0.200382318423443
196	0x3fff849e4b957e4a	1.9698775246141786
197	0xbff9d45208b5024e	-1.6143360462302954
198	0xbfdd05d1ffffe7ae	-0.4534802436825157
199	0xbfd0f3919aa01938	-0.2648662576688312
200	0xbfd46b34ca062491	-0.31904334763437087
201	0x3fd6c0993f40fb3d	0.3555052869523257
202	0xbfe78505d8c920a0	-0.734988139543038
203	0x3fc2ca27eee7e885	0.14679431119276756
204	0xbfd2b2cc319d3c3b	-0.2921629414094615
205	0x3fd3cbc0719cc66c	0.30931101889573287
206	0x3fe55d6d90a245d8	0.6676547837143358
207	0xbfc64531bce3f919	-0.17398664210481554
208	0x3feb35003cf08676	0.8502198400712604
209	0xbff2b946259546be	-1.170232912835146
210	0x3ff5ab92ea4a2359	1.3543881561219762
211	0x3fc9cd6461d0d05c	0.20158056999355523
212	0xbfc7d463c94ae159	-0.18616912201629068
213	0xbfdfee5c91870353	-0.49892343722972504
214	0x3ff1ade5268d1bb1	1.1049548631578825
215	0xbfd28b56741807f5	-0.28975449883739596
216	0xbfdaa998bad37dd5	-0.416601355025674
217	0x3fc95c863ac0d37d	0.19813611859140315
218	0xbfa959f53d7a3f03	-0.049514449839191975
219	0x3fed360b11f93f85	0.9128470755622266
220	0xbffeb2399fc3ed53	-1.9185119858583064
221	0xbfb1c1cdfe48c8c4	-0.06936347444642182
222	0x3fe2d332f8ae9365	0.588281141001613
223	0xbfbf208c9d758d65	-0.12159041256159282
224	0xbff39bb3c42724f2	-1.22551323530416
225	0xbff9cb18f7e35964	-1.6120843585136635
226	0x3ff52e22f7790d08	1.323763815584984
227	0x3fc5ce459f4b12f8	0.17035742071143267
228	0xbfe7cc71c055707f	-0.7437065845983993
229	0xbff7006950921c26	-1.4376004359526262
230	0x3fe39ed73e9ea4b8	0.6131397460022958
231	0xbfe9506d17ec1f3b	-0.7910676448090962
232	0x3ff95a8030689d5d	1.5845949068987786
233	0xbfc3d1cc80487655	-0.15484005225964617
234	0x3fe844d473a284a6	0.7584020861142065
235	0x3fe5034d10b3fc6f	0.656652958510575
236	0xbfe06552fc1b000c	-0.5123686717925025
237	0xbfe609e5769188c9	-0.6887080493727576
238	0xbfa97022a5078d2e	-0.0496836496784233
239	0xbff736c443b0d2bf	-1.4508707660835822
240	0x400031c5ac60c8b4	2.0243028132473118
241	0xbfecb12fd76ef07f	-0.8966292579348333
242	0x3fe1768939d8305f	0.545719731309429
243	0x3fc60dcca230e4e6	0.17229612273675982
244	0x3fc0a0bf78e2c122	0.12990563776612257
245	0x3fd19d502a977f67	0.27522663268427155
246	0xbffd2e5bf4741c8e	-1.823818163773271
247	0xbfeaa865f82818c4	-0.8330564352807177
248	0x3fe32a20d02117ea	0.5988925995850398
249	0x3ff38061d6002bd4	1.2188433036233066
250	0xbff996eca46199de	-1.599346773256563
251	0xbff0d077c07161e7	-1.0508954541493212
252	0xbfd1092b596f6503	-0.2661846516981116
253	0x3fe2e039cdcfe334	0.5898713130728539
254	0x3fd57a1b537190d9	0.33557780407705945
255	0x3fdd909ecb084a94	0.46195192172414434

module.module.layer_2.weight f8 [128, 512]
0	0x3fafde5050b33dc0	0.06224299416646373
1	0xbfd63de092d6d547	-0.34752668704762296
2	0xbfc8e6dff2f84d6e	-0.1945457397820109
3	0x3fd56b16e2045a04	0.3346612174222232
4	0x3fbc1c9a426c0930	0.10981144067412596
5	0xbfdf3ec5bc43fd6f	-0.4882063234835731
6	0x3fd1c97eba87712b	0.27792328086595103
7	0xbfd958392ef51bf7	-0.39600972734154943
8	0x3fe0c0bee24ddab4	0.523528520584327
9	0xbfb8f4810c7ac2c1	-0.09748083643604401
10	0x3fd865753f0a1076	0.3811925044649408
11	0xbfc4e8140d772372	-0.16333246858109934
12	0xbfe839efd8802dc6	-0.7570723751572863
13	0xbf7533bfbf298b31	-0.0051763048273610205
14	0x3fb4cab38a2da981	0.08121797679419808
15	0x3fe5c7bf76732d21	0.6806332887148622
16	0xbf7751af6ede3e6b	-0.005693135533774911
17	0x3fbae41e8ae3263e	0.10504332438281325
18	0xbf933b37c9f4feac	-0.01878058595798275
19	0xbfc075c567f9dd7c	-0.1285940892882812
20	0xbfce202b0e02b00a	-0.23535669502359752
21	0xbff02bd7f72bfe33	-1.010704007639913
22	0x3fc49848471aa78e	0.16089728805428333
23	0xbfcab081b6a9164c	-0.20851155680627398
24	0xbfc500c47309e666	-0.16408591858980798
25	0x3fd085c05b143fec	0.25816353697245975
26	0x3f910f2e720446a5	0.016659475049044876
27	0xbfc2ea8192ec361a	-0.1477815596958159
28	0xbfed24446ee7d852	-0.9106771627546186
29	0xbfe83b942aa43bc3	-0.7572727997629659
30	0xbfd889b1da1f7c6d	-0.3834042196376178
31	0x3fe82b05c478cfe7	0.7552517735807641
32	0x3fd363a6b9e1daae	0.30295723106921
33	0xbf96800ac671bd14	-0.02197281681258996
34	0x3fe8b83d03b2289a	0.7724900314508603
35	0x3fb997fee0cc9443	0.09997551906833828
36	0x3fcab4f3c1213cfd	0.2086472218529493
37	0xbfc5a0d616f0b8b2	-0.16897083397038198
38	0xbfd535e36e76eb39	-0.3314140871768135
39	0x3fb745d22f915c45	0.09090913449596012
40	0xbfd697141e988733	-0.35297110545990334
41	0xbfd719e6650055b9	-0.3609558092442416
42	0xbfdf8006cee4b0b4	-0.49218912319589525
43	0xbfd0ba8db3fe3600	-0.2613863237137082
44	0x3fb2c2f9b10d090d	0.07328758785755358
45	0x3fce128b58acb1d2	0.2349409277898205
46	0xbfe0bc5181be420b	-0.5229880842253477
47	0x3f990920493461d0	0.02444887587361838
48	0x3fb65e60d1b5be29	0.08737759704467209
49	0x3fcc135276d2f1dd	0.21933966447785638
50	0xbfb4d83ec8b394e2	-0.0814246406549333
51	0x3f8ff16e024a897a	0.015597209401055013
52	0xbff12b1a47293c5f	-1.073023107502898
53	0xbfe776349adae050	-0.7331793808471136
54	0xbfc13f56172a9964	-0.13474537020847344
55	0xbfec92ff4add0801	-0.892943998544297
56	0x3fd631b749b1ebf1	0.3467844218900487
57	0xbfe2fae273a6377c	-0.593125558736332
58	0xbfbe6d227a2f5a84	-0.11885276301414122
59	0x3fca85bd773accad	0.20720642396699898
60	0x3fe8f18104d5bc14	0.7794804663116133
61	0x3fead592c7694d1e	0.8385709662201497
62	0xbfabd9808fbecbca	-0.054393785044701895
63	0xbfd8cfafe1eb18c7	-0.3876762109979492
64	0xbfeb4d2cc3307d2c	-0.8531707584660686
65	0xbfc684dd766a318e	-0.1759297207066876
66	0xbfd379dceed87017	-0.3043129284358214
67	0xbf901c7645362370	-0.01573357388909663
68	0xbfe1adf3ace37720	-0.5524843575219371
69	0xbfe2cf0d4283e9fb	-0.5877748774649371
70	0xbfcc9aba420d3139	-0.22347191071674802
71	0x3fc498cd6d3cd613	0.16091316064709868
72	0xbfe175a8d4fe1606	-0.5456127319345689
73	0x3fd7c8eb7bb24a3b	0.37163817481738065
74	0xbfc5d024bfee930d	-0.17041453715969404
75	0x3fb92f69888728e8	0.09837970336153357
76	0xbfbd7090b9da7e39	-0.11499886071623501
77	0x3fbcaa5e87d71edd	0.11197462860502179
78	0x3fb9c643f2464c5b	0.10068154015452661
79	0xbfee200e65dbb738	-0.941413115446017
80	0x3fe2cecb2103f128	0.5877433438140871
81	0x3fbe8bbc50f424a3	0.11931969620140363
82	0xbfd3d08b06ceba8b	-0.30960345902250513
83	0xbf96dd39d26b0832	-0.02232828470983623
84	0x3fca25a936dc20cf	0.20427432230667938
85	0x3fcaf57263176d52	0.21061544264271476
86	0x3fbd7b72798f3bbd	0.11516490428696975
87	0x3fcf1fcabeba9c57	0.24315771401345174
88	0x3fc4f4b5bc2a4189	0.16371795356509392
89	0x3fd352267b8f46f4	0.3018890577924218
90	0xbfd03191fc29432b	-0.2530255281936202
91	0xbfb9bebf3c88a7bb	-0.1005668185031529
92	0xbfd6c848bc11f64e	-0.3559743725416852
93	0x3fa95cfcfc2fa691	0.049537568840446806
94	0xbfcc9b8f3b900b49	-0.22349729927381137
95	0x3fc8ec06e7ee6c06	0.1947029716946817
96	0xbfd454f5aa79c5cc	-0.31768552444472387
97	0xbfe32b3996e12f1d	-0.5990264841907195
98	0xbfa5c62828b4e3fa	-0.04252744194895537
99	0x3fd3724532fc5660	0.30384950617858486
100	0x3f849de1b6b42765	0.010066760433364139
101	0xbfc0de6a1a4acca6	-0.13178755077169518
102	0x3fbf24bf9c98e7db	0.12165448735404942
103	0x3fb2e9e2aa4883d5	0.07388130814844314
104	0xbfbeb1cd08599d06	-0.11990052656038949
105	0xbfe55ba7af3e913b	-0.6674383566610581
106	0xbfd565e7773a8b58	-0.3343447365133918
107	0x3fe3683a37f3c40a	0.6064730732742885
108	0xbfd88d07d62f73f8	-0.3836078254369677
109	0x3fc5673d65544624	0.1672131294986211
110	0xbfb902714b0135c0	-0.09769352036638335
111	0x3fa59cc789ae26b9	0.042211757237124066
112	0xbfcccb1de1f69a35	-0.22494863065112872
113	0x3fb4b46b903af716	0.08087799330948217
114	0xbf88690698f6a7c2	-0.011919070761752585
115	0x3fc337eab04fca25	0.15014394387215294
116	0xbfcced271a01de9f	-0.22598732728851176
117	0x3fe49f9b65b7d011	0.6444832789115954
118	0x3fe3cb14d14345e4	0.6185401999629758
119	0x3fcb65423612efe5	0.21402766838389123
120	0x3fc3ca0137c2342b	0.15460219595516497
121	0x3fb55dd80908d198	0.08346319408958036
122	0x3f940452d48219a9	0.019547743053885878
123	0x3fe6b1f4fd11fc61	0.7092232649591886
124	0xbfe8514d8209410e	-0.7599246539848836
125	0xbfd052cce3d5cf43	-0.255053732390696
126	0x3fa74ffe4612533f	0.04553217511526108
127	0x3f9bf23f8e296f8c	0.027291291286345706
128	0xbfc723bcd984a9ec	-0.18077812787062386
129	0x3f92bdc204d5ff3a	0.018301993889962655
130	0x3ff203e1ad2fbd69	1.1259476437661198
131	0xbf9907c6ae2358c4	-0.024443725946945674
132	0x3fcad3175f0e5bb9	0.20956699506197454
133	0xbfe8a32528d2f090	-0.7699151799529478
134	0xbfadf4c1452af69d	-0.05850795716604049
135	0x3fd0b40406e87730	0.2609872882329567
136	0xbfd1fc4c3ce81a6e	-0.28102403591075287
137	0xbfa20c75e6a23d26	-0.03525131645539607
138	0xbfce50027807b342	-0.2368167005619402
139	0xbfbfc5cb64da19a0	-0.12411185466962715
140	0x3f9bf57976bdcc84	0.02730359828224184
141	0xbfce2629644cd2f7	-0.2355396022554925
142	0x3f385fdd0eb0d16d	0.0003719248476870194
143	0x3fc7dc3099c85f42	0.18640716084405012
144	0xbfd3d31e7f2a051d	-0.3097606889569578
145	0xbfc41f25189743cf	-0.15720046711660848
146	0xbfdd91cecd9a8d9e	-0.46202440336693396
147	0xbfc0b085d8673ebc	-0.13038704935614998
148	0xbfd5d9a213e7368c	-0.34140827125234163
149	0xbf7a560e6d92c845	-0.006429725989777484
150	0x3fe812a8040a34e4	0.7522773817924215
151	0x3fced78ce626268a	0.24095307576890362
152	0xbfd4842707bd3dc5	-0.3205659461572988
153	0xbfb346b8c7e206b3	-0.07529787902788136
154	0xbfd5e0f86fbe69b6	-0.3418561068771412
155	0xbfb5938f6dc7ffbc	-0.08428284101682854
156	0x3fe34557ba28f64f	0.6022146831453002
157	0xbfc3ce493e2fefda	-0.15473285233008377
158	0xbfd0a6eb3e53a9d0	-0.2601879223499539
159	0xbfb3b71be64b5c21	-0.07701277134343389
160	0xbfe1cfaa9301487f	-0.5565998908225679
161	0xbfb2839b184fc578	-0.07232064574761476
162	0xbfe839d31524624e	-0.7570586598331575
163	0xbfe5452b1406277a	-0.6646933928579835
164	0x3fc175cc9ee092de	0.13640744931867393
165	0xbfb16894637f3bfd	-0.06800200871587943
166	0x3fc3055e13c6a711	0.1486013027727542
167	0xbfd39b782a1b6931	-0.3063640986635106
168	0x3fcf7896e56b0daa	0.24586759759959637
169	0xbfe88d3eb48e0a39	-0.767241814275912
170	0x3fd2f92d20226ca4	0.2964585126698671
171	0xbf6d454170428ba3	-0.003573062715149304
172	0xbf8f4ff0dc2fc313	-0.015289193839608061
173	0x3fe6412c3e70d263	0.695455667452347
174	0xbfe8cd6c3cf6040f	-0.7750760260242958
175	0xbfb07d68ea4091b6	-0.06441360205696509
176	0x3fc4a2b3d0835823	0.1612152832155412
177	0x3fbf8b7e13c06f7a	0.12322223646373046
178	0x3fe0eec2609d5a75	0.529145420742522
179	0xbf833a03aa5fd35c	-0.009387997280990205
180	0x3fa3a5a231e25c07	0.0383730588811702
181	0x3fc5185b2f1e118f	0.16480579186112407
182	0xbfbff5d5d1fa7776	-0.12484489799905227
183	0xbfe2dbbfdc7ee860	-0.5893248850400248
184	0xbfb72857c2c6a361	-0.09045933251640072
185	0x3fb200867ba2bf80	0.07032051580858756
186	0xbff2194fa7b90efd	-1.1311794807124322
187	0xbfcc62de3649a06c	-0.22176721239816588
188	0xbfb7c81855c58cb3	-0.09289695829424964
189	0x3fdd143370c5a4b1	0.45435796749968477
190	0xbfd397403f2974a4	-0.3061066262069494
191	0x3fc60f4317fd5214	0.17234076186527203
192	0xbfcad3a704cb6281	-0.2095841191683299
193	0xbfc545bf0e13058f	-0.16619098841878752
194	0xbfe579bc7f658dfa	-0.6711103904930831
195	0xbfbe65e7ca96df40	-0.11874245353726298
196	0xbff1908c894f29fa	-1.0977902759210552
197	0x3fb0f0b515188171	0.0661729027274356
198	0xbfd866adf9587eb1	-0.3812670645729482
199	0xbfcebc06b379a7b9	-0.2401131035178972
200	0xbfab7bf55f66d719	-0.05368010320255063
201	0x3fc854665c03d4ff	0.190075678757843
202	0x3fc688fbfab97357	0.17605542890933165
203	0xbfe4b32f032d8bbd	-0.6468730032032607
204	0xbfc7a708904fb145	-0.18478495642137652
205	0xbfb3abeb81e64852	-0.07684204026580346
206	0xbfdb118487f2e439	-0.4229441955208731
207	0x3fd20d9978a2a408	0.2820800474242451
208	0x3fa48f98a3f5e8ed	0.040158052458496
209	0x3f7db6b99f0d70ca	0.007254338343809683
210	0xbfd07bfa342c8164	-0.2575669774542091
211	0xbfc0e636151311fd	-0.1320254900839614
212	0xbfc27cc4a9f5ff42	-0.14443262385247563
213	0xbfc54686eb9e1639	-0.16621481423151055
214	0x3fbd03d4bf73dc26	0.11333970712790684
215	0x3fe4c716f3d458de	0.6493029367727805
216	0x3fd894b98f60aac2	0.38407744409293454
217	0xbfd64c7b380c9263	-0.3484180495600297
218	0xbfd6d85f3d2e7d7a	-0.35695630049482185
219	0x3fb8862216975365	0.0957967095522015
220	0x3fcd828fe56dc55b	0.2305469389207627
221	0xbfe139e85307ac39	-0.5383187886885771
222	0xbfa419a88f1f4688	-0.03925825831505586
223	0x3fcdf2c1d0632527	0.233970858337025
224	0x3fb7860a4e4ec2ca	0.09188904201324558
225	0x3fa48bb1f0d22d0d	0.04012828888616058
226	0xbfe8b4087890b36f	-0.7719766955175212
227	0x3fe03e5ba88861ac	0.5076120654730878
228	0x3fc79588e0504fa1	0.1842509360582172
229	0x3fcc965edce840c4	0.2233389452599167
230	0xbfd6819145150dc5	-0.3516581701880706
231	0xbfab3241642abc97	-0.053117793538484274
232	0x3fdced028a1508f1	0.4519659374674481
233	0x3fcb00a4895dec08	0.2109571142899258
234	0xbfd0e6013c1f8513	-0.264038380350102
235	0x3f993b85fb3ec72c	0.024641126117507614
236	0x3fe3160f98d2a1f2	0.5964429840869896
237	0xbfb4c9c03d594a10	-0.08120347497723679
238	0xbf9e3d223a31cbba	-0.029530081560050304
239	0x3fcb4bf2edb06b0a	0.21325527769007407
240	0xbfe1b504db5b4195	-0.5533470424943966
241	0x3f99b5462c8c45b5	0.025105568379393
242	0xbfd6209d47eafbdf	-0.3457406236956881
243	0x3f7998a8a18c1847	0.006249102320685713
244	0x3fcb43c95554e5f3	0.21300617853721313
245	0x3fa730d9ec1ba7bc	0.045294580528050216
246	0xbfc09e28150fbf6d	-0.12982655552286407
247	0x3fcc6a1eefd2f016	0.22198855123667788
248	0x3fd9831ef1c6283a	0.398627983195755
249	0xbfce4992293b5cb8	-0.23662020695949137
250	0x3fdc9b93955946d4	0.4469956358417282
251	0x3fc5b37f9f6a4ad1	0.1695403602976371
252	0x3f99afe57ba99d20	0.025085054085505765
253	0xbfda6e1985171d81	-0.41296995160197275
254	0xbfc2511942d87146	-0.1430999351877153
255	0xbfc69b6566288f2a	-0.17661731231884775

module.module.layer_2.bias f8 [128]
0	0xbfb96883763db25c	-0.09925099980109436
1	0x3fa41ac351840770	0.03926668520035903
2	0xbfad66b65ef90601	-0.05742425832114507
3	0x3fb24cec31cac48d	0.07148624625803475
4	0xbfb44510129e7c84	-0.07917881445472302
5	0x3fae5fd2ca05d100	0.05932482448671017
6	0x3f959824c14a0ea1	0.02108819417709518
7	0x3fa119865b4ca247	0.03339786400312455
8	0x3faeff2b21072f73	0.06054053095030456
9	0x3fb3bc970cb382a4	0.07709640560234249
10	0xbfb2a815c2f2317c	-0.07287727364945867
11	0x3fb9d115e81693f5	0.10084664264884664
12	0x3f774abb400aa973	0.005686503835628509
13	0x3fc060d93a257153	0.127955582992295
14	0xbf9ca016c01b964b	-0.027954440570189736
15	0xbfa4361a641663cb	-0.03947527381678347
16	0xbf9261578197a254	-0.01794945457905535
17	0x3f8bf96ac840af02	0.013659319149233354
18	0xbfc0d2c575de0782	-0.1314322305225311
19	0x3fc2bcf26f5ac50c	0.14639120518908333
20	0x3fc0a83acac2753a	0.13013396168109087
21	0x3fb5ceb459906eb9	0.08518531023622246
22	0xbfb4361c9167577d	-0.07895067739386082
23	0x3fb5982308046bda	0.08435267396673343
24	0x3f9f62d60ec3702d	0.030650467539871485
25	0x3f9d7fd37d63e79d	0.0288079304964196
26	0x3f8b9fae7ee516d2	0.01348816227676811
27	0xbfbbb704769257e3	-0.10826137442413102
28	0xbfb14f8381c7d6bf	-0.06761953276130848
29	0x3fa3f7bee96eb0fd	0.038999525065579
30	0xbfb50f6cb408fc3d	-0.08226661105526119
31	0xbf973eb42475f371	-0.022700133061778375
32	0xbfb7a0110216e908	-0.09228617001545925
33	0xbfc18763915ce2b4	-0.13694424245638503
34	0x3fa5b355d217aabe	0.042383844276476776
35	0x3fbd098047f621fd	0.1134262252509259
36	0x3f94366b50d231b2	0.019738842780996975
37	0xbfbd4031155e883d	-0.11426073810301403
38	0x3facb5035f603eab	0.05606852092034605
39	0x3fba4adfe222e4c0	0.10270499487787088
40	0x3fb5f081dfa44329	0.08570110044480529
41	0x3f98d4569132c231	0.024247505771827164
42	0x3f9688896a03e8cf	0.02200522145810951
43	0xbfa448d55d381052	-0.03961817515303835
44	0x3fc38391c8c92a27	0.1524526815795337
45	0xbfb4069bde6391cb	-0.07822584323327601
46	0xbf8e412e06bf92fe	-0.014772758084242717
47	0x3fbe11af108a79a1	0.11745733407813087
48	0xbf89172c0afb8f55	-0.012251228413738305
49	0x3fc2b88a9a10da5f	0.1462567569994517
50	0xbfaca62a377375c8	-0.05595523764507565
51	0x3fa176c99af1f03c	0.03410940185946784
52	0x3fa8277c9889d123	0.04717625963249563
53	0xbf850cd923064df8	-0.010278412228934095
54	0x3f9d4c63b9ea72b3	0.028611715528870273
55	0xbf75109a3b5e66ae	-0.0051427864726975425
56	0xbf864bc97338d253	-0.010886739567561287
57	0x3fb627c1160ffa79	0.08654410160668559
58	0xbfb48b2b371dcc9e	-0.08024854751220054
59	0xbf988723fe50286b	-0.023953020474472824
60	0xbfb946b8046e3f62	-0.09873533352060584
61	0x3fa1b328f035dd09	0.03457000667816074
62	0xbfa8ad4430545f09	-0.048196917438131655
63	0xbf6fc365cba6a24e	-0.0038773525422651006
64	0x3fb396fd59b0ad37	0.07652266921711691
65	0x3f605a8e94b0bf19	0.001996305921714636
66	0x3f985c04e42dcd80	0.0237885250348433
67	0x3fa870160129cd0e	0.04773014797401674
68	0x3fa21c51b884bbc0	0.03537230851576778
69	0xbf5fe5e2bb41e217	-0.001946898858504414
70	0x3fc14399188c8543	0.13487542818715256
71	0xbfb6eadacf950532	-0.08952109878466244
72	0x3fbe1a04da360314	0.11758451774040807
73	0xbf8835a8a372cbf6	-0.011821095932054587
74	0x3fc5ce91e1a0cad0	0.17036651150700388
75	0x3fbbafa24cce52dd	0.10814871192117033
76	0x3fad314e769d5815	0.057016803721737265
77	0xbfaf07d122c31b72	-0.060606513493943207
78	0xbfa2b6353e4c940e	-0.0365463865803478
79	0xbfa50709ee082be3	-0.04106932669318277
80	0xbfa250c98826d814	-0.035772607679447926
81	0x3fa48e81e186792d	0.04014974477762432
82	0x3f8a50167fa4eae4	0.012848068018333554
83	0x3fada30057b31fbf	0.05788422651818292
84	0xbf9f1c8e089ef252	-0.030382365490128578
85	0xbfaed7928f856474	-0.06023843767133821
86	0x3fa48dce6821aaab	0.040144396029821415
87	0x3faf2678f2e8099f	0.06084039654890038
88	0x3fad0bd83f063c84	0.05673099297848075
89	0x3fa18b26950b55f6	0.03426476067913235
90	0x3fa1ba810aea9222	0.034626038153224195
91	0x3fb7665e23c25423	0.0914057576467973
92	0x3fa27d7bec5ec17b	0.03611361751916583
93	0xbf8cb01c30f1afc7	-0.014007778400092165
94	0xbfacff484e4ecd94	-0.05663515048891124
95	0x3f95cebe560ae7d3	0.021296476365684058
96	0x3f9da64c29956259	0.028954687154824608
97	0x3fc29ece767226f1	0.14547138961307085
98	0xbfad8e43dc8591b8	-0.057726021451148524
99	0xbfab6b5e2e1b4f8e	-0.05355352700067249
100	0xbf9b6a7b9ea6c20b	-0.026773387487709892
101	0xbfbb6e1c69bef147	-0.10714891034780748
102	0x3fb3bd9c64bd6c1d	0.07711198291274042
103	0xbfb6598c5aa98961	-0.08730389798578166
104	0xbf9db421eb46b9c7	-0.029007463441013372
105	0x3faac9fbedd941ce	0.0523222663729289
106	0xbf88111c605fb719	-0.011751386347863811
107	0xbfa451d01097aea6	-0.03968668177171013
108	0xbfbe4b4b7ecbe25d	-0.11833640905013838
109	0x3fb31e8ef23b3f0d	0.07468503393033306
110	0x3f76f464f5029ecf	0.005604166377601152
111	0x3f9369577a2299f8	0.018956534223116578
112	0xbf8aa526f228456a	-0.013010315194182016
113	0x3fbb2955bdbc2456	0.10609947092247415
114	0x3fc8658c80734757	0.19059902450549757
115	0xbfb25dacdc8dcc10	-0.0717418707334192
116	0x3fc305d4a7f800f7	0.14861543847656097
117	0x3fb0fbafe8736d46	0.06634044098921263
118	0x3f99e534d2dbffff	0.025288415307841202
119	0x3fce31c2361b10f7	0.23589351312524062
120	0xbfb4b10aba67ffbe	-0.0808264451115965
121	0xbfb9fa7141c4ce3d	-0.10147769790347012
122	0xbfc9b82e95306101	-0.2009332874738519
123	0xbf9dc8e76af91d7b	-0.029086700348015065
124	0x3fa2f80d9a4ec993	0.03704874523772896
125	0x3fba0a0383941dbc	0.1017152973400845
126	0x3fc87c4501f0d176	0.19129240603218606
127	0x3fc0090eea2a19b3	0.1252764361745001

module.module.layer_3.weight f8 [64, 128]
0	0x3feb1bdc5c93d943	0.8471509750513991
1	0xbfed6d5cbd21552e	-0.9195998853635154
2	0x3fd32f038f59d816	0.29974450110546635
3	0x3fd33ae9ad0655d8	0.30047075173328386
4	0xbfd3d9c6f7161650	-0.31016706590194065
5	0xbff26b19b0516e35	-1.1511475455689724
6	0xbfe1b503c4f4042f	-0.5533465239278764
7	0xbfc0674947ccdda5	-0.12815204625961232
8	0x3ffbad6a2859b0d4	1.729837567919323
9	0x3fe418536ce62ea6	0.6279694678246031
10	0xbfc2e6748274d3e2	-0.14765793199481353
11	0x3fd0df5a84977f46	0.26363242100159245
12	0x3ff40e24d16b51f0	1.2534530811727755
13	0x3ffb6edcbcb74108	1.7145659801208826
14	0xbfe0b36d7b1e1f0b	-0.5219027905122585
15	0x3fd3ff8fc7d0906e	0.31247324479250593
16	0x3fde03cd0a7a00df	0.46898199103453736
17	0x3fba81fd628a13d2	0.10354598670717444
18	0x3fce2acf49698066	0.2356814487893672
19	0x3fd801038fb64522	0.37506188425421005
20	0xbfce920cd4687bc1	-0.23883209582797174
21	0xbfdcb2dc99603669	-0.44841685274227544
22	0x3f8cedf12c0aca24	0.014125713497695598
23	0xbfc05b052716762d	-0.12777771385747042
24	0x3fb0563f891cfac6	0.06381604287615081
25	0xbfe5c20c70e642c6	-0.6799375729625232
26	0xbff117c367c0d4b9	-1.0683015873776596
27	0x3fd81608d094f02c	0.37634487504306224
28	0x3ff608c25317f61e	1.3771384473651618
29	0xbfd137bbda2553e7	-0.2690267210321608
30	0x3ff28838fe8a4ed3	1.1582574789980995
31	0xbfdff335d3a73717	-0.49921937627083096
32	0x3fee118e8638b700	0.9396431561960696
33	0xbfc7d26381081860	-0.1861080532109467
34	0xbf9bebb439c45fa6	-0.027266326928923633
35	0xbfbeb1c44079967e	-0.11990000318618318
36	0x3fd40d4cf2103017	0.31331180228221583
37	0xbfd4f21092d1880e	-0.32727445924513254
38	0x3fe519ca6b28019c	0.659398278512572
39	0x3fefded53eb63791	0.9959512924995001
40	0xbfd8695acb0d8fd2	-0.3814303381861893
41	0x3fedafc842f5e7a8	0.9277077968429142
42	0xbfb01e9c5b32ee79	-0.0629670832303705
43	0xbfb2a57838dc6e9b	-0.07283736599168338
44	0x40085a74873ddcaa	3.044167572570207
45	0xbff4ab75fc12fcaf	-1.2918605658194726
46	0x3fd7cda7e28d1128	0.37192723392606064
47	0xbfcb3ad5bcff28d3	-0.2127329991183787
48	0x3fbd69b936884141	0.11489446240762381
49	0x3fe99369908aa4ad	0.7992446730687753
50	0xbfedce9c2a0c6b60	-0.9314709492931392
51	0x3fedeffe97c324cc	0.9355462040049587
52	0x3fba757e8cedfd28	0.10335532131829395
53	0xbfef3a8210782517	-0.9758920976320579
54	0xbfd1e1387e1e5a51	-0.2793713790537469
55	0x3fe709b36f3300ff	0.7199341937885321
56	0xbff47b947fa936de	-1.2801709162480885
57	0x3fc582d2650b25ea	0.16805486615912396
58	0xbfbb2bd2193d36c2	-0.10613740078153014
59	0x3ff9c648218fbb00	1.6109086333269147
60	0xbff048903c35508c	-1.0177156783948105
61	0xbfd705f07789029d	-0.359737507566061
62	0x3fc448429751f409	0.15845520390203685
63	0xbfae0d2134be2de3	-0.05869392174562529
64	0x3ffd149fe026c4fa	1.817535281745505
65	0x3fde5e3b2c2f0d35	0.47450141253303296
66	0x400173924aadbde6	2.1814313730499064
67	0x3fe33183d84708e8	0.599794313828423
68	0x3ff2ee496891f7dd	1.1831754765294058
69	0xbff3ec1154206e71	-1.2451337133597031
70	0xbfc2986f6119dcb3	-0.1452769493223279
71	0xbf9fcb8993cd4df7	-0.031049871107212437
72	0xbfd98957940b1196	-0.39900769669864056
73	0xbfd46e1c1c638f2b	-0.3192205693469414
74	0xbfb3ef6cf482df53	-0.07787209481727801
75	0xbfe1c1c094a21997	-0.5549013998977895
76	0x3f9410f6fe036e17	0.01959596562742946
77	0xbfcc048f1848e228	-0.21888912854935083
78	0x3fda29451c69bbb5	0.40876891874989535
79	0x3fdd7cd86c945c53	0.46074495891065687
80	0x3fe298b727fe14e3	0.5811420231917989
81	0xbfcb2dfaf6c2af13	-0.2123407082448173
82	0x3fdecffadd4a05ef	0.48144408808010913
83	0xbfda7fde0b483d7e	-0.4140544042756672
84	0x3feeaf349d5e1b56	0.9588873933397319
85	0xbf79f8edb831e8a9	-0.006340912429658876
86	0xbfe652a33f32a91a	-0.6975876077970355
87	0xbfb42c93db29df57	-0.07880519962952569
88	0xbfe80d63c40f7584	-0.7516344861320907
89	0x3fc64cfdf6f0e069	0.174224610878585
90	0xbffe3254eff4bc8d	-1.8872880337983446
91	0xbfec625fe60aadb1	-0.8870086186411098
92	0x400152e0da8253bf	2.165467936613339
93	0x3fd00add3dfe6ffe	0.2506630998047966
94	0x3fb18ee9d0b7ee8e	0.06858693452516659
95	0x3fe62ecd55247770	0.6932131445825984
96	0xbfc76f678ded1ae4	-0.1830872958182318
97	0xbfaeed519d0b8d90	-0.060404348774478867
98	0xbffb768fb7491669	-1.7164456519689344
99	0xbfa944ca638dde46	-0.04935295548687839
100	0xbfd87db363451af8	-0.38267216390924785
101	0x3f9d46fb0df8ca38	0.028591082313321275
102	0xbfbecd20c08a4435	-0.12031750393568148
103	0xbfc75d171c851692	-0.18252838985988667
104	0xbfe7fe810a275091	-0.7498173902809119
105	0x3fa0c366f34a7219	0.03274080009325448
106	0x3fd076fee4404ddc	0.2572629193320759
107	0xbfbd4a8321f6d35a	-0.11441821650698838
108	0x3fdb0801d8939027	0.42236372137108663
109	0xbfffed6e7cbe0924	-1.9954666970011852
110	0x3fe582602e02bcac	0.6721650026937787
111	0x3fedb0188907881c	0.9277460743289825
112	0xbfd18a98418a4b8e	-0.27408415222560556
113	0x4003c20b50bc443d	2.4697481448606866
114	0x3fca0479e4bba0ae	0.20326160114860187
115	0xbff7c303ffc984ff	-1.4851112357794702
116	0x3fc24f20066783a5	0.14303970635139965
117	0x3f9b4e43801e1e06	0.02666573972194721
118	0x3fdee65650eb035e	0.4828086652960816
119	0xbfd992b1582d3f32	-0.39957841502199465
120	0x3fd3f3882c3d443a	0.31173900909658736
121	0xbfdda30a4f3e8c2d	-0.4630761884565711
122	0xbff8cd13f0d98694	-1.5500678451720988
123	0xbfd33da35392bd97	-0.3006370845932564
124	0xbfe106d51ab480a3	-0.5320840379317996
125	0x3ffe96e57f3f342a	1.9118399592000608
126	0xbfa804c69fece96c	-0.04691143705572895
127	0xbfbe95784cdc2944	-0.1194682300230499
128	0xbfd9969d8c06f047	-0.3998178355648218
129	0x3fd38591879cc02e	0.30502737277402303
130	0x3fd9dd1da569c75b	0.40412083772308954
131	0xbfe8182219676d3a	-0.7529459472820357
132	0x3ffb936b7da67bc5	1.7234911831107962
133	0x3fd22fddcad473c1	0.284171531749788
134	0xbfec39bf000041d2	-0.8820490837115875
135	0xbfad0a73ba5e478a	-0.056720367908510275
136	0x3fdf23b0be1e6405	0.4865533692005218
137	0xc000f604f2a19f34	-2.1201266246388517
138	0x3ff0456ed7967805	1.0169514104268285
139	0xbfe56e7cc455e2bc	-0.669737227885967
140	0xbfd7b24b2de86874	-0.3702571819609439
141	0xbfd6d58bef683235	-0.35678385142890373
142	0x3fd52f224253ef0c	0.3310018203480787
143	0xbfce6e9edc84883d	-0.23775087134805686
144	0x3ff40b6c5354b247	1.2527888541327614
145	0xbffd103855f8233b	-1.8164599760222717
146	0x3fe262c4fe5e0cee	0.5745568245041832
147	0xbfe42ccefece6f1a	-0.6304697968184627
148	0xbfe16aa9eede88a0	-0.5442704835334276
149	0x400acbeceacbcdab	3.3495729773946628
150	0x3ff3ad4b261a9ee6	1.229807995647144
151	0x3fe70c7774570688	0.7202718040718574
152	0x3fd66af7c06ffca1	0.35027879517287813
153	0x3ff53648c7d55737	1.3257530027380662
154	0x3f96c816a413c437	0.022247651829222028
155	0x3fded8b945b426e2	0.4819777661037802
156	0x40064904f40bd8bc	2.785653978930979
157	0xbfbd39705c7e321d	-0.11415769823197093
158	0x3fad97aefb637cc0	0.057797878443801576
159	0xbff9cba86c18763b	-1.612221166847475
160	0xbfe712b7b467816b	-0.72103486285418
161	0xbfb83c6d65e25ab1	-0.09467204797179353
162	0x3ff51f0c20e6506d	1.3200799260275986
163	0x3fd952b8b6fddd67	0.3956739222553182
164	0x3fd905e50b5fc4c6	0.3909847842288169
165	0xbfd8f672e8866f59	-0.3900420447114264
166	0xc0079a606efd3153	-2.9503792449014923
167	0x3ff6bf4708d3ad61	1.4216986031340968
168	0xbfd57142a71ae3ee	-0.3350378639111672
169	0x3fe12c433fd57b01	0.536653160739519
170	0x3fce4bc30d7cdffd	0.23668707045158036
171	0xbfb9ae62fe44536a	-0.10031717975318846
172	0x3fb022c778663dea	0.06303068818510096
173	0x3ff01ca5664cb952	1.0069936748582973
174	0xbfeeab105c2d22a0	-0.9583818245237872
175	0xbff196c915e8cd18	-1.0993128639063965
176	0x4002e77c05ab43fb	2.3630295222178552
177	0xbfbf33807d3af0c8	-0.12187960679415533
178	0xbff574e1540fa39f	-1.341035202373156
179	0x3fe95f87515b1170	0.7929112042407223
180	0xbff0d1f6372eb854	-1.0512602000776683
181	0x3fffc54d012b32ed	1.9856691404012807
182	0xbfe4fabaee394958	-0.6556067135627854
183	0x3fe79005586b98c5	0.7363306738814336
184	0x3ffd5a3269a72f4d	1.8345207335541602
185	0xbfe4527718d17e5a	-0.635066555474576
186	0xbfd49a6ecbf3b518	-0.32192583005128617
187	0xbfbd522277c48146	-0.11453452514661419
188	0x3ff4f6c61ecfec77	1.3102475360490453
189	0x3fceeda5b0a34a5e	0.24162741780181113
190	0x3ff7c21d44848754	1.4848911930534614
191	0x3ffb9e14cd9cd50d	1.7260940582030486
192	0xbfee01a76128800e	-0.9377018830891772
193	0xbfd8d469168aef3d	-0.38796450807034316
194	0xbff2acc3f455b1ab	-1.167179064209544
195	0x3feee52ecf366cb9	0.965476422035315
196	0xc001b16c7e5034ea	-2.211632716009821
197	0x3fc754e59932c41d	0.18227834682832703
198	0xbff75fd9474375fa	-1.4609005721789559
199	0xbff9d21b15bcb866	-1.6137953614338811
200	0xbff7204745c4afba	-1.4453804707836597
201	0x3fa0d589ad009189	0.03287916409343256
202	0x3fdd4d76b261d087	0.45785300655484956
203	0x3ffed438c2cd691a	1.9268119439571536
204	0xbffa2e3fe28e07af	-1.6362913942143498
205	0xbfd31b7ccf3d7f51	-0.2985527061300575
206	0x4006fab911794562	2.872423302186392
207	0xbfdd17ca99516b9b	-0.4545771119352879
208	0x3fcc12ec30e083bb	0.2193274725587154
209	0x3fe46e3467bb3f0d	0.638452723122073
210	0xbf70e3d8241f438f	-0.004123539258174782
211	0x3fdfed4c8439b0b3	0.4988585749877174
212	0x3ff4fb9e1f920d26	1.3114300950263185
213	0x3fe79f8ce018f810	0.7382263543038352
214	0x3ff7eb62540d8438	1.4949668200790835
215	0xbff129a5efabb474	-1.0726680147302234
216	0xbfbc0644cccc23c7	-0.10947065353333506
217	0x3fee1d714d33616e	0.9410940654588964
218	0xc001aee9cfe39b03	-2.210406898625821
219	0xbfe63fd279ce5c0f	-0.6952907923722494
220	0x3ff7ab1b47726c5b	1.4792740622422318
221	0xbfd770a27c8fa0f3	-0.3662496773163319
222	0xbfc6b9db38f3813d	-0.17754688530750143
223	0x3fe1679b61fd6650	0.5438973344673261
224	0xbfa0172bcdd77dba	-0.03142678153721641
225	0xbff55780d55cb5e7	-1.3338630995234497
226	0xbfee8f5827f37150	-0.9549980907718609
227	0x3ffc9eb98003ada9	1.7887511253892205
228	0x3ff7ba131da6ec1c	1.4829283865244696
229	0x3fef75f489d574f0	0.9831488315645895
230	0xbff04f8ac8ecb8dd	-1.019419464933484
231	0x3fddaffa607aa81b	0.4638658468417149
232	0xbfe44086ea82993c	-0.6328768329883938
233	0xbfd5feb514aa643a	-0.3436711026966496
234	0x3ff324a6a18f929b	1.196447974297519
235	0x3fd64d9cbb533784	0.34848707478965246
236	0xc001889a17baa38a	-2.1917001584847116
237	0x3ff062103fd4b77d	1.0239412778277874
238	0xbfded85229988107	-0.48195318281251825
239	0xbff0d27fda0a67d5	-1.05139146015289
240	0xbfe2319d8487c78c	-0.5685565556034233
241	0xbff563b4dbe28091	-1.3368424023865695
242	0xc000cf60e79af832	-2.1012590498130743
243	0x3fd61eee1de8a38a	0.34563782616401595
244	0x3fe16c4946305f23	0.5444685335996592
245	0xbff876e5d686cd86	-1.5290277843422202
246	0xbfc5d806884e3395	-0.17065507560292006
247	0xc003fc722967fd23	-2.498264621244418
248	0x3fe315f48fff6695	0.5964300930456427
249	0x3fe4af31971e302c	0.6463859511873173
250	0x3fd21cb2b1088ddd	0.2830015877572956
251	0x3fe385bf8e10577c	0.6100766920742298
252	0x3f841e928a978a84	0.009823937277308355
253	0x3fd0a06a4766adf3	0.25979096386683337
254	0x3fe341daa25fdb0a	0.6017888232589439
255	0xbfd4cbfed5138fe1	-0.32495089348071643
