old_models/old_kml_ml/saved/7_ft-33_pct-all_wl-100_epch.pt (torch, 634920 bytes, 8 tensors)

module.module.layer_1.weight f8 [512, 7]
000000 58 9e 41 0b 64 4d 00 c0 43 66 23 25 b5 1d ea 3f
       -2.0377884749794184 0.8161264157635703
000010 20 a7 62 e6 29 d8 b6 3f 14 d9 77 04 ff 3a e1 3f
       0.08923589586870806 0.5384516799229311
000020 14 11 13 56 aa 2f e8 3f 84 f8 58 51 fc 1a 0a c0
       0.755818527330606 -3.263176570441887
000030 f7 3f 0f d9 17 36 e1 3f f6 75 4c ca 9c 37 93 bf
       0.5378531684345934 -0.01876683220608829
000040 b1 ab 4f 1e e0 8e fa bf d8 81 c0 74 77 5f e6 bf
       -1.6598817047149448 -0.6991536407768377
000050 fa c3 3e f1 dd b9 f6 3f a9 91 4d 1b 68 26 f0 bf
       1.4203776763572464 -1.0093766275905216
000060 c5 92 17 83 a3 94 05 c0 78 4f 0b 68 dc 53 fb 3f
       -2.6975774995392805 1.7079738678193888
000070 7b 24 fb b2 3f 8d d5 bf b7 f4 5e 7a 85 a9 d5 3f
       -0.3367461440908028 0.3384717650440722
000080 bc e6 46 48 5e 4c bb 3f cd 78 18 16 be 43 f4 3f
       0.10663403763364959 1.2665387023076164
000090 4d 3e c6 7f ed b7 9e bf 1f c9 e0 22 9e 96 e5 bf
       -0.029998503612260575 -0.6746359521114619
0000a0 18 9b c9 21 5f df fe 3f 7e 25 7f ed 31 c4 ec bf
       1.9295340843033895 -0.8989495886427645
0000b0 f0 c3 4b 6f 03 7a f2 3f 1b 1f 9e 4f 74 36 d1 bf
       1.1547884318827037 -0.26894862914240186
0000c0 04 a8 a2 a7 d8 a7 c6 bf 4b 7a f3 7d 74 ba e4 bf
       -0.17699726281472306 -0.6477606258375287
0000d0 a5 7b e0 92 ac 0c 00 40 1b 33 a6 db 2c 0f e9 3f
       2.0061885332829257 0.7831024446510101
0000e0 0d a3 19 89 c5 fb e2 3f 32 ff cd 99 ba 4c b4 bf
       0.5932338407265846 -0.07929579024311975
0000f0 6e 38 b5 7f c3 fe fa bf ab c5 4a 6a e7 44 d2 bf
       -1.6871981609906714 -0.28545556430898483
000100 d2 3f d0 f4 28 57 f6 bf 2e c8 4e 85 52 dd dd bf
       -1.3962792933489152 -0.4666334440072458
000110 71 59 e2 2c 3a c8 fc 3f ff 0b c9 e9 1d 7c 00 c0
       1.7988836053169417 -2.0606039299468644
000120 fd 28 f4 95 fd 79 e4 bf fc b6 da 19 33 e8 e0 3f
       -0.6398914269241512 0.5283446793525566
000130 9f ec 99 b7 7e 6e d1 3f 86 eb 3a aa f1 36 ea 3f
       0.2723690789204713 0.8192070317085018
000140 82 e8 75 81 fd 2a b8 bf 7d be 23 66 e6 07 f4 bf
       -0.09440597925814312 -1.251928709967529
000150 c7 40 f8 b6 6a 38 d0 bf 96 6d bf eb 75 4b ff 3f
       -0.25344341152323263 1.9559230049988847
000160 73 5b 37 82 fd 8e ec bf ce a6 03 46 8f 95 c8 bf
       -0.8924548667226716 -0.19206419867196306
000170 7a 62 ec 13 74 40 c7 bf 72 6d 22 20 a1 eb 03 40
       -0.18165446255513357 2.4900534163004346
000180 b2 02 04 8c 09 7e 00 40 cd e3 45 91 5b 6b e7 3f
       2.0615416468357006 0.7318551862109587
000190 84 6c 20 71 a2 31 f8 3f e5 e4 90 7e 3b 37 ee 3f
       1.5121178072938912 0.9442422363273663
0001a0 90 37 32 21 ae 48 01 40 66 fc e4 48 80 0d ff 3f
       2.1604883759927773 1.9407961699905854
0001b0 06 d3 d9 1b 52 32 de 3f 84 3c 81 d3 fd 7d e0 bf
       0.47182133407413607 -0.5153798228219704
0001c0 59 0d 91 be bf 59 20 40 f6 8c 4a 90 84 d1 cb bf
       8.175291018683014 -0.21733147664517788
0001d0 36 84 36 b2 82 85 d2 3f 30 9f 18 e3 09 45 bd bf
       0.28939883617028117 -0.11433469576206501
0001e0 d1 7e f9 80 83 04 44 3f 44 b2 c7 08 fd 3e c3 3f
       0.0006108896358902554 0.1503597538825422
0001f0 5f 7d d6 a0 36 23 a0 3f df 95 c8 df 5c ad d9 bf
       0.031518656857992815 -0.40120622495518704
000200 99 a9 25 d7 f1 1d e2 bf 59 2d b1 08 3b 30 f6 bf
       -0.5661553575603647 -1.386775049165257
000210 61 66 8d 6a 43 e1 e8 3f a2 29 6f 51 08 b6 01 c0
       0.7774979668713052 -2.213883053021349
000220 3c 3c 11 48 7c 7e 02 c0 bf 6f 22 04 e0 08 e5 3f
       -2.3117604856738847 0.6573333817245767
000230 50 54 e3 de 30 61 df 3f 37 8f db a1 82 04 f2 bf
       0.4903070618286778 -1.1261011431278811
000240 73 a4 c1 5d d0 77 eb bf a8 88 38 f2 9a d3 e9 bf
       -0.8583757239513389 -0.807080720031327
000250 c0 22 cc 2b d6 3c da bf 9a e0 97 5a 4b 60 e7 3f
       -0.40996317174043995 0.7305046815299818
000260 fd db ca 8f 39 f7 ec bf 76 06 ba e6 cd 23 e4 3f
       -0.9051788147397698 0.6293706423168277
000270 98 14 d4 d2 85 5b 05 c0 ce 8e 77 3e 4c 14 a1 bf
       -2.6696888419124427 -0.033357985139245025
000280 13 85 51 e0 7c 5e b9 bf 6b a5 5c ed f9 c5 ef 3f
       -0.09909801937603317 0.9929170261358825
000290 fb 5d fa cd 6f 95 e4 3f 30 df 08 b9 b9 6b bf 3f
       0.6432417891509766 0.1227375103707089
0002a0 c7 cc 83 9e e0 95 01 c0 43 00 6e 42 0d 61 f6 bf
       -2.1981823333713666 -1.3986942858609985
0002b0 9e 7b 3a 3b 2f 15 d1 bf c7 e5 2d 83 02 95 d0 bf
       -0.26691799911525915 -0.25909483728863986
0002c0 5a 2f e4 7c cb ff b7 bf 52 fb 86 94 cf 35 cd bf
       -0.09374687003235974 -0.22820467712696285
0002d0 1a b8 9b e9 a7 34 c2 bf c0 70 87 e6 94 eb 01 c0
       -0.1422319307961864 -2.240030098923029
0002e0 45 f7 8c 2f ee 8c dc 3f e5 42 e8 23 82 9e 06 c0
       0.4461017097818181 -2.82739666035228
0002f0 29 c5 82 6f 2f e2 dd 3f 6d 95 e6 d7 b9 29 05 c0
       0.4669302548382626 -2.6453739993327674
000300 21 78 48 40 a6 2c e8 3f bd 06 60 99 8e 87 e8 bf
       0.7554503684548345 -0.7665474887473561
000310 ee 3f fd dc f0 26 d5 bf 22 b0 4a 7f 8b 2f e7 3f
       -0.3305017622087679 0.724553822151851
000320 a8 dd 97 c8 8b b6 a9 3f 12 36 62 0f 62 b4 db 3f
       0.050220840679624346 0.4328847074728809
000330 9d 0b 40 85 7a 2d ef 3f 1a 33 e9 e2 ea c4 0b c0
       0.974301586393597 -3.471151135198295
000340 6f dd e7 a5 4e a4 e2 3f 8a d3 0c 49 cf ae 90 bf
       0.5825570335718292 -0.01629184611666149
000350 b3 43 57 e4 f4 18 f5 3f ef 8f 6d 5d 45 27 d1 bf
       1.318592922169256 -0.26802190898729256
000360 0e 48 a4 46 18 c2 e4 3f ed 97 26 e8 ed 09 f9 bf
       0.6486932162972623 -1.5649241512669463
000370 d3 fe 5d 31 db 90 d6 3f a6 02 36 71 7e 8a 08 c0
       0.3525913221455827 -3.0676239819152498
000380 de f8 7e 59 3f 81 e2 3f 36 b7 80 4f e0 11 cf bf
       0.578277277752729 -0.2427330387303585
000390 f3 03 a0 ae bf 22 db bf f4 a2 79 be 94 5a 01 40
       -0.4239958958933691 2.1692290192480588
0003a0 04 a8 24 9c 72 d6 f5 3f 37 98 b9 2d 89 38 0d 40
       1.3648553943007764 3.6526053974403356
0003b0 a8 8d 2c 2f 36 f3 00 c0 bd 0f 4e 6f a9 61 f4 3f
       -2.118755692050133 1.2738432262276398
0003c0 26 40 30 93 2d 22 e7 3f ee c2 59 f4 18 68 ec 3f
       0.7229221224570253 0.8877072117303137
0003d0 ae c9 c1 a8 e8 70 03 40 ce f8 72 70 85 0a f8 3f
       2.4301312622203204 1.5025686638396567
0003e0 09 7d a6 91 75 47 0f 40 a6 e9 21 ea 66 1b 99 bf
       3.9098922137196763 -0.024518592872917154
0003f0 9d af db 85 a2 d2 c6 3f 5b ea 1d e3 fa 90 f9 3f
       0.17830306564371493 1.5978955146553264
000400 ee 9e 25 02 80 f0 0f 40 d8 71 d9 2d e6 01 d7 3f
       3.992431656621071 0.35949091413001844
000410 e4 4f f5 4a 68 cb ef 3f ec 61 db 39 86 38 e5 bf
       0.9935800041225744 -0.6631499414461905
000420 8b 5a 49 e0 40 df e0 bf b2 e7 c2 c4 4d 9f 09 40
       -0.5272526150318567 3.2027850505810074
000430 9d d5 dd ce d9 5a d0 3f 55 1d 84 2d 52 24 f8 3f
       0.25554509355364435 1.5088674333545289
000440 8c 23 5a 03 7a ab da bf 19 00 4f 88 23 ef d4 bf
       -0.41671610190729136 -0.3270958739412904
000450 5e ff 61 e6 d3 72 cb 3f 75 5f 8a c9 99 ac 05 40
       0.21444176434669776 2.709277700934701
000460 13 5f 03 89 25 f5 e2 3f 96 53 a3 79 bb 11 f0 bf
       0.592425124744269 -1.0043291808590076
000470 23 bc 86 28 09 f7 fc 3f 3b 7a 1c 11 96 95 dc bf
       1.8103114684161106 -0.4466300170041994
000480 59 dd 83 69 93 7a ff 3f ce b8 2f ee a2 69 e5 3f
       1.967425739448876 0.6691450740888969
000490 81 52 f7 b4 22 c2 91 3f bd dd 83 d9 34 7f f2 bf
       0.01734213094262538 -1.1560562607463531
0004a0 e3 7b 72 40 f9 2a f9 bf de 4e ad 3b 3a 86 b3 3f
       -1.5729916112393247 0.07626689869840272
0004b0 bc 31 33 72 52 f0 e0 bf 44 eb 0d a5 7d 4e eb 3f
       -0.529336188361007 0.8533313964574991
0004c0 42 b5 c5 47 3d 6d cc bf 06 63 d8 54 a7 51 d3 bf
       -0.22208372120386782 -0.30185874257726686
0004d0 52 3a ad 99 f9 4d 7c 3f e6 95 a9 8f 13 fa c3 bf
       0.006910300255937489 -0.15606922640578985
0004e0 46 0e b1 fc 2b 27 02 c0 ad 84 fc 7a 78 1a f0 3f
       -2.269126867440522 1.0064625553280095
0004f0 c8 78 13 c8 70 9f d5 bf 38 81 ad 8a aa 1c 0c 40
       -0.3378564790599623 3.5139971574973536
000500 c6 e0 eb ae c7 e7 fd bf 13 9a 6c a7 d5 f6 01 40
       -1.8690869171969537 2.2455247001664786
000510 05 0f ef a8 fe 14 ff bf 85 13 42 e1 a0 fb fb 3f
       -1.9426256751038988 1.7489327239174781
000520 a2 25 a3 c2 49 f4 d3 bf cc 5a 25 55 75 6b ea 3f
       -0.31178516395137923 0.8256174719816385
000530 3e 01 48 6d 29 e6 da bf 1e 8b 12 44 0b e7 07 40
       -0.4202979628753559 2.9878144567641263
000540 57 e1 40 11 4a 18 0a 40 e1 c5 35 9f 47 96 d8 bf
       3.2618600223469616 -0.3841723494325305
000550 04 1e d6 47 5b 04 df 3f 07 10 4a 2c 3c 2f ea 3f
       0.48464090361855505 0.8182659974122551
000560 24 3e 6c c7 df 00 f5 3f f4 39 8b 50 2f f2 95 3f
       1.3127134122804671 0.021431674281126648
000570 a8 6f 00 c1 03 cd ef bf 65 b2 90 e3 e0 70 c2 3f
       -0.9937762040676619 0.14406977759917364
000580 6e 7b 78 06 c5 1e be 3f 0d 75 dd c4 8d cb ca 3f
       0.11765700729345749 0.20933696854164233
000590 f1 7a 51 7f 11 81 e5 3f ac 5a 5e 3f 04 f7 ef bf
       0.6720054136929702 -0.9989033925692943
0005a0 eb c4 9e c7 11 2d cf 3f fc 53 6f 21 00 a1 07 c0
       0.24356291052894305 -2.953613530359233
0005b0 65 ab d8 09 b3 ee ef 3f b3 50 cf 7e 67 05 e2 bf
       0.9978881065666029 -0.5631597019915006
0005c0 0e 2f 46 ff c9 92 e2 bf 8b d5 51 ac 19 05 e4 3f
       -0.5804185853789663 0.6256225934618426
0005d0 31 57 a2 ab 99 b1 e0 bf 32 d1 73 07 16 c8 a5 3f
       -0.5216797210912089 0.04254216042491733
0005e0 41 4d c6 c6 ff 69 e0 bf 25 a7 17 4e ea ec f8 bf
       -0.5129393465344166 -1.5578406382068775
0005f0 72 a4 cd e4 26 8e df bf e6 65 a1 91 13 c4 ff bf
       -0.49305126518317544 -1.9853702248277556
000600 fb 88 32 17 80 6f f8 3f 0c 09 5c 6a 07 8b df bf
       1.527221766104559 -0.49286065470381923
000610 af 34 81 88 ad 79 08 40 12 df a6 94 97 2e fa bf
       3.0594130196028213 -1.6363750273430395
000620 5d 5f f3 f1 a5 21 23 c0 49 a4 82 11 ea 55 d5 3f
       -9.565719185789641 0.3333687945365154
000630 b7 21 2c 9e 30 88 f8 bf 01 bb 58 81 e2 c3 10 c0
       -1.5332494906052554 -4.191293736496619
000640 63 e9 a1 57 67 93 ec 3f f1 73 cd 6b f8 a4 c1 bf
       0.8929936133929853 -0.13784699691578298
000650 f1 b1 80 5c ab 5f be bf 32 e8 40 e0 af 7e f2 bf
       -0.1186472988926608 -1.1559294471649193
000660 61 d3 c2 fd db fe e5 bf aa 19 b8 96 82 7e bc 3f
       -0.6873607593794128 0.11130539111773055
000670 3a d2 05 6c 2c ff 17 40 3d fc 15 fa 40 9d 06 40
       5.999192893843935 2.826784089847506
000680 c0 02 8f eb 33 f9 a0 bf 2b eb 20 d0 82 db ba 3f
       -0.03315126657935741 0.1049119718672215
000690 eb 62 08 9f ea a5 e7 3f 08 1c 6b 39 80 d5 e2 bf
       0.7390034776791173 -0.5885621186688477
0006a0 0c 82 52 4c d2 47 f4 3f 3d eb 0c 8d 87 0d 08 40
       1.2675345403041574 3.0066061992232833
0006b0 58 d8 18 a4 b6 da f3 3f 15 fb a2 ba 5d de de 3f
       1.2408968362847386 0.482322151434276
0006c0 1b d6 db 5c 9d f1 a6 3f a0 8f 7e 20 86 54 00 40
       0.044812123856825724 2.041271451818787
0006d0 63 c7 b2 a4 3f ca eb 3f 36 f3 3b 9b fa af 75 3f
       0.8684385506405586 0.005294779711900335
0006e0 7a f3 08 62 f8 78 1a c0 65 e1 80 58 24 f1 01 c0
       -6.6181350057566934 -2.2427451052027885
0006f0 24 cc 7b 74 80 bf a5 bf 80 8e 55 d0 0e 48 b9 bf
       -0.04247666761320826 -0.09875576578411405
000700 ad 0b c1 c7 57 4b 06 40 12 96 f9 55 ac b6 d2 bf
       2.78678852136496 -0.29239948650351366
000710 3f 5b b1 57 76 22 fe bf 43 01 48 fa 2b d4 d8 3f
       -1.8834136415004676 0.3879499382164974
000720 da 5e d9 09 85 e7 02 c0 d9 2c f5 7e 27 2c e8 bf
       -2.363046719499704 -0.755389926876343
000730 15 69 9e 23 54 38 d5 3f 48 8d f7 1b 3b 5e e5 bf
       0.3315630290832286 -0.66775279485993
000740 a2 1d 0e cf 58 b4 df bf ff 8e e0 b9 95 20 f0 bf
       -0.4953825017950867 -1.0079552899196071
000750 ff 95 cc 04 27 54 bd 3f 1b 68 56 f0 64 82 f0 bf
       0.11456531397978863 -1.0318345440086947
000760 1a c4 cb eb 62 a1 04 40 1b 1f a2 95 4c f8 db 3f
       2.5788019582328277 0.43702997791886994
000770 4d 59 e1 4d e0 da 0d 40 bc da 7e cc e7 c7 eb bf
       3.73187313884697 -0.8681525224736428
000780 2d 96 10 f3 cd 05 a5 3f aa 22 ab d6 91 1e bf bf
       0.041059909745211655 -0.12156020632677192
000790 2c 78 ef 2d f3 8e f3 bf 92 79 83 93 92 27 ce 3f
       -1.2223998827316889 0.23558265879451007
0007a0 a4 91 88 9b 18 0e cf 3f f1 d9 c2 45 6c 93 00 40
       0.24261767954261615 2.071983857163325
0007b0 f6 10 75 8d 40 18 b1 3f da a8 b5 27 c1 14 ee 3f
       0.06677630857035752 0.9400335097864414
0007c0 e3 7a 15 26 0e 88 ed 3f 9f 47 21 c5 dd 22 b0 bf
       0.9228583091570183 -0.06303201735252494
0007d0 28 86 dc c6 c9 80 06 c0 95 4e 52 61 c0 a7 fa 3f
       -2.812884858708248 1.6659549523946329
0007e0 fe 11 69 26 85 ec e2 bf c0 57 af 60 fc 16 d8 bf
       -0.5913720846370436 -0.37640294496429405
0007f0 d7 2d 20 0c e4 c0 e2 bf ba 70 19 6d ee 96 fb bf
       -0.5860462414579456 -1.7243484746641529

module.module.layer_1.bias f8 [512]
000000 a8 db 31 38 aa a1 fb bf ea d0 63 4a e5 74 c7 bf
       -1.7269689746005756 -0.18325487263030676
000010 50 e7 15 73 d0 12 01 c0 bf eb c1 ab 84 8b fc bf
       -2.1341866484698713 -1.784062071731327
000020 85 72 a5 17 2d bc f1 bf 1a 6e 7b 0c a2 57 ef 3f
       -1.1084414409334908 0.9794473880569428
000030 d1 89 94 6d 8d e6 f2 bf 2e c4 b3 68 6b 77 d6 bf
       -1.1812872200467732 -0.3510387918932477
000040 42 7f 7d f2 1b fd c6 bf 2b e0 ca ed 7d 41 db bf
       -0.1795992788347523 -0.4258723089401452
000050 20 5d f6 83 af 20 cb 3f e3 72 2c df d2 39 ef bf
       0.2119349855754331 -0.9758085593089983
000060 1a 8d 0f 31 37 6c f3 3f 5a 68 03 a6 b7 8c ea 3f
       1.2139198223529264 0.8296774141738397
000070 76 e1 44 ae 81 0a f5 bf 3e f1 57 01 24 f5 e8 bf
       -1.3150650794396745 -0.7799243952027053
000080 35 73 44 60 70 a8 00 40 72 0c c3 fb 15 2b a1 bf
       2.0822455902947703 -0.03353184412255751
000090 65 60 10 02 48 32 f4 3f fd b7 c7 87 ca 3b ce bf
       1.2622757034896719 -0.23619968061342425
0000a0 a5 bd 3b 4a 1f 07 fd bf 76 e6 cc c0 f0 ef 01 40
       -1.8142388248196337 2.2421584188967314
0000b0 40 cf 36 31 40 d8 e4 3f ed 38 a2 23 79 87 f2 bf
       0.6513977967465294 -1.1580745117130917
0000c0 3a 52 5e 75 55 db f7 3f d8 40 9e f7 32 fb c0 3f
       1.4910482964234135 0.13266598788005157
0000d0 86 d7 69 ea d2 21 f6 3f 1b 68 16 ff 9f 5c e1 3f
       1.3832577854895773 0.5425567609956973
0000e0 89 5b a7 40 33 56 f2 bf b4 e8 de 9a f1 e3 f9 bf
       -1.1460449719940888 -1.6181503343237127
0000f0 6a e7 fa 8a fa eb fd bf 25 99 9c eb c3 e6 f3 3f
       -1.870111983195296 1.2438391879637234
000100 47 77 00 a1 5e 4e c2 3f f6 9d 07 7c a7 6e d7 bf
       0.14301665173928255 -0.3661287986019198
000110 fd 42 ac 9a e2 8e ea bf 4b ad fc d2 0c 42 03 c0
       -0.8299420376734755 -2.4072510226593855
000120 2e 15 48 03 d6 9b f3 bf 20 06 f6 a0 cc 55 e1 3f
       -1.2255458954035237 0.541723551156057
000130 62 c9 31 45 ef 47 f8 3f 91 84 0b 0b 20 15 90 3f
       1.5175621703061428 0.01570558612263945
000140 15 b2 85 35 66 a5 d0 3f 32 cb 33 59 a1 8e e4 3f
       0.2600951693227967 0.642410921309738
000150 2d c5 2b 77 5d 28 da bf 37 98 89 2f c6 c5 ad 3f
       -0.40871369016447795 0.058149522116579914
000160 a9 44 10 05 d0 ec e3 bf a4 07 83 b5 2d 94 02 c0
       -0.6226577853104988 -2.322352808057035
000170 81 49 b8 9b 87 08 c7 bf 79 c3 16 26 57 39 de 3f
       -0.17994780639180522 0.47224978179570304
000180 54 a9 0d f8 80 ad e6 bf 7b 1a 43 9e ab 56 e1 bf
       -0.708679661254147 -0.5418298808152281
000190 ea 68 d0 85 a3 29 00 c0 6f ee 64 9f 17 65 ef 3f
       -2.020331426069892 0.9810903657120899
0001a0 ab b1 d4 58 88 a8 fe 3f 12 9a 36 da da dc ec bf
       1.9161456556276828 -0.9019598257044115
0001b0 47 b1 48 08 22 56 bf 3f 5f 8f 63 6a bf 2b e5 bf
       0.12240803434605595 -0.6615902974994973
0001c0 8f 27 01 39 5f ef e1 3f bc 24 87 1b d2 35 e9 3f
       0.5604702103967031 0.78781991364044
0001d0 2c d5 c7 0f 45 b5 c8 3f a7 a2 1f 7d e3 d6 e8 bf
       0.19303191443001688 -0.7762315219707333
0001e0 7a 5a f8 9b a8 0a f2 bf 2e 0c 28 3f d6 67 e2 bf
       -1.1276022045691705 -0.5751754029773843
0001f0 48 fe cf 78 8e e5 d6 bf 7a a5 30 63 91 56 ea 3f
       -0.35776101873486654 0.8230673730187583
000200 b6 c7 69 cd 6a 76 f8 3f 73 3d d0 2b 81 62 fd bf
       1.5289104484513536 -1.8365489684545906
000210 23 07 81 3d 30 92 ee 3f e0 79 3d f9 44 9a f7 bf
       0.9553452683687492 -1.4751634345953946
000220 72 36 e1 85 f8 b5 e8 bf d8 a4 b4 41 da 7d e2 bf
       -0.7722132315481771 -0.5778628619492805
000230 19 a4 51 c1 c3 84 03 c0 3d e6 1c f3 60 80 e6 bf
       -2.4398264983215197 -0.7031712292002293
000240 f2 2c f2 a8 7a 4b 01 c0 f2 09 76 d6 23 b6 de bf
       -2.16185504902898 -0.47986694282022235
000250 67 f8 ba 8a d1 10 d2 bf b1 53 04 0b de 9f be 3f
       -0.2822765211857416 0.11962688225715003
000260 42 e2 a4 a1 f2 65 c3 3f f3 6e 87 0b 6a 5d dc bf
       0.15154869931008547 -0.4432015526378869
000270 23 ea 88 7e 0a 3a c5 bf 97 c6 8b 48 ea 94 ed bf
       -0.1658337705465139 -0.9244281212724726
000280 c0 31 bf 20 bc d4 d2 3f 92 da bc 69 4d 07 eb 3f
       0.2942343063157544 0.8446414056005145
000290 e5 43 dd 51 ad c0 da bf e2 cc 5f 6c 99 7e f6 bf
       -0.41801007265627127 -1.4059080346458406
0002a0 71 23 55 0f 64 8d df 3f 12 19 4d 56 cd bd c7 bf
       0.4930048131687306 -0.18547980035709394
0002b0 59 1c 9d ad 15 1a f1 bf ab 67 36 7d 35 39 ee 3f
       -1.0688683301721282 0.9444835134083766
0002c0 1d fc ca fc ea 24 d0 bf b2 f0 fb 59 8c 56 85 bf
       -0.25225329100425303 -0.010418983932588641
0002d0 6a 36 36 d8 5e 30 d8 bf 6b 68 eb 9b 1f 8a c1 bf
       -0.3779523002093358 -0.13702769387493005
0002e0 d1 c1 f1 d0 31 c6 df 3f b1 75 f7 a4 eb 35 f4 3f
       0.4964718380424787 1.2631641811379775
0002f0 84 d9 ca 32 3d 8b e3 bf f6 9c ac c2 f5 a9 fc 3f
       -0.6107469551123335 1.791494141050689
000300 00 1a 04 1d 6b f2 db bf 2e 74 c0 eb 62 c2 e0 bf
       -0.43667104562373993 -0.5237288097883999
000310 48 47 fe be d4 77 ee bf eb 4c c2 61 de 5b e5 3f
       -0.9521278124177366 0.6674644383769225
000320 ab c6 30 1c 32 f4 b6 3f ef d2 ab b1 14 ff eb 3f
       0.08966363132710835 0.8748877973690393
000330 df ca 80 ca f9 3d e4 3f 49 a4 89 0a 43 fa c8 3f
       0.6325653987063012 0.19513738646063164
000340 69 61 fb 5f 2a 3a ee 3f f7 21 d1 81 89 c9 e8 bf
       0.9446002840659676 -0.7746017013060386
000350 15 40 0a 90 aa 2e eb bf 30 1e 97 96 98 d4 f9 bf
       -0.8494465649873769 -1.6144033319886937
000360 2c 09 3e 85 35 dd ea bf b9 1e e1 11 3c d7 d2 bf
       -0.8395030596150597 -0.2943868803599617
000370 34 33 a8 70 87 dd cc 3f bc d9 2a c1 70 f9 e0 3f
       0.22551053047973257 0.5304492733765112
000380 ff 5c 16 a9 ac 15 cc bf f0 63 e4 c8 e3 a5 f9 bf
       -0.21941145187586383 -1.6030004355764014
000390 51 38 94 a2 04 99 f4 bf ee e7 36 6f 6b bb d6 bf
       -1.2873579359761786 -0.3551891885832664
0003a0 e0 4e b1 04 21 53 f1 bf c6 5d 1d 14 18 9e dc bf
       -1.0827951606087751 -0.4471492954666839
0003b0 ff 16 d5 8b 5d be f0 3f f5 5a 20 4f f4 a5 07 c0
       1.0464759313776424 -2.9560323888539366
0003c0 9b 34 30 bc 84 81 f3 3f 01 b2 12 ac ef 28 e4 bf
       1.219120726690824 -0.6299970970918026
0003d0 db 64 12 76 8a bb f1 3f af 8b 87 f2 4d 9d ef bf
       1.1082863437825867 -0.9879522072700321
0003e0 f4 4e 96 11 07 e5 e9 bf 55 e5 56 b1 6d 97 d8 3f
       -0.8092074721812126 0.38424246137909296
0003f0 82 ef a6 5f d8 81 ec bf 27 e2 ec a9 22 a8 dc 3f
       -0.8908502453045772 0.4477621707369814
000400 39 bf 49 f6 40 e6 f7 bf 27 56 3d 0c ad 13 f4 bf
       -1.493714296400823 -1.2548037031277859
000410 23 22 30 ea 1e 87 e6 bf 92 45 b7 72 cf a2 f7 bf
       -0.7039942335114272 -1.4772486191835452
000420 d6 52 fd 50 bc fc f4 bf 6a 9a a3 6d 9f 4a f5 bf
       -1.3117030299810515 -1.3307184489036907
000430 d3 e1 1f 61 6c f4 f8 bf 66 56 b6 b0 59 e0 ea 3f
       -1.5596736711432768 0.8398865176593062
000440 67 e7 d0 63 30 4c e0 bf 3b 7b 3e 5e e0 d4 de bf
       -0.5093004178554396 -0.48174294665834666
000450 56 76 f7 7f ec c4 fb 3f 20 60 29 62 94 7d ee bf
       1.7355771063515895 -0.952829543802185
000460 73 76 53 2b 1c 37 ef bf c9 ad a4 c5 d5 95 d5 3f
       -0.9754772993289421 0.337270205508244
000470 b6 d0 86 6f 61 49 ca bf e3 98 8a d5 6a c9 eb 3f
       -0.20536439843784188 0.8683370753031138
000480 d0 ee d7 28 cb 50 c8 bf 19 bd cb e8 7c 54 d1 bf
       -0.1899656247550099 -0.27078173383684284
000490 c5 f9 5a 92 fe 4b f0 bf 50 04 b1 3a 7a c1 e7 bf
       -1.0185533253676209 -0.7423678537671865
0004a0 d6 3a 9f d2 63 6b b8 3f 4f d4 2a ff 3e e1 de bf
       0.09538864032877412 -0.482497929751223
0004b0 3b e6 5a 72 41 39 b5 3f e5 b5 85 27 90 af d9 3f
       0.08290490190383874 0.4013405214271571
0004c0 84 ba 88 a9 79 08 ed 3f 5a 04 4a b9 67 11 c0 bf
       0.9072845755780041 -0.12553116366692302
0004d0 3f 8d 42 e3 21 67 d0 3f 1c 1a 5e 30 7a c6 eb 3f
       0.2562947005591986 0.86797818609995
0004e0 5a 6b 07 a2 f0 f1 ef bf b9 e1 cf d4 93 b9 c1 3f
       -0.9982836880329657 0.13847587481701654
0004f0 f2 f1 26 da 34 31 e5 3f aa a4 d3 6f 8a 89 b1 bf
       0.662256647184732 -0.06850495557923134
000500 ec bd 0d 09 1c b8 d5 bf 93 de 27 3e bf 0e f1 3f
       -0.3393621529021107 1.0661003520926087
000510 9f 84 a3 b7 90 03 ef 3f 9f ff 83 8f 57 73 e3 bf
       0.969185217542094 -0.6078298380889356
000520 92 45 92 41 21 5a e2 bf 7e bc 75 9a 73 d0 f1 3f
       -0.5735021858874225 1.1133914979543813
000530 3e 03 76 a7 ca e6 f1 3f 07 f8 24 03 53 7d 81 3f
       1.1188456098027042 0.008539818318805471
000540 0e 8c 4e 15 fa d3 f8 3f 70 4e d4 ea 8e 3b e5 bf
       1.5517521698282084 -0.6635202967176621
000550 d2 03 46 53 b8 6e f7 bf 74 31 05 ec 1e 5a dd 3f
       -1.4645312550421647 0.4586255364308933
000560 56 f7 76 cd 9c 0e e3 bf 26 2e 0e b5 41 b8 f5 3f
       -0.595533753679528 1.3574845383144605
000570 64 6a 27 36 fc 43 f1 3f 3f 9f 45 74 d2 80 a5 bf
       1.0790979495419828 -0.04199845952353919
000580 21 3d 49 11 d4 88 e6 3f fa 08 b0 7a de fc fe bf
       0.7042026841753889 -1.936735610245306
000590 fb 7d 14 72 77 bb e5 3f fa ee 7a 7f 31 89 01 c0
       0.6791341045499729 -2.1919889411345794
0005a0 88 72 8e dc 78 d6 f1 bf f3 e0 5f e0 9c 1d 05 c0
       -1.1148613563047167 -2.63945937435721
0005b0 28 a9 0a 3a e3 7b b6 bf 52 1a 1b b6 7b d5 fd 3f
       -0.08782787482292476 1.8646199334631501
0005c0 53 c1 f0 32 84 bd 03 c0 f7 d0 c0 e6 cf 85 ca 3f
       -2.467537305805459 0.20720862166638884
0005d0 89 e3 61 ae 36 48 08 40 c7 69 4e 32 4c ce f8 bf
       3.035260546076135 -1.550365635403624
0005e0 97 d1 83 80 af a7 bd 3f 89 25 5d cd c7 f7 cb 3f
       0.115839928508484 0.21849916007549222
0005f0 58 44 58 77 94 a5 ea bf ec d0 20 b2 24 06 f7 bf
       -0.8327123957589135 -1.4389998396046009
000600 fd e9 25 de 6e 9c e0 3f 6d 00 d2 2c da 1b f3 3f
       0.5190958346204863 1.194299864844676
000610 74 be 2c f1 82 a0 da bf dc 91 5c 47 39 d4 ac bf
       -0.41604684402680125 -0.0563066386805848
000620 21 12 0e 5c 75 9b 05 40 b0 ab e9 08 46 ed 02 c0
       2.7009074394029686 -2.3658562370596528
000630 10 f0 f7 29 ce db df bf cf 90 98 66 c2 be dd bf
       -0.49779085253226274 -0.46476802844177895
000640 97 96 3e 66 03 39 d0 bf 98 33 7a ac 59 5b e3 3f
       -0.2534798143845846 0.604901158208679
000650 f4 ae 13 3a 12 02 ea bf 3f 80 89 5f c6 63 d3 bf
       -0.812752831870482 -0.3029647763232823
000660 53 29 7b 11 f4 ef e1 bf a4 b1 6a c4 3e 49 d9 3f
       -0.5605411855151864 0.3950955312855291
000670 c2 f7 86 b0 3c 7f eb 3f 69 8d 5a 8e 36 a6 d8 bf
       0.8592818687245585 -0.38514484311800473
000680 b1 68 e3 8d 23 3e f1 3f 33 02 89 9e fb 8e f6 bf
       1.077670625926242 -1.4099079315930225
000690 bc 87 4b a9 e0 3d 00 40 a6 ec a5 01 0e 4e d0 3f
       2.0302136636900894 0.2547640815825595
0006a0 f8 9c 57 80 22 31 df bf b9 24 aa fe db 50 e4 bf
       -0.4873739484159638 -0.6348705266874709
0006b0 d4 6a 57 48 dc fe f5 3f ec c2 ab d0 06 1f d6 bf
       1.3747217965926 -0.3456437146951845
0006c0 5c b7 c6 ec 9c df df bf 96 53 78 d1 4b 04 d2 3f
       -0.49802325365714295 0.281512217102596
0006d0 28 2c 07 13 95 05 be 3f 9c d8 73 fb bc 6d f6 3f
       0.1172726794676896 1.4017915556301324
0006e0 75 da 23 bd 33 65 04 c0 b7 64 ed 34 f2 8e dd bf
       -2.549415090233476 -0.4618497387760487
0006f0 1b c1 3b dc 6a 0f ec 3f 53 87 a3 35 36 71 b4 bf
       0.8768820096429722 -0.07985247430363289
000700 76 17 b5 01 c7 2f ff bf 5c 21 82 d2 76 2f 00 c0
       -1.9491643969244854 -2.0231758542978877
000710 d7 a9 6b ce 33 4e fe 3f 9f e7 11 cb 90 14 da 3f
       1.8940923751166474 0.40750522452401045
000720 6d ac c3 b0 32 a6 e8 bf 9d 88 9f 98 40 95 02 c0
       -0.7702878429821688 -2.322877113693791
000730 cc 2f fe cb e3 b8 ee 3f 26 30 68 01 07 92 f0 bf
       0.9600695595013291 -1.0356512122116412
000740 e3 ed 1a 7b d6 ca 02 40 59 5f 21 c3 c0 71 dc bf
       2.3490419023125795 -0.4444429307527478
000750 c9 04 bf 9a cc 46 e9 3f 22 e6 26 1f f9 d0 e8 3f
       0.7898924848924703 0.7755094154774194
000760 0c b0 f7 41 d1 7b e8 bf 46 30 60 1f 78 8d f0 bf
       -0.7651144302776642 -1.034538385926696
000770 31 ae 9d 01 f3 19 a1 3f 36 fc 38 a9 69 5b 00 c0
       0.03340110201574154 -2.0446351261630538
000780 1e 0d e2 a3 ac 50 05 40 50 1b 8f 24 43 42 f8 bf
       2.664391784988438 -1.5161773136221264
000790 66 11 d8 46 db dc d6 3f dc 54 ad c0 71 c2 bb bf
       0.35723001402245413 -0.10843573526411227
0007a0 e6 c9 00 b1 07 14 a6 3f d1 ae a0 07 cd 9b e1 3f
       0.04312156711275232 0.5502686642625695
0007b0 cd f8 05 94 ec 7e 03 c0 de cd fb 0c 7a 9b f1 bf
       -2.4369746746370766 -1.100458193509318
0007c0 e9 13 f6 77 4a e2 f0 3f 25 f4 43 cc 8b f3 f9 3f
       1.0552468000398625 1.6219594935530577
0007d0 e8 84 9d eb 23 bb 02 c0 c9 e6 5f ea cf aa f3 bf
       -2.341377106423 -1.2292021899469765
0007e0 fe 38 19 78 3c 16 d9 bf 4c 99 d8 c4 66 68 e8 3f
       -0.3919821904027144 0.7627443165445498
0007f0 e0 78 06 b9 af 25 dc 3f 93 0a 5a 1e d9 e0 e2 3f
       0.4398001963508147 0.5899472801978213

module.module.layer_2.weight f8 [128, 512]
000000 fd 07 87 44 14 7b c0 3f 6f 14 1c a7 d8 15 d4 bf
       0.12875607820575388 -0.3138333923273597
000010 6a 8c 2c cc 40 fc d2 bf df 2f 87 4c c6 5a d7 3f
       -0.2966463083159342 0.3649154422134852
000020 b7 e1 06 7d b6 a0 c9 3f cf 7e 2b 8f 09 1e e7 bf
       0.2002170668108769 -0.7224166675841505
000030 32 8a f6 d9 cd 18 d5 3f bf c9 92 2d d5 4d db bf
       0.32963892255262117 -0.4266255326321264
000040 b7 e4 83 61 56 e3 f4 3f 57 36 33 f4 d9 4d 6e 3f
       1.3055023011386717 0.0036992318069682217
000050 8d e3 fc b4 82 cc e1 3f 02 21 ef c2 8b fd 8b 3f
       0.556214669696702 0.013667194258133456
000060 1d de 7e 3f 16 6d ee bf da a5 15 b5 8b 23 a1 bf
       -0.9508162727497084 -0.033474317412423196
000070 99 9d 9d e5 da 2e c2 3f 18 a3 0f 0c 71 35 ea 3f
       0.142054903142008 0.8190236316268935
000080 3f 63 d4 ba d0 7f bb 3f f7 7f c3 00 81 3a 89 3f
       0.10741905747671597 0.01231861861782589
000090 2e fd 8e 36 ea 1f 94 3f 0d e4 cb 82 5f 86 c7 bf
       0.019652995662679355 -0.18378824125809992
0000a0 91 42 b9 58 8b a7 d2 bf 47 0a c8 4b 23 c9 f5 bf
       -0.29147609390660373 -1.3616059265338138
0000b0 f3 41 55 d8 6b af c4 3f 27 8b 8f 49 6a 86 d3 bf
       0.1616034323037777 -0.30507905181564116
0000c0 58 b7 5c f8 67 28 c7 bf f4 e7 35 cc ba 73 d9 3f
       -0.18092059733447274 0.39768857901037724
0000d0 6f bf 54 86 f3 be b1 3f e3 ee 63 bd 76 83 be bf
       0.06931993512693933 -0.11919347881115132
0000e0 48 a6 df 22 0d 95 f5 bf b4 6d 7a eb 8b f2 e8 bf
       -1.3488894808055125 -0.7796077346023851
0000f0 07 8c d2 7a b2 3f df bf a9 25 d9 05 ba 02 ee 3f
       -0.48826276773814964 0.9378328432296047
000100 2a 3e eb 9c 5b 42 d7 3f c3 f7 fc 29 20 63 bb bf
       0.3634251625453283 -0.1069812872419496
000110 35 0c 19 de 54 3a ef 3f 74 e4 2e 0c 0d 0d 91 3f
       0.9758705461357581 0.016651347988702672
000120 e9 61 2d cb 2e b0 cf 3f c3 cd ff 17 36 58 cb bf
       0.24756417198911088 -0.21362949535214967
000130 a4 1f 15 85 5f 99 db bf d2 8a ed 4c 5c b9 d5 3f
       -0.43123615261401427 0.33943851006021675
000140 26 23 55 bb b1 99 df bf f0 e6 c8 2c 4b 90 e2 bf
       -0.4937557534618001 -0.580113971205007
000150 62 02 8f c8 c9 e5 e7 bf 45 79 06 3f d0 3f d7 bf
       -0.7468003194008583 -0.36326986460507654
000160 df 2e d3 51 10 3d b1 3f 0b d0 42 2f 72 03 cc 3f
       0.06733800885848094 0.21885516460099583
000170 fc 82 12 42 75 53 e3 bf ee 00 20 b6 bd e8 b3 3f
       -0.6039377489542797 0.07777009674464683
000180 4f c5 5c 70 87 7f c9 3f 37 dd ba 56 aa 30 af 3f
       0.19920437799877752 0.06091816242899955
000190 7c 70 94 66 dd 2f c3 bf 4e f2 cd 48 c3 13 a4 3f
       -0.1498982191923267 0.03921327842451615
0001a0 a3 b7 20 7e bb 0b f6 bf d1 63 b8 ad 83 0b ee bf
       -1.3778643538348454 -0.9389055626844486
0001b0 6a 57 a0 24 d8 cc bd bf 05 e3 e9 5a 68 6b f6 bf
       -0.11640692609975437 -1.401222567683534
0001c0 20 da a1 e6 2b 8b dd 3f f7 be b2 56 8c 12 e5 bf
       0.46161935351065786 -0.6585141843151793
0001d0 51 7c ce ec de ba c9 bf 43 cf f2 1e 74 f0 dc 3f
       -0.20101534426518922 0.45217612287818926
0001e0 5c df 2d 6b a4 59 f0 3f 8e 5e 0a 0c e0 42 f3 3f
       1.0218853174864853 1.2038269491512525
0001f0 b6 ae 28 9f 14 c6 bf 3f f8 70 0c 99 07 7a df bf
       0.12411621938434333 -0.49182310053016876
000200 4f cc f8 5a f3 40 f2 bf 9e d3 7b db ae cb d2 bf
       -1.1408570817555022 -0.29368182596163617
000210 e7 27 30 d6 fa 0e e1 bf 29 ef 6a 93 88 50 ae bf
       -0.5330785926209928 -0.05920817184002509
000220 8d 5f a2 6e 51 1e e7 bf b1 38 36 41 ce 2c e2 bf
       -0.7224509392572017 -0.5679694436710375
000230 64 33 99 e7 1b 91 dd bf 46 9c f9 c2 c1 71 c2 3f
       -0.46198175065074154 0.1440965845133368
000240 26 fa 64 a7 85 74 e7 bf 71 30 46 09 d0 9a d4 3f
       -0.7329738873884863 0.3219490137642032
000250 20 44 60 34 1b cf ce bf c5 11 e8 16 14 2b c4 3f
       -0.24069538171218685 0.15756465071184614
000260 03 7f 46 65 f3 d7 a8 bf 87 bd 50 03 f5 64 da 3f
       -0.0485225735785644 0.41241193126457926
000270 d8 d1 a4 82 24 fb c9 3f aa 42 63 07 81 d1 f6 bf
       0.20297676447957147 -1.4261484421332775
000280 6e 43 1d 1b 83 d4 d1 3f f5 66 7e 9f 75 ee ca 3f
       0.27859571121103144 0.21040220535069634
000290 5f dd 3c df f8 c3 e2 bf c6 7d 5f 81 21 c2 d4 3f
       -0.5864223823654519 0.3243488086136178
0002a0 e6 ec 49 9f 47 69 d8 3f e8 4e 6b ee 57 2f de 3f
       0.38142576747459456 0.47163961680528965
0002b0 ef 2f b6 df d9 1e c5 3f c0 a1 9e fa ec 27 d8 3f
       0.16500399993344625 0.3774368712861609
0002c0 a8 bf 7e d5 e6 2a c3 3f c1 0d 34 f6 8d a0 e2 3f
       0.14974675583425534 0.5820989426287541
0002d0 3f 55 69 4e cf 3a df bf d9 13 ba 5d aa a6 7b 3f
       -0.48796446473473404 0.006750741474779575
0002e0 01 5e 30 ba 6c 27 df bf 50 0f 58 66 4b fa b9 3f
       -0.4867812937022507 0.10147544144279874
0002f0 86 54 64 09 7f 7c dd bf 0f f0 22 72 f5 5a c3 3f
       -0.4607236472814481 0.15121334145612805
000300 f9 b4 9d ab 09 ac d7 bf ce ae bb 03 53 10 e6 bf
       -0.3698753524721066 -0.6894927094376386
000310 5d 96 75 19 e0 c4 b8 bf 82 61 c0 a1 22 e6 d3 3f
       -0.09675408002439086 0.31092134281200157
000320 5c e5 4a d6 0a 8c 98 bf 4a 3d 9a 96 ba d4 c1 bf
       -0.023971719102268238 -0.1393044696201094
000330 2d ad 1c 8f 8e fb b3 3f 64 29 94 83 7f 1f b0 3f
       0.07805720323510874 0.06298062288639056
000340 76 70 35 a3 af d5 bc bf 6e 82 fb 2d 03 09 e9 bf
       -0.11263559088314587 -0.7823501489729787
000350 08 a4 48 9b 8c b8 e2 bf 2e 52 0e 5d ec 3e eb 3f
       -0.5850279839406776 0.8514310662745339
000360 f2 71 78 d1 b0 a0 e0 bf 19 bd 2a d1 d4 6a c7 3f
       -0.5196155635090334 0.182947733051585
000370 e2 8c 25 75 21 36 d9 bf a6 04 a6 2a 73 73 c6 3f
       -0.39392887535195886 0.17539825041243268
000380 43 22 ea 4e 1e 3e d7 bf 86 6a d6 1d 25 40 b4 3f
       -0.3631664057398078 0.07910377481895567
000390 dc a4 3f 2c 8a fd b6 bf 33 cd 91 50 36 6f cd 3f
       -0.08980620937622369 0.22995642599162522
0003a0 88 a8 1b 93 81 d1 d0 bf db 25 40 5b 29 c0 e9 3f
       -0.26278724065799297 0.8047072202909321
0003b0 c6 c1 20 6f 61 66 ee 3f aa 25 83 7d c0 fa d0 3f
       0.9499976320712953 0.2653046823221198
0003c0 d3 4c d0 65 f3 c6 cc 3f 30 53 f1 1d 55 cb bf 3f
       0.22482149573679652 0.12419635754606584
0003d0 4d 72 3d 55 31 f3 b2 3f 61 bd 35 80 3f 33 f0 3f
       0.07402332621627146 1.0125117309761082
0003e0 63 76 f3 89 a1 ce ee bf e2 ab 6c c4 2f 15 da bf
       -0.9627235121112786 -0.4075431268890367
0003f0 0f 66 04 2e 75 a5 99 bf d2 ff e5 bf e6 ce ac 3f
       -0.025045233663240348 0.05626603214750471
000400 95 86 38 d5 30 8f c7 bf eb 0c 31 e7 a8 c2 a2 bf
       -0.1840573350064473 -0.03664138624346854
000410 41 dc 44 6b 9c 3b fb 3f 48 09 a8 b9 13 83 a6 bf
       1.7020534696764715 -0.043968788540967696
000420 da 8e 24 1d 3b 45 ca 3f 51 fa 5b ca b2 88 f4 bf
       0.20523775980938447 -1.2833736328754137
000430 93 fb 83 de 94 9a ce bf 40 f7 47 15 83 fe d5 3f
       -0.23909245362298445 0.3436591823409465
000440 ba ed f0 ed ac 0e dd bf 8f 49 e2 6a 9e eb a4 bf
       -0.45402072178304886 -0.04086012892470869
000450 47 12 ae dc 12 9c d5 bf 73 ee d1 61 de 36 c5 bf
       -0.3376509814336583 -0.1657369592320382
000460 b7 45 56 1c 17 5a 7b 3f 57 96 cd 85 09 83 dd bf
       0.006677713657511067 -0.46112287584978645
000470 c2 f4 12 f9 6a 44 be 3f 92 50 87 07 99 50 ac 3f
       0.11823147374066692 0.055302412194266584
000480 2d 99 e6 ee 61 b3 f1 bf e8 a3 e3 a0 fb 7b c1 bf
       -1.10629456825843 -0.13659615856093343
000490 49 ee ee 95 04 c1 de bf e7 c2 8b 9f 78 b0 ae bf
       -0.4805308784668552 -0.05994011828977879
0004a0 84 8c 75 ab 3f f8 e0 bf c7 4e 0c a7 83 50 bc 3f
       -0.530303797608568 0.11060355022737688
0004b0 e7 fa 78 44 27 f3 f4 3f 6e ac 7e 7d 96 15 df 3f
       1.3093636202535721 0.48569261794427276
0004c0 f5 1f 1d 72 1b 17 e0 bf d6 b7 c3 0f 31 55 a4 bf
       -0.5028207043442295 -0.039712460684185366
0004d0 eb 05 d0 5f 85 e8 e1 bf 9f e1 dd 8d f8 d6 c2 bf
       -0.5596339103068976 -0.1471853916843999
0004e0 dd dd b7 12 51 0d e3 3f 8c 5a 81 e0 1d 0c c7 bf
       0.5953755727377331 -0.18005727255031834
0004f0 bd d6 84 65 41 ca d5 bf a2 82 bd bc 87 4c b8 bf
       -0.34046969331698645 -0.09491775854031428
000500 62 51 b5 14 b6 64 e9 bf df 1b dc 38 89 18 c4 bf
       -0.7935438541849573 -0.15699878002507625
000510 b2 25 6d f1 6d b2 f1 bf 30 78 d4 e7 2e 01 f2 bf
       -1.1060618811337517 -1.1252888732774515
000520 fa d9 74 18 d7 1d ca 3f 0b d3 1c 61 5c cd b1 bf
       0.2040356511513009 -0.0695398079959199
000530 31 f6 76 d4 ba 0a d7 3f 34 ed 20 c7 75 b0 e7 bf
       0.3600298952913788 -0.7402905358534668
000540 f7 60 22 29 05 ae e4 3f 46 18 7e 02 a2 51 f2 bf
       0.6462426951793806 -1.1449298951497595
000550 a4 2c 8f d5 3d dd d5 3f cc 50 52 41 34 fc b1 3f
       0.34162851195714894 0.07025457949413577
000560 07 9a 56 20 fb b8 96 bf b9 11 32 10 b5 c1 f0 3f
       -0.022190021370670745 1.0472918160095175
000570 06 8c 42 4d 3e 4f ee bf 18 51 3e a7 b8 14 89 bf
       -0.947173262499178 -0.012246553996910367
000580 a8 d7 d7 71 9f 9d c5 3f 29 db de b1 3e 6f cc 3f
       0.1688727670550041 0.22214492497524788
000590 0f 05 ff 43 2a ac e9 3f ce 5c 26 67 ff 82 c3 bf
       0.8022662475633825 -0.15243523155797906
0005a0 16 38 30 53 6e 67 82 bf e6 38 35 ae 72 b0 d5 3f
       -0.008986341394145152 0.338894529461767
0005b0 58 b2 31 bb f1 9c a6 3f 33 03 36 08 1d c7 ea bf
       0.04416613969883504 -0.8368058357592417
0005c0 b2 c7 29 be 0f 2d a8 bf b0 a6 54 4e 13 af d0 3f
       -0.047218791926652584 0.26068575524787274
0005d0 04 c7 a3 f9 36 0c f8 bf 08 0b 20 f4 a5 a1 c7 bf
       -1.5029821158936452 -0.18462061329054102
0005e0 39 c3 66 75 91 ec c0 bf 83 67 03 99 5a 59 e1 3f
       -0.13221948845377954 0.542157458166216
0005f0 0b a4 ac b3 80 f3 da bf a8 29 cc be 82 c4 b8 3f
       -0.4211122278816794 0.096748515683578
000600 f9 a4 e8 6f c3 51 d4 bf 81 4a 2d 84 5f 9c c8 bf
       -0.3174904435023361 -0.19227212861968115
000610 43 da ee 23 e5 84 f3 bf cc f7 b2 7d 19 aa be bf
       -1.21994508777938 -0.11978301352334525
000620 25 83 93 12 44 47 f8 bf 4d 17 65 d3 1c eb b2 3f
       -1.5173989034303272 0.07390003357894877
000630 74 98 19 d4 9e 78 e7 bf a7 56 ce a9 db 03 d2 bf
       -0.7334741728379996 -0.2814854772817434
000640 56 87 1a 90 2a 84 7d 3f c3 74 c8 76 ef 34 d5 3f
       0.007206121693941933 0.3313559207907241
000650 b6 f9 ec 8e 6d a3 d7 3f bc 1a 3c 2f a1 24 f2 bf
       0.36934985120378927 -1.13394278002822
000660 b7 f7 2b 2d 62 66 d5 bf e1 2b 46 48 4d cf bc bf
       -0.33437399302772114 -0.11253817572121207
000670 b8 22 38 e2 08 c7 ed bf dd 8a 4c 8d f3 83 b9 3f
       -0.9305462282510097 0.09966966819460361
000680 44 4b 54 4f f2 09 a1 bf b2 b4 04 e8 25 30 ac bf
       -0.03327901094794197 -0.05505484063392298
000690 53 8a 72 b2 52 66 d9 bf 01 ef 70 1a a1 cf bd bf
       -0.3968703024530999 -0.11644942184005559
0006a0 1f 38 77 8a 0e de d0 bf b9 c2 67 1e d8 5b 7a bf
       -0.2635532715038397 -0.006435245717953003
0006b0 fc 57 dd b4 52 2d c5 3f 1b 4d a8 b0 bb 9d f0 3f
       0.1654456503990217 1.0385090733223652
0006c0 c6 45 57 2a 38 d1 eb 3f ae 65 52 c8 85 c7 9d bf
       0.869289477059447 -0.02908143077056529
0006d0 c5 54 2a c4 95 27 d6 bf 8d 34 ac 46 14 15 ba 3f
       -0.3461660781552605 0.10188414311797285
0006e0 14 25 20 53 99 06 bf 3f 1c 44 15 98 c2 b0 e6 bf
       0.12119444159920462 -0.709077164685485
0006f0 c6 97 6c 6e b8 88 b8 bf 8f ea 8d b2 a1 37 c3 3f
       -0.09583618827727411 0.15013524263834596
000700 5a 8a 45 9d c5 a9 c7 3f b0 39 89 95 a6 c5 b9 3f
       0.18486852816848193 0.10067216063291684
000710 ec 1a 08 d2 4d 91 f1 bf 44 7d a2 92 b6 ab e8 3f
       -1.0979746059762716 0.7709610809287502
000720 55 8a 6d c7 68 96 db 3f 98 e9 3c 8f a8 89 d7 3f
       0.4310552547014244 0.36777700412826553
000730 bd 98 c4 c0 29 f2 e2 bf 16 63 1d a7 b6 e1 a3 bf
       -0.5920609250067838 -0.03883143224692824
000740 cc 5c f8 89 e3 bc da 3f 3f 9a c1 65 50 93 cd 3f
       0.41777885888718624 0.23105816811149002
000750 1c 24 88 2f 5e 65 df bf 0a da 35 c5 c6 90 ad 3f
       -0.4905620063951248 0.05774518163064009
000760 64 fd 94 6b e9 95 eb 3f a2 cc 0a df 51 9b bc bf
       0.8620497800074358 -0.11174499221196979
000770 43 35 d1 b5 5f 22 c6 bf 36 1b 2e 21 dc 8c d4 3f
       -0.17292400720399756 0.321097404863781
000780 17 fb 98 00 fe f8 e6 bf 8d 27 65 90 c9 9d b7 bf
       -0.7178945552512656 -0.09225139403602452
000790 98 1e 25 ba 37 9b d2 bf a1 c8 a7 e4 60 8d a2 bf
       -0.29072373560163944 -0.03623488227084804
0007a0 3a 62 ec 0c bb 54 cd 3f 65 27 db 80 3d 6b c0 3f
       0.22914827471756088 0.12827271262932097
0007b0 f4 f7 bf c7 04 14 cc bf ca 34 ff 69 f1 f6 cf 3f
       -0.21936092141544317 0.2497236030161843
0007c0 31 10 87 ee bb 9b e4 3f 8c 40 cf 32 9a c1 d4 bf
       0.644010511278344 -0.32431654893753925
0007d0 9b 7a 97 1a c4 a1 de 3f 31 9d 05 0f 8a 3f d3 3f
       0.478623414963218 0.30075313059792835
0007e0 13 ed 99 0a 54 2b 9f bf 03 5b 09 46 d7 d7 e9 bf
       -0.030438721797037504 -0.8075977676297444
0007f0 83 d1 65 8c 5e da c2 bf fe a4 ab 2f a2 5b d4 bf
       -0.1472891030822546 -0.3180928674251645

module.module.layer_2.bias f8 [128]
000000 45 df d3 97 46 7b c3 bf 00 40 10 6e 22 02 ad 3f
       -0.15219957745989113 0.05665690988109873
000010 42 1d 2c b3 b6 7a b8 bf 77 60 54 b3 4c f2 b9 3f
       -0.09562246202778105 0.10135344865955341
000020 88 e7 d5 f8 28 e5 b7 bf 45 39 a5 73 4a 1d af 3f
       -0.09334045481764808 0.060770346276159994
000030 bd 54 cb 38 07 59 90 3f dd 76 a6 d3 fa bd a7 3f
       0.015964615670630112 0.04637130578633528
000040 96 e1 f7 c4 c9 03 b3 3f 15 c0 53 16 ee 90 bb 3f
       0.07427655276104014 0.10768020672890118
000050 80 62 19 98 ee 02 b0 bf c9 99 ad 32 37 aa bf 3f
       -0.06254473889692669 0.12369103419550877
000060 96 44 bb 7d cc dd 95 3f 72 16 c0 bc 78 18 c2 3f
       0.021353907751124078 0.14137181488347356
000070 4f 5b 2d 6c 22 b4 a5 bf 64 85 cb ed 38 c6 a4 bf
       -0.042389941888066766 -0.040574816730223146
000080 2f c8 78 a6 3a b3 99 bf ab 05 f0 1a 7a 39 ae 3f
       -0.02509776726783047 0.05903226450756035
000090 af 89 ac 06 74 b1 c6 bf 83 b1 31 ff 6d 36 c8 3f
       -0.1772904427135251 0.18916106186533108
0000a0 4f c7 be b5 83 85 c1 3f 25 87 c4 f6 f9 95 b9 3f
       0.13688703893927331 0.099944708581941
0000b0 57 ff 72 80 85 64 c1 bf 6e 7e 51 83 96 1c be 3f
       -0.13588017246183412 0.11762371736539887
0000c0 22 1b 17 41 f4 3f 9e 3f 2b a5 c3 c8 7f ea 91 3f
       0.029540840599817327 0.017496105793644617
0000d0 0f 4c 22 4e 13 df 81 3f 56 f7 fd e9 9f 04 c3 bf
       0.008726263830146434 -0.14857863355058026
0000e0 30 d3 da a6 64 b4 c4 bf 12 bd 67 54 c7 6c b6 3f
       -0.16175516268926904 0.08759733019518404
0000f0 de e9 d9 9e b9 b5 b9 bf 22 37 2c 01 70 d1 a7 bf
       -0.10042915466502886 -0.04651975645366081
000100 90 93 49 75 87 f0 ba bf 9c c9 91 d5 d4 d3 c7 bf
       -0.10523268331014735 -0.18615208080479995
000110 59 ba e5 47 a5 3c b5 3f 3d e7 48 60 01 0a bc 3f
       0.08295662885004997 0.10952766991331671
000120 91 40 f7 09 21 a7 a2 3f 30 f7 44 d7 9c 8f c2 bf
       0.03643134352353273 -0.14500771056366935
000130 a9 b6 68 96 00 b1 b0 3f 28 1c 22 aa 5a 7d c4 3f
       0.06520084068389544 0.16007550532614911
000140 0c 05 26 d4 f2 fc bd 3f a7 f3 ca 1a 0e 48 b1 3f
       0.11714093856246083 0.06750572351570715
000150 33 a3 9b cc 62 01 a5 3f 05 cc c1 6f d2 ec 9a bf
       0.041026198841626636 -0.026294029303652895
000160 e8 97 25 b7 37 f6 c9 3f ef da 98 de 68 e8 ba bf
       0.20282646601407284 -0.10510878977298053
000170 01 8f df c4 91 99 80 bf ba f0 02 02 08 19 c2 3f
       -0.008105410404773307 0.14138889406411242
000180 6c 13 69 65 d0 05 85 bf 97 37 1f 76 0c de c7 3f
       -0.010264995665360842 0.18646388786004017
000190 0f 83 ba e6 ea 6b b2 bf 65 df 43 58 c9 ad b7 3f
       -0.07195919163724461 0.0924955215922388
0001a0 2f 77 49 e8 55 63 ac 3f 2d b8 94 fb c2 2e 84 bf
       0.05544537029775964 -0.009854815771714065
0001b0 2d 09 79 a6 12 b8 a3 3f 5d ab f1 7b 86 fc 93 3f
       0.03851373941553713 0.019517995181029025
0001c0 36 ad 50 ea 96 77 9d bf f2 1c 15 ce cb a0 bc 3f
       -0.028776510287724842 0.11182855397520422
0001d0 32 71 3c 49 c6 bf b8 bf 08 2e 6c f1 09 fd 86 bf
       -0.09667624748221185 -0.011224820785648695
0001e0 75 df 33 fe a3 36 c2 bf 71 8b 0f 5d c5 e1 a3 3f
       -0.14229249870526997 0.038831870660735464
0001f0 ad e7 75 e0 63 66 b2 bf 44 44 86 b0 6c 30 99 bf
       -0.0718748496055059 -0.02459878756923596
000200 8f 9f 11 a6 97 63 b5 3f 1d f0 3c 7b 32 1a a0 3f
       0.0835509090844637 0.03144986872072784
000210 73 eb 16 dc 6f c5 aa 3f 4b 2b 6f 60 94 dd aa 3f
       0.05228757440223477 0.052471768161544384
000220 f6 a2 4e 51 cd fa bb 3f 64 46 12 b3 bb d8 7d bf
       0.10929568514860563 -0.0072867710124612
000230 d9 ed 45 03 80 e2 c4 3f e7 95 3b cb 97 8f b7 bf
       0.16316223296949664 -0.092034804456112
000240 99 4d a2 18 20 7e c3 3f a9 97 50 23 26 c7 b2 bf
       0.15228654101211417 -0.07335127222230987
000250 8b 5f fe a0 25 37 ce 3f 9e d7 59 de d4 24 bc 3f
       0.23605795250909653 0.10993700436105633
000260 88 24 10 c9 9f 4b b3 3f 5d f4 c3 37 2d 84 b2 bf
       0.07537268313184786 -0.07232935534916991
000270 cf ac 74 e6 aa e3 a2 bf 2b 85 20 48 3b 05 a2 bf
       -0.03689321578198134 -0.035196163706368765
000280 34 d6 87 5a 2e 25 97 bf f4 e4 80 78 00 77 a3 3f
       -0.02260277202181822 0.03801728697767173
000290 4e a4 28 62 8b af 9b 3f ca 5f cd 0b 5e 13 b3 3f
       0.027036836496481968 0.07451427257672019
0002a0 38 38 fb f5 cd d3 a0 bf c4 95 25 ff b8 47 b6 bf
       -0.032865940358178525 -0.08703190068407368
0002b0 c8 55 f7 23 14 b4 a9 3f 85 08 6e 2d 5f 39 c0 3f
       0.05020201624908399 0.12675084799053962
0002c0 c2 a9 57 b1 db 35 b6 3f 20 32 37 fb f2 22 bf 3f
       0.08675931052827138 0.12162703164285249
0002d0 65 20 cb 5d 7c 3b 7a 3f 99 76 2e aa 85 1b b8 3f
       0.006404386335539501 0.09416995434591015
0002e0 2d c5 ae f7 b5 67 b3 3f f6 12 16 40 0a 19 72 bf
       0.07580125138226342 -0.004418411293390481
0002f0 3a 68 f9 54 27 8e b3 bf 61 81 17 2d 62 ce 9f 3f
       -0.07638784241262978 0.031060728075204994
000300 16 38 10 6d 4c 42 a8 3f 58 75 4e b0 ba 09 ce 3f
       0.04738081771220963 0.23467191323008296
000310 e5 be 1c 79 72 dd b6 bf 5d 21 b5 49 44 65 a3 bf
       -0.08931651551096882 -0.03788197898626564
000320 f0 1d d3 cc 4b a9 90 bf fb 3e 45 64 87 b5 c0 bf
       -0.016270813347345425 -0.13053982158680086
000330 bc 72 80 6c bc 75 ba 3f e8 50 07 68 a9 4c ba bf
       0.10335900925606273 -0.10273226537475788
000340 5f fa 2f db cc e4 a9 bf 30 61 ed 3a da d8 b1 3f
       -0.050573732143665444 0.06971515597013389
000350 c9 a2 4f 55 89 49 67 bf c1 c5 9f a5 f7 7f a0 bf
       -0.002842682103154058 -0.03222631356028272
000360 95 d9 dc 45 04 cb c6 bf b8 99 fe 2f 35 8e b0 3f
       -0.1780705777288857 0.06466991826764612
000370 ea 80 c0 0d 9f ff a5 3f e0 c7 17 74 d7 34 9b 3f
       0.042965860775668066 0.026568762264964962
000380 2c fa 8a 72 73 2c 84 bf 60 1a 3c 59 2b 53 c3 3f
       -0.00985040849024895 0.15097562653700702
000390 5e 59 70 46 2a 62 cc 3f ef dc 88 7b 71 5f be bf
       0.22174576224706305 -0.11864384904844248
0003a0 1d 11 6d ac 15 76 c8 3f 41 39 00 c6 44 3d bc 3f
       0.19110365790596343 0.11030988534932808
0003b0 36 b4 3a 89 f3 41 a7 3f e2 c7 56 e3 43 23 d0 3f
       0.045425043584466016 0.2521524162394809
0003c0 f1 0b 00 bb f8 30 c0 bf 80 ad 44 64 22 bd c1 bf
       -0.12649449473255417 -0.13858442207252253
0003d0 47 77 f0 e1 47 1a d0 bf e1 59 30 7f f6 d7 a6 bf
       -0.25160405220400545 -0.044616416002259525
0003e0 c4 f4 96 66 dc 5c 9a 3f 66 0d 6d 56 26 27 c1 3f
       0.025744861375405007 0.13400725574511368
0003f0 92 f9 c4 47 fa 8e d1 3f 07 23 ae 86 a4 f9 c1 3f
       0.27435166367276864 0.14043098999197687
