old_models/old_kml_ml/saved/7_ft-33_pct-all_wl-45_epch.pt (torch, 634920 bytes, 8 tensors)

module.module.layer_1.weight f8 [512, 7]
00000000: 30bf b514 32e8 f5bf 1595 f119 b4d8 e23f
00000010: fe46 bfa6 0266 b83f a83d 3a3f 602c da3f
00000020: ceef f806 3fa8 e43f 3127 442d 61f7 04c0
00000030: d152 f058 4aea dd3f 4c9d c238 93d8 9dbf
00000040: 3ea6 77d1 a677 f1bf 77da 3921 5bc2 e0bf
00000050: cb76 647c 2369 f03f 24eb 522f 9a12 eebf
00000060: 7609 acd7 14dd febf fa2c 4402 c429 f33f
00000070: 657b df13 3653 cfbf 6ac4 80fc a712 e03f
00000080: e24e eeec 6f74 acbf fe4e c198 300f ee3f
00000090: 71d1 659a 4f6d babf 4100 dfe4 5ade e1bf
000000a0: 5afa 7113 8b17 f63f ca1e b46b 9dff e1bf
000000b0: 8901 ecbe dd9e f03f 3c10 d1c7 5c93 d4bf
000000c0: 8f58 68f2 a203 bbbf 41da 6f0f 2713 dfbf
000000d0: 1635 069c c7b8 f13f 329d 13d4 2304 e43f
000000e0: 9025 cbc4 0890 e23f 2524 dae4 856c c03f
000000f0: fbca cc7e de1d f3bf d7eb 0c54 d6b8 c2bf
00000100: 1021 f6e8 4349 e7bf d952 a923 f926 d9bf
00000110: 96d4 0a0c 8086 f43f 87fa 7835 659d f7bf
00000120: b2fe f379 063b e0bf e1a3 0e63 eeb7 cb3f
00000130: becd cd6f 0856 ce3f 1e39 62a0 b119 e23f
00000140: 5309 c28b b590 b6bf 20c8 b773 74f0 f1bf
00000150: cca4 1c1e 8b40 d1bf 7f85 a543 1630 fb3f
00000160: f04e 4d6e 7679 e7bf 2e52 2771 41e2 c3bf
00000170: e786 ceec 86f7 cabf af98 554e 4b7d fb3f
00000180: 9de2 d50c f6f8 f73f 8594 0fbd d42f da3f
00000190: 4881 0114 7726 ee3f 7d9e 3903 d4a6 e33f
000001a0: cc81 2ff3 1c6e f43f ff33 1235 31d1 f83f
000001b0: 1011 5752 6bd8 d93f e0c1 034e 8c31 d9bf
000001c0: 3f8c def0 4b9a 1140 f70a 6e15 9299 c3bf
000001d0: ab63 186d d293 d73f dca0 d1c2 b502 d3bf
000001e0: 983e 7601 6ff7 cf3f 94ed 5f74 ed50 cb3f
000001f0: 7778 024b 96e0 c03f 8d6a 24b6 5f6c d0bf
00000200: 4cb3 dcd7 e2f4 e2bf 0d47 7e15 1d6b e9bf
00000210: ffc2 e6b4 2ce3 e23f daea f155 8f41 f6bf
00000220: 9a9e 7f3b 74a0 f8bf fc52 f5f6 bb26 da3f
00000230: 47b8 e89b 3577 d53f 4303 0ece 4956 e7bf
00000240: 0815 2dd1 2a67 e3bf 528e d5a8 c613 e3bf
00000250: 52e0 6efb 6bb3 d1bf 0477 40f1 2bca e03f
00000260: bd5b a963 79e1 e4bf 4ca0 7f48 a8de dd3f
00000270: 3656 f27e e72c fabf a6bf a417 523c ba3f
00000280: 8e7b 1e98 ef91 c8bf 4ef6 e9ab e247 dc3f
00000290: 9404 ee13 6b12 da3f ffa6 7562 0403 b93f
000002a0: c869 8808 6cd8 f8bf b0ee ac8f 00fc f2bf
000002b0: fb10 85dd 74ad d0bf a5be cced 7700 c0bf
000002c0: 97aa 328a e8cc cbbf 205d e8d6 1454 c5bf
000002d0: 759c 17fe b629 c0bf 740c c7f5 96c8 f8bf
000002e0: 7b5e eab2 726c cb3f 3002 907f c7ad fbbf
000002f0: e144 4811 9e9e db3f 290a b747 dee7 f8bf
00000300: 32bb d27d 15c4 d53f 1c48 5e5b b1fb dbbf
00000310: dca9 f618 975c cebf 37c6 c2bb e081 e13f
00000320: f433 e9b6 fe19 c83f 3c22 bbc2 6295 d93f
00000330: 5ec0 157a a7bd e93f 8a14 6580 c278 05c0
00000340: 1276 4352 bed5 db3f 57af e55b 2933 98bf
00000350: 30e1 1a4b 7378 f13f 9cec b60b 991d c0bf
00000360: dee5 49ee 96d7 d73f e725 98fb 3805 edbf
00000370: 1ab3 761b 8224 c63f 91d3 3c5f 2c0e 03c0
00000380: d9cb d675 1e91 da3f 1fe2 9c26 c62d a73f
00000390: 83b8 4158 e7a7 c9bf 06ca 4366 602d f73f
000003a0: 9469 a480 3ccc e43f c9ca 9549 5b58 0540
000003b0: 4f5a f4f4 36f9 f8bf b4bd 0530 75af ee3f
000003c0: a8ec fc59 89f4 ec3f c865 b74b 42b1 dd3f
000003d0: 3de9 69dc b7c3 0040 570c 59dd 5126 f33f
000003e0: 3040 bbe3 1e98 0040 a85d 6d05 7695 aabf
000003f0: 614d c5a6 613e a83f cb11 1590 ca68 f43f
00000400: 1215 96ba 3c92 0440 540b 7efc 8158 d53f
00000410: f8ae 0407 9b0d db3f 0761 2794 7384 d9bf
00000420: 6fed 8a38 f790 d0bf c1cb 05d2 7194 0340
00000430: f128 b8f3 8537 e03f 4d19 7f97 84b6 f33f
00000440: 3b5b 9bc7 bb59 d5bf 653d 9f8e 271d d0bf
00000450: 3a7f 7f91 a547 e33f 3f5b c2a6 f230 0140
00000460: 8371 a88d 6e10 d73f bb3c fcfc d83e e6bf
00000470: 5884 112b 9a74 f53f c9fa 276e 7c83 d8bf
00000480: 5814 ce78 9f60 f63f 55d1 e384 e45c e33f
00000490: 76a5 3c19 266e b5bf 704d 3bf8 6582 e9bf
000004a0: 7fe7 1f45 d94c f6bf 003a 4394 6447 b13f
000004b0: ee4b 7b22 e711 d8bf 3933 3ded 5623 e13f
000004c0: 4d16 81c6 4fd6 c9bf 616c 70a3 f3c6 cebf
000004d0: 4971 afed 90b4 acbf 668f 55b7 7b1d cabf
000004e0: af6c 8a1f 4be2 fabf eaf4 da69 4a05 e33f
000004f0: 753b 869a 916c c8bf b516 c287 21b5 0340
00000500: 9f84 3eda 0c3f f5bf 90e9 5e8b c024 f83f
00000510: 8854 30d6 6372 f0bf a95f 0117 9712 ee3f
00000520: f5c4 c9bf 4da9 ccbf 7c21 9feb f0e6 dd3f
00000530: a5ba f1ee df93 b43f e647 7319 1121 0140
00000540: 9533 45f8 c9fc fc3f 78f7 8ed8 af8a e2bf
00000550: a13e 724b b5c2 dd3f 0bcb 718a b230 e83f
00000560: 4eca 01f2 cca6 ea3f 11ec 789c 6e88 c2bf
00000570: 6594 5081 9313 e1bf 619d 36e8 0a50 ae3f
00000580: 7751 086e abe7 c33f f4a8 53cc 6a7c 93bf
00000590: 7164 a12b c542 da3f cba6 81ea 85b6 e4bf
000005a0: b22f 57ff 077e c63f 1601 384a 96aa 00c0
000005b0: b9c5 c1d9 6478 e03f 2034 a0fe 17b7 ddbf
000005c0: a407 ad33 41ab dabf 001b b7e7 4b1a e13f
000005d0: 2958 aa49 cef5 d1bf d29b cc97 e589 80bf
000005e0: 9047 7d89 f123 d8bf 1758 d2c3 20ec f6bf
000005f0: 8b09 ca63 66bc cdbf fc2f dcef 753e f5bf
00000600: ef13 43f4 1c3d ef3f a6f5 4d1a 9929 dfbf
00000610: 3eb0 7f59 53ca fe3f cb68 11db 882e f0bf
00000620: ce3d cc9e 51d9 13c0 0870 d9d2 4ce1 e13f
00000630: bfc4 ba12 d0b4 f2bf 7d57 1fcc 5fa4 04c0
00000640: 1d04 9501 b785 e93f a89f f916 3b43 c5bf
00000650: 7083 0d0c 3744 c4bf d2e5 a903 d844 ddbf
00000660: 29e9 9ed0 6832 d9bf 4cbf 034c 4077 913f
00000670: 65d2 6c1a 7e0e 0940 7a31 4296 d0d3 f83f
00000680: 664c 59cd efdc b6bf cbc6 0a81 2048 b83f
00000690: 0d27 6573 5a30 d83f 9436 c835 7141 d3bf
000006a0: d5cf 712c 6dfd e63f 627c af24 6a3d fc3f
000006b0: 7a0e 426f 64d0 f03f 0d0c 5ab0 8cc0 d03f
000006c0: 9f74 687d e246 33bf 2d1f e5a2 e725 ed3f
000006d0: 625a 0c95 2df0 de3f 6870 a974 40c9 993f
000006e0: 6b48 b824 aaef 0bc0 9fde a3aa 575f f1bf
000006f0: cf10 2891 fd71 45bf 9a54 8842 0aae b5bf
00000700: 7218 44d0 817a fc3f f1db 5a59 edbc dabf
00000710: b661 3334 04e4 f1bf 2e7d 8576 c22a cc3f
00000720: c2f7 8d81 cafd f8bf 255e 8fb6 d176 e0bf
00000730: 9eea fdbf c812 cd3f d8ff 1159 4f86 d9bf
00000740: 89e0 3056 006f c1bf 1fa0 b97b 6810 eabf
00000750: 5751 7e98 a405 b93f c355 5da2 d7ec e0bf
00000760: 786d 8806 3df8 fa3f 4e93 0f6e 8ccc e13f
00000770: bf72 d8c2 5a51 0140 f8f0 0877 1336 e5bf
00000780: f32a 3df0 0cd5 c23f 1697 ebcb b308 c1bf
00000790: 0928 a041 e90c ebbf fe69 e378 6f35 cbbf
000007a0: f274 5132 6a73 da3f ec64 ea69 7c1b fc3f
000007b0: 0ed8 a208 b520 85bf be01 64f1 6669 e23f
000007c0: 3fac 6013 b9a1 e03f 5d34 fe0c 2062 c03f
000007d0: 4b0d 10e3 c09e 00c0 e15d 29ab d517 f33f
000007e0: c229 8ab7 c12a dabf f510 bee0 8dc5 dabf
000007f0: b930 1fa8 6f82 d8bf be1e 7a08 e064 f8bf
-1.3691883858663907 0.5889530665123482 0.0953065545175171 0.4089584939437949 0.6455378662280908 -2.6207908188270257 0.4674249523680319 -0.029146480883949707
-1.0917118246383235 -0.5237250946946251 1.0256686076240153 -0.9397707866949969 -1.9289749550522095 1.197696694233683 -0.2447269055400866 0.5022773677539025
-0.05557584540579598 0.9393542273996613 -0.10323045272327193 -0.5583929510248781 1.3807478675440934 -0.5624529937349163 1.0387856920134217 -0.32149428857178797
-0.10552423875955895 -0.4855439806700908 1.1076122374245805 0.6255053655740197 0.5800823062538019 0.12831185984058027 -1.1947922661899486 -0.14626578430201562
-0.7276935148265995 -0.39300373537598216 1.2828369589235868 -1.4759265984318135 -0.5072052366158089 0.2165506347348858 0.237000517455824 0.565636456727393
-0.08814558660563891 -1.1212048073034637 -0.26956441822637767 1.6992399828380653 -0.7335769800506267 -0.15534227395132078 -0.21067892611340897 1.7180893955169656
1.498281526697759 0.4091693731591664 0.9421954527606795 0.6141147673597086 1.27688307756772 1.5510723183717798 0.4038341812231616 -0.3936491739141541
4.400680316527597 -0.1531241039884532 0.3683973374732498 -0.2970404055145204 0.24973857470876193 0.21340721304282495 0.1318538538225231 -0.25661461627320464
-0.5923933235222676 -0.7943253917494261 0.5902312787276002 -1.3910058362222828 -1.5391733478699394 0.40861415020962943 0.33540096498007127 -0.7292832397944057
-0.6063436589689966 -0.5961640641730332 -0.27657603792204555 0.5246791564893276 -0.6525237032427565 0.4667149265283157 -1.6359629591801315 0.10248292042956439
-0.1919536106842909 0.4418875387999365 0.4073741621614968 0.09770228771017385 -1.5528374036135677 -1.18652397273301 -0.26058694489280726 -0.12501429663961008
-0.217190806846095 -0.16662846082247373 -0.12627303511473867 -1.548972091740123 0.21424707161053277 -1.7299265845214329 0.4315562409183951 -1.5566084672324314
0.3400930145971187 -0.4372371094006 -0.23720062941477138 0.5471042315677498 0.18829330378721887 0.39974278465936997 0.8044011482688906 -2.683964732250904
0.4349208644251529 -0.02363266585727727 1.0919068273343093 -0.1259032542419377 0.37253354330422705 -0.9068875230743146 0.1729891428089097 -2.3819205704152826
0.4151073599597886 0.0452711031088635 -0.20043651399049986 1.4485782618254475 0.649931193594329 2.6681428669774943 -1.5608434265647195 0.9589181840837484
0.9048506505563596 0.4639440287988603 2.0955655307599543 1.1968554159546068 2.0742776671904934 -0.051921547091008435 0.04735093270087521 1.2755838039603187
2.5714048935939298 0.3335270848985392 0.42270541844730714 -0.39870919674059774 -0.2588480045485175 2.4474827201861165 0.5067777404922521 1.232060043128132
-0.3336018990789175 -0.25177945068295166 0.6024959413298128 2.1489003208220363 0.36037792047297773 -0.6951718274230169 1.3409673387871148 -0.38302527196348685
1.3985895842499954 0.605089435148822 -0.08371198764930007 -0.7971677635454579 -1.3937618923359592 0.0674956190079925 -0.3760927044615404 0.5355639108252951
-0.2018527716883675 -0.24044652443339756 -0.05606511022026212 -0.20402475787988833 -1.680247424322072 0.5943958346830673 -0.19081325574049016 2.463442860231988
-1.3278931164898393 1.508972687165258 -1.027927242922745 0.9397693108867219 -0.22391673912674262 0.4672205258362039 0.08038138946151692 2.141145895796387
1.811716050916606 -0.5794295529992572 0.4650090443401301 0.7559445098871448 0.8328613974284254 -0.1447885765099675 -0.5336396718672743 0.05920442661891446
0.15550749657326055 -0.01902930137740895 0.41032532940659566 -0.647280653019345 0.1757211682109961 -2.083294467767824 0.5146965268196971 -0.46430015435982064
-0.4167025570533218 0.5344600225151623 -0.2806277961148021 -0.00807551736359172 -0.3771938173932705 -1.4326484345706427 -0.2323120105030053 -1.3277491921935498
0.9762100954764018 -0.4869139439468547 1.9243958946272097 -1.011360984548946 -4.9622254192504 0.5587524526740717 -1.1691437465308778 -2.580260843950724
0.7975726157093309 -0.1661142217810696 -0.15833175743594152 -0.457326892450138 -0.39370174763793614 0.017056469573560037 3.1320764603099627 1.551712595889596
-0.08930872691534972 0.09485057020608705 0.377951252642206 -0.3008692765441563 0.7184358470972209 1.7649938042666453 1.050877031900113 0.2617522928414367
-0.0002941420511051815 0.9108770543616395 0.48340930514806335 0.025181777115321685 -3.4920237416018174 -1.0857769647244948 -0.0006544578666880743 -0.08468689083413708
1.7799089560881183 -0.41778119779649986 -1.118168071660063 0.2200549200742698 -1.561960702965266 -0.5145042958856193 0.2271357476673374 -0.39882262895843956
-0.13619999130765262 -0.8145029465204096 0.09774235461219881 -0.5289114161666294 1.6856050734703256 0.5562193059564409 2.1647238943390614 -0.662851078500835
0.1471267865220721 -0.13307807404560695 -0.8453260690450871 -0.21256822016478333 0.4132943622006017 1.7567104470566006 -0.010316290212681902 0.575366469827763
0.5197415712804129 0.12799454340384644 -2.077516340186468 1.1933190046310005 -0.40885966228293225 -0.418307752108617 -0.38296119135044254 -1.5246277171262785

module.module.layer_1.bias f8 [512]
00000000: 516a c20a 92c6 f1bf 7130 8c8c 55e6 c7bf
00000010: 3aa9 9cc4 d117 f2bf a8a1 bb91 e3c5 f0bf
00000020: 9d65 ad68 6d13 eabf 6b34 8d95 c4d8 e63f
00000030: 91ee 50af 6e95 e6bf 180f fe3e a921 c3bf
00000040: 2aeb f96c d7c1 dabf f5c7 7fc9 8f9b c5bf
00000050: f50d 1bdb 6e4b 873f 9433 2f3c b4dc c5bf
00000060: c6bb 8050 4ae2 e63f 055a 128a 47bf e23f
00000070: 4883 7a4b f281 e6bf 46ec f08d 76ed e0bf
00000080: 7bbd d5d9 e56d f33f b70b 6a49 8be7 ac3f
00000090: bac5 97ce c6c0 dd3f d936 9d31 3a1b c2bf
000000a0: b0d3 96cd 308a eebf 2db9 5245 bad4 f33f
000000b0: 6c8a fcbf b633 e13f 043f ca1e 37e8 e3bf
000000c0: 38bc 01ce 76c5 ea3f 7df1 213d c82a cd3f
000000d0: 8fe1 fe07 33e3 eb3f 4e48 79b1 af94 e13f
000000e0: 9cd6 7310 0a3b dfbf 18a1 819a 5bba e9bf
000000f0: 46fa daf5 88b0 ebbf 377a bf0c aa9a e33f
00000100: 4fe3 176f 9f8c cb3f 64d2 845b 9883 d0bf
00000110: 7747 a201 642f e0bf d503 a9b1 a83d f6bf
00000120: d5db 0e49 bfd1 e4bf 614a 9c59 7350 d23f
00000130: 3ec8 bfea 6612 ed3f 78a5 db2f 38a2 d33f
00000140: 4e3c 6fff 1672 cf3f 2087 a974 8306 e33f
00000150: a575 e209 9086 d7bf 7bb0 bbc8 42eb 983f
00000160: d9f1 1714 0336 dabf 51fe dc70 7603 f6bf
00000170: 371f fe4f cb99 bcbf 76f3 5cb9 25f6 db3f
00000180: f38d fc28 687b d7bf cd05 72c0 4f3c d7bf
00000190: a249 d535 11c2 f0bf 4569 bac9 03e0 e13f
000001a0: 2c9b 5635 f2ff f33f 05ff c954 5072 d2bf
000001b0: 83dc 9829 fbb2 b93f 8a68 e661 7e22 e0bf
000001c0: d355 82a0 e5db d23f eb5b 24a0 bd3f df3f
000001d0: b58b b2fc b203 b3bf c176 a3d1 dcdf c9bf
000001e0: bbc4 bcda 15f2 e9bf 1152 8e31 6f29 debf
000001f0: 98e1 cf58 f4d4 a9bf b290 1f05 7ea0 e03f
00000200: 26d9 bac0 31aa e63f 195c d80f 9884 efbf
00000210: 81e5 938f afd6 df3f 6d16 3b5a b7dd e5bf
00000220: 589a 776f 4b37 ccbf ecbf 1f66 802a e2bf
00000230: 9662 5475 4ac4 f3bf e8d8 58c7 665c e2bf
00000240: accb 4885 57b3 eebf 30d9 15eb ccf2 c9bf
00000250: 090a 7a62 1178 ac3f 0211 08d6 4e69 b33f
00000260: af5a 6673 7606 cd3f bb31 6d58 07da b6bf
00000270: 18a2 c58e 985e bc3f 6b66 27ae 432a e2bf
00000280: 5073 80aa f83d d93f 7d53 4ad7 586c e43f
00000290: c0f2 9083 f5d4 ddbf 89b2 3b45 3380 e9bf
000002a0: 9095 22ee d715 d63f c9f4 96e8 7cdb c03f
000002b0: 7b1f 66b0 f10c e4bf c0ed 7365 d99d e33f
000002c0: 4c30 9e0b bd39 c3bf f72c f516 74bd bfbf
000002d0: 962c d416 f911 ccbf e043 6243 7cc8 9bbf
000002e0: 87e9 0f87 d2d4 c83f aa91 c54d 788b e43f
000002f0: 1769 b330 79bb dbbf a4c2 9f9e c6c8 f13f
00000300: 99ba cab5 965a 953f 8662 55d6 3ece af3f
00000310: 4e23 fcb8 9e5d e0bf 659b 8708 969a de3f
00000320: e00a 9008 2c77 ce3f 8ae2 97c5 234f ef3f
00000330: a09a 0474 8ef4 da3f 9faf 562b 5717 d03f
00000340: b764 8b1e 9a88 e13f a531 1453 4f75 e8bf
00000350: be04 7250 3d44 e8bf dff4 8f0b 5e42 ecbf
00000360: 85a0 623b ee43 debf f216 10e1 5cfd b63f
00000370: 237c 903c 3748 c63f fe0c 9d30 7fbb db3f
00000380: 7dbd 6663 6ebd c23f 513f f917 9d89 f0bf
00000390: bffa d117 c368 eebf 8651 78a9 7eae d1bf
000003a0: 0410 cbe1 329b dbbf 456e b6bd 8623 b9bf
000003b0: e8e3 52c3 86f0 ec3f d2a0 66e8 6fe5 fabf
000003c0: 80fd 4b63 82f5 e73f 892e 1766 8c68 bcbf
000003d0: c03b 6019 8d5b eb3f 3504 2012 0d49 e0bf
000003e0: 55ed dd94 3eda e6bf 07a9 be80 7d56 aabf
000003f0: 02ca 363f 860d dbbf a7fd 24e0 141a d53f
00000400: d6d7 48ab d7be e4bf 419c e82c 01fa dbbf
00000410: f98a 095f 4e8c a2bf 8d90 0d5c c979 eabf
00000420: b0c4 f563 0d40 eabf 1dfd 3591 084c e5bf
00000430: 01d1 e4b1 67d8 eebf 1ffc 467d cf33 e33f
00000440: 98cd 8575 3c16 dbbf 5dc1 5538 6469 c9bf
00000450: 2082 fdc3 e7df ef3f 6483 25bb 25f4 e9bf
00000460: 2104 a0aa 2e84 dabf 5419 5dcb b506 c13f
00000470: d968 6111 8de2 c6bf b0ed d6ee 26dc dc3f
00000480: 53c9 d728 deb3 acbf 298c 97ec d758 c6bf
00000490: b101 4c53 e4ce e6bf da7c 3a6e 20d0 e7bf
000004a0: 6ee1 6a17 e721 c4bf a035 b95e dc8a cabf
000004b0: d1f2 2a3e 6266 e1bf 0da4 0a66 4bf1 d43f
000004c0: cf32 5348 1147 df3f a935 dbfe 2b3d c5bf
000004d0: 25be d358 f635 d23f 4689 fe81 573e e33f
000004e0: e3e7 3eab efa6 dabf 4fdf 1c7e d765 d43f
000004f0: b10d c75e 3207 d63f 1972 fdd5 127c d43f
00000500: 71b0 9c7e eb4d e3bf 3ff8 6e88 9e51 eb3f
00000510: 9f37 882e a376 d53f 0ab9 43c2 2959 c2bf
00000520: 3883 84b6 48a0 c0bf 3647 690f ee15 ea3f
00000530: 0c67 d286 6cd1 ca3f 1d0f 1a56 c6af 9dbf
00000540: fda1 590c 9767 f13f 3589 1f74 358a e7bf
00000550: 544e 8dc9 5797 eebf ab14 c4b4 6c22 c63f
00000560: 7d2e 4057 86d5 c9bf fa8a d291 faa0 e53f
00000570: 4ec5 f599 759a e63f e5a5 8b99 6ab0 d13f
00000580: 9e4b 93bd 6f9d d23f 3b38 8d1a 43ac eebf
00000590: f69f bbd0 1f8e de3f f15a 583d 59aa f2bf
000005a0: a774 4ff1 1728 f2bf 7604 7fd7 5d04 f6bf
000005b0: 055b 5cfd 5222 d8bf ad22 60b7 274e f23f
000005c0: 07ef 048d b93c f5bf 6440 6098 5845 8dbf
000005d0: 9c74 6c41 f966 fe3f a8b1 5e57 14eb ebbf
000005e0: b6a0 940e 515b cc3f 6a5f 4d4b e4c1 b6bf
000005f0: 8494 5744 b28f d3bf 4f3d 621d aaed edbf
00000600: 495f fb6e 9bd1 e23f 99c0 6702 336e e93f
00000610: 2435 07d4 c022 c3bf 4263 6a85 3cb7 d33f
00000620: e413 9f79 19c5 fa3f c62c de07 726d f4bf
00000630: a680 6f83 df7c e0bf edc3 6d72 01e9 cabf
00000640: 5b51 e558 b9f4 d0bf be9f f680 21cc d13f
00000650: d5d1 29cf 70c5 e3bf cd65 69ce 6dcd b73f
00000660: a32a 17e5 2f33 cbbf 3299 a83a 4524 d03f
00000670: 8282 e7ec 1bc3 e43f 284f eb07 05c9 c4bf
00000680: efa7 69bb 732d e83f 0123 b4df cc9e efbf
00000690: 1182 2be7 e795 ef3f 821b 822b 00d0 c33f
000006a0: fefe f7e4 1360 c8bf fb64 dd55 65dd ddbf
000006b0: f6da 554d ce7f ef3f 9f6d c34a 3a71 c6bf
000006c0: 3f4e d79c fad0 dcbf 9433 6b01 068a d13f
000006d0: 340a fa7e 6b62 96bf fe2b 2edf d8c6 eb3f
000006e0: 3fc5 57ad 60c1 f8bf 5137 3541 6816 a63f
000006f0: addc 7c82 3106 da3f 3ff5 bcbb cfbf c4bf
00000700: 22c1 c083 010c ecbf 36c5 b567 c5f1 f6bf
00000710: a56c 93bf 7e4d f13f 8ce2 864e 44a4 c13f
00000720: 4100 d4a4 6e00 e8bf 460c c6f3 f7eb f0bf
00000730: 5c0e 7a81 6feb e13f 1cca 799e df03 ebbf
00000740: 0163 28a3 3625 f43f c35d 33b3 223f 91bf
00000750: d0d4 53c8 12d8 ea3f ea31 88ae baf7 e33f
00000760: e47b 882b 0c04 dabf 8919 dfd4 5126 debf
00000770: 3e32 60f1 1df4 b2bf bf7b 69bb 6c0d f2bf
00000780: 83b4 9a01 7032 fb3f b935 4426 b6ca e3bf
00000790: e5f1 7f8b e2ae e33f 521c cb70 9d82 ca3f
000007a0: 0335 1c02 a32e ad3f 269d 62b9 0cf4 c53f
000007b0: 2e84 8f8e 48ab f7bf cc46 1916 a1aa e8bf
000007c0: 0e17 e325 17d5 d03f 252b 18f4 3cc3 f03f
000007d0: 94ae 90fd f362 f4bf 10c9 c389 b9cf edbf
000007e0: 578d 48f9 3175 c5bf 552e 5c11 8c4d dd3f
000007f0: 4772 7a20 9366 d03f 8034 c76b 0151 d53f
-1.1109791202822132 -0.18671674120594475 -1.1308152847437456 -1.0483127300923147 -0.8148715061644684 0.7139609261445349 -0.7057412552016605 -0.14946475578118945
-0.4180811466427935 -0.16880986536813194 0.011374345838141212 -0.17079785288515537 0.7151233265229784 0.5858495423042888 -0.7033626054945694 -0.5289871952330791
1.2143305310417805 0.05645404120607316 0.46489114928325714 -0.14145591185154308 -0.9543689742482595 1.2394354541716652 0.537562727902992 -0.6220965958945901
0.8366045020646942 0.2278681086062412 0.8714842945255884 0.5494001833233229 -0.48797847372711955 -0.8039987580969266 -0.8652996827948491 0.6126299141868178
0.21522896694639335 -0.25803193032633076 -0.5057849914467017 -1.3900534572460306 -0.6506039072909241 0.2861603140928875 0.9084963402695008 0.3067760913241595
0.2456692454565847 0.5945451048430392 -0.36758805241864884 0.024334949018268475 -0.40954663240679917 -1.375845375892727 -0.1117217130941953 0.4368986425577569
-0.3669071579226674 -0.36305612367149537 -1.0473796942575082 0.5585955562594697 1.2499868472602413 -0.2882271602647822 0.10038728490404662 -0.5042106544599545
0.2946714465591331 0.4882654250990856 -0.07427519482966612 -0.2021442435861243 -0.8108014366354362 -0.47127895202109565 -0.050452838746369355 0.5195913410248265
0.7082756771331205 -0.9849357900119485 0.4974783804060153 -0.6833149683304335 -0.22043745939955062 -0.5676881785020647 -1.2354225714863438 -0.5737794774529705
-0.9593923190317262 -0.20272218207146286 0.05560354544742913 0.0758256218469491 0.2267597259021463 -0.08926435383654667 0.11081841931957859 -0.5676592256015288
0.39440743113100485 0.6382259564294227 -0.4661229882074558 -0.7968994476519394 0.3450832200563463 0.13169823986928567 -0.6265800900737156 0.6130187016964825
-0.15019953791886775 -0.12398458061686655 -0.21929849257171402 -0.027131978619369224 0.1939948234065236 0.6420251387576645 -0.4333174682229965 1.1115175434353342
0.020853381009767167 0.062120402969132946 -0.5114282238947483 0.47818518479328126 0.23801184099291728 0.9784106120342397 0.42117654161340035 0.25142459137236445
0.5479250523159384 -0.7643200514444756 -0.7583300181578563 -0.8831014848543893 -0.4728961543974111 0.08980350966166009 0.17407885033841905 0.4333188986531268
0.14640598157482634 -1.0335970818013787 -0.9502883401144898 -0.2762753157596979 -0.43134758043402166 -0.09819833881049884 0.9043611349981093 -1.6810149267349073
0.7487194003478379 -0.11097028248257791 0.8549256797431255 -0.5089173654561195 -0.7141411693150227 -0.051441118207849405 -0.42270046399349337 0.3297168911849106
-0.6482961984063376 -0.43713406930550397 -0.036226700879316405 -0.8273665235433484 -0.8203188850731262 -0.6655314289236319 -0.9639166330803449 0.6000745245763744
-0.42323218800376017 -0.1985287928651002 0.9960821941313647 -0.8110531478124412 -0.41431776678661164 0.133017277048746 -0.1787887892595055 0.4509370167176838
-0.056059782491404996 -0.17458628704398052 -0.7127553583996386 -0.744156089105583 -0.1572846283286355 -0.20736269593400625 -0.5437480177129946 0.3272274490832963
0.4887126165674944 -0.16592931694178262 0.2845435969784112 0.6013600863409827 -0.4164389774629155 0.31871592822743805 0.34418925529117944 0.3200728502031623
-0.6032617066280307 0.8537132897106473 0.33536605400228753 -0.1433460424954734 -0.1298914805602409 0.8151769925118291 0.20951611121272895 -0.028990839963184734
1.0877905352045893 -0.7356211917906764 -0.9559744774400749 0.17292555643522198 -0.20182875881470244 0.6759007309049985 0.706354904845435 0.27639260286977524
0.29085916054935435 -0.9585280912958817 0.4774245775611229 -1.1665890117926063 -1.1347884584604715 -1.3760660569971868 -0.3770949815965852 1.1440808451754194
-1.327325392586262 -0.014292423391481353 1.9001400523768899 -0.8724462229197814 0.221536762351439 -0.08889605368073963 -0.30564552949937984 -0.9352617811108902
0.5880868117919614 0.7947020575502562 -0.14949808457314717 0.3080588629614348 1.6731199980579214 -1.2767200763071727 -0.5152432982540815 -0.21023576819746329
-0.26493676835277363 0.27808415979461276 -0.6178516431960427 0.09297834672306422 -0.2124996059995584 0.2522137711370248 0.6488170268094822 -0.16238463293722671
0.7555483494190848 -0.988134800835809 0.9870490565336373 0.15478517651009943 -0.19043205909837718 -0.46663792977558644 0.984351302190446 -0.17533043528133604
-0.4502550632143744 0.2740492833952939 -0.021859817147296748 0.8680233344069845 -1.5472113391118254 0.04313970371241161 0.40662801497405604 -0.16210362116718532
-0.8764655659961458 -1.4340261508153396 1.0814197047646215 0.13782552561112416 -0.750052759103717 -1.0576095125586717 0.5599896935313597 -0.844222840807848
1.259085309348109 -0.016842405498065604 0.8388761437078305 0.6239903839901306 -0.40649704219134564 -0.4710888460944252 -0.0740374292656236 -1.128277523115443
1.6998138487499836 -0.6184950587646006 0.6150982594113513 0.20711105353822973 0.05699643517264443 0.17151030590069033 -1.479317242505441 -0.7708287650695751
0.2630060071936534 1.0476655516565156 -1.2741584687127316 -0.9316070261686793 -0.16763901397744504 0.45785810180016046 0.2562606637164077 0.33306918645104844

module.module.layer_2.weight f8 [128, 512]
00000000: 8815 70cb 4471 b03f 4662 fc8c 1630 d6bf
00000010: cfa2 447e 92d4 c5bf 7c19 4286 dbe3 d33f
00000020: 0ca4 b0e9 f8bf bc3f ed34 8c62 4a4c d7bf
00000030: a06d f309 9259 d03f 6fbb b95f b411 d9bf
00000040: c653 afa1 cb00 d83f 2833 2a4a 77a4 b5bf
00000050: b0b7 311a 464c d23f da88 8088 8fb2 c6bf
00000060: 67be d648 adde e5bf 7d62 6f40 eef5 873f
00000070: 1d33 4f9d 7c3d b63f 001b 6081 2f7d e13f
00000080: f386 66d9 3759 ac3f cb1b 1fd1 04b1 be3f
00000090: 625f c4d8 0ce7 a9bf 8e45 fc29 3b92 b3bf
000000a0: fce7 5291 ac75 cabf d6f7 325f fd1b ebbf
000000b0: 0483 a3d4 5d3f cc3f 180f 98aa 0eda c3bf
000000c0: 4fa1 13a4 c68d c2bf b63b 9b4f 1b45 c73f
000000d0: 35a4 d67f 3111 a7bf 1767 144b a989 9ebf
000000e0: aaf3 8ca5 1189 e5bf 9dc4 2db7 3e98 e6bf
000000f0: 1497 26db f9bf d5bf 9c46 56ee d1f8 e43f
00000100: 8383 9510 b43a d33f 64ff d408 5f67 92bf
00000110: dc6c 303a 11b3 e63f 3434 9c71 fa7a a23f
00000120: 55b6 a19b 0760 ce3f f54b a036 8563 c1bf
00000130: e624 95c8 11da d1bf 6f3c ba12 1913 a43f
00000140: 6333 ef48 46e6 d1bf eb5c 75f9 58a8 ccbf
00000150: 2e62 469d afa6 d8bf f293 c6e6 5855 c5bf
00000160: c168 4e60 722f ad3f a77a 5d53 0272 cb3f
00000170: 57ad b07b e856 dfbf 3b4b 83da 63f8 983f
00000180: 8997 7e32 563f ad3f a4e2 6bd6 3c40 d63f
00000190: 8405 5fa0 78ff b3bf 23de 86ea fb5d 9f3f
000001a0: caba 5f11 5820 eebf 089d ff51 6bc7 e1bf
000001b0: e61e a3dc 600f c2bf d5df 7e2c 68a1 e3bf
000001c0: d534 8d73 afac cf3f d1c9 56ed 3b6f e2bf
000001d0: 7c1f 1165 7d0d b9bf c019 fef0 417f ba3f
000001e0: dbf6 c71f 0650 e43f d03b 5d1c f5de e53f
000001f0: 7a09 5aec 8480 b5bf e2cc 3f46 8e07 d5bf
00000200: 6cdd 4a0a 9201 e7bf 6b51 2e44 2ad2 c2bf
00000210: be1c 93a6 dbe3 d2bf 1020 27cd 7627 93bf
00000220: 761e c14c 6f68 dfbf 9ab0 93c7 7fb0 dfbf
00000230: 2bc6 8ad8 65a1 bdbf b800 dd4b b161 c23f
00000240: d66d cd8e e1dd d7bf 37ec 06fa 4dfa d33f
00000250: 9721 8d6f b792 b4bf 7053 f9c9 8742 b83f
00000260: cc36 b675 1d6c babf a355 e525 2e3e 85bf
00000270: e6e8 b9f8 d64b c03f 7a96 3b99 c9c5 e8bf
00000280: da9a 3059 64c1 df3f 0780 7ab8 f330 b13f
00000290: 92dc 9547 8b3a d1bf e57e e7b6 ed3d b9bf
000002a0: 1f4b b480 bae5 b73f 69a2 a7bf f257 b73f
000002b0: b7c3 9483 0004 c03f 4f7c 8248 ec8d c63f
000002c0: 44ff 98ff 3a88 c03f dff3 cc9d 7d6b c53f
000002d0: 9562 6010 5d5a c0bf f117 85b5 18c9 ccbf
000002e0: 1d70 f76e 5e8d d3bf bbb6 a893 d4d3 9f3f
000002f0: d077 99a0 5a22 c1bf 3b70 094f 5ad6 c43f
00000300: 8fad 5515 d0a1 cdbf 8717 557e 7239 dbbf
00000310: b7c0 d4a1 c021 a03f 0e90 f044 1212 d53f
00000320: f218 2b7f c08e 6b3f 8aec 6568 a547 bdbf
00000330: 67e2 d128 59f1 c13f 9803 3eb0 af64 b23f
00000340: ce30 f7dc e02f bdbf 1fc5 8f95 635c e3bf
00000350: 66a0 bcfc 54c2 d0bf 507c 7afd 8cea e03f
00000360: 62f6 e8b1 2fe5 d3bf d8df 071b 8785 c43f
00000370: 5fe1 c5e5 5d78 993f d4fe a374 7a9e b43f
00000380: 6b9d 170f 5e89 c7bf 3bcb ea15 9c57 b83f
00000390: 4c81 7fd4 9bb3 b1bf cca7 897d 25e2 b43f
000003a0: 7b4e f368 08aa cdbf cf5a 33ac ca74 e03f
000003b0: a1c5 117c 4afd dd3f 69de 1c10 25b6 b23f
000003c0: d7ac 7691 01bd ba3f b6ac 8aa5 a79a b33f
000003d0: c9e4 48d1 8969 903f 7c00 a4c7 3973 e33f
000003e0: d6c0 92b7 4c32 e4bf 782a 6b40 2426 bcbf
000003f0: f684 ae15 57f8 ba3f 1966 a509 b2d7 8c3f
00000400: 51ed 6af5 c521 c0bf e1d7 0f3a 327a ab3f
00000410: 8b44 8b35 b9a2 ed3f d084 150f f33f aebf
00000420: b34b 910c 3cdb c63f 9650 fcda 0c43 e3bf
00000430: 523b 0b70 2790 ae3f aa5d 346d 2169 c53f
00000440: cfb5 ac52 38f0 cbbf 6406 38f5 7ef2 98bf
00000450: 3b71 3014 f14c ccbf 1046 7b24 5c61 b8bf
00000460: 9420 b199 6510 623f 56a4 b39a 50fe c1bf
00000470: 7700 cf9e 50ff bbbf a8d2 50f5 4011 ca3f
00000480: 99b8 e23c e7ae cbbf e85e e7e2 f485 c8bf
00000490: ab45 7104 1edc ddbf f8e2 289a f520 abbf
000004a0: a0e5 364a 49c5 cebf 0fd9 93ae feb9 aebf
000004b0: 3000 b2d9 7d92 e13f a4bd aa5c f528 cc3f
000004c0: cc9f 8f99 ccca cfbf 3bd2 3c29 f25f a9bf
000004d0: 4097 6856 fbd8 d2bf 4eca 103b a35e a5bf
000004e0: 7e3a 12fb 556b e33f e225 317d 2679 c2bf
000004f0: c234 b9fe 8315 ccbf c7ea d0e4 efb5 8ebf
00000500: 467c 7ec4 5ec4 dfbf 01a4 91d4 ef49 a7bf
00000510: 6e1c fd8c d128 e5bf 1344 03f6 0d49 debf
00000520: e324 03e1 3189 bc3f f196 a05c 21cf b0bf
00000530: 228a cdfe d64c c83f 249c 2768 0a5b cbbf
00000540: e3de 2e1d 3cdd c33f 9ac6 dc90 6573 e4bf
00000550: 2aed bae4 f1cf d13f a6ac ccc2 dec7 a6bf
00000560: 0db9 d2ef 0160 a0bf a39b 58a0 dfb6 e23f
00000570: da42 68f6 e3cb e6bf 9b47 ae03 3e9d a8bf
00000580: e3e4 b6ed 8b5f c13f 5663 88ae 7777 b03f
00000590: 0b04 a050 c36a dd3f 61e0 8d8f 3730 b3bf
000005a0: a624 7fd7 c8f8 a83f 94d6 1633 fd3c bc3f
000005b0: 8529 5f47 30d9 bfbf f8ea 2c4d 8ff2 dfbf
000005c0: 1801 6d79 f476 c1bf b665 5e70 7dd3 64bf
000005d0: a450 2a89 3dc2 eebf a58e 02a9 44b9 c4bf
000005e0: 2f81 fee5 040b b6bf 0c7e 4df5 3899 d83f
000005f0: d381 3cc2 89fd cbbf 88c6 e3a9 79da ca3f
00000600: a3ea e67a 33f2 c5bf a723 db90 9afd c4bf
00000610: cb7f 0526 b62c e2bf 52a4 f572 aefb bfbf
00000620: 83dc 73ae 28d8 edbf fbf8 72fd c09f 933f
00000630: 1d8e e7a4 d285 d0bf 224c 0f3c b3b8 c6bf
00000640: 0de0 08ba 8d07 a93f 4ee1 286f f062 b43f
00000650: 8bad 12df 8cec b33f 38ac 0b9e 2188 e0bf
00000660: 263d 88fd 5267 c4bf 5e1f d8f3 5456 b7bf
00000670: a9ff f2b4 f230 cabf 5ef9 4426 b6c5 d23f
00000680: 1c87 f9f2 eca3 a13f 49e0 ccff 9481 933f
00000690: 649d c403 0efa ccbf c0c2 f5e2 a56a bfbf
000006a0: 0a68 cf56 d937 bdbf e3bf b299 3e88 c3bf
000006b0: 8500 cf5f b951 a63f 6d0f 17a7 bc54 e03f
000006c0: b91d bba8 e62f cb3f b84b 03f9 ffae e0bf
000006d0: 87ac f696 ba2a ccbf ceb8 eaac d484 ac3f
000006e0: b0b1 8661 9c8e c13f 2d0f e1df 5bd0 e1bf
000006f0: fff9 4fd5 2cc5 88bf b662 acd7 2c07 cd3f
00000700: 302c 99eb 23ea 8f3f 2734 bd34 271d a03f
00000710: b282 ce93 0881 e3bf cf7b 3005 d9a7 d53f
00000720: 8e5d 2c3f c8fb c03f 306a a27a 4144 c43f
00000730: 4ea3 cdfe e923 cdbf ecbd c1fb a58c 7bbf
00000740: a18f 8339 51b1 da3f b5aa ea2d a17a c93f
00000750: abbf 8113 d874 c9bf 3898 c578 e5af 943f
00000760: ecef fef2 f031 e03f 2b54 9ee4 6b2d bcbf
00000770: 7f0e a6c1 a9f0 88bf 9fba 354e 4ac5 bf3f
00000780: e711 6cfa 2279 debf 0e81 7173 cc28 973f
00000790: 200e f1a6 0458 d5bf 0baf 6d54 a475 b4bf
000007a0: 5b90 51e7 2552 cd3f e428 178b 7749 ad3f
000007b0: bee6 dc3b 6404 c2bf 7ab1 829b 339f c13f
000007c0: f349 c8dc 3987 d13f 03c8 8152 2b0c ccbf
000007d0: 1d3b 1fe6 0521 d43f 5fe4 3b0c 2ee9 c03f
000007e0: 70bc 32a9 8b01 a03f db14 9b53 c1b5 d4bf
000007f0: 5f04 dbd8 fcc5 c2bf ba2c 2088 df9c c2bf
0.06422834364646779 -0.3466850640120679 -0.17054968991694472 0.310782319175267 0.11230426507303565 -0.364031406629535 0.2554669472862887 -0.39170560215182254
0.3750485495523289 -0.08454080162682642 0.28590538557079537 -0.17732423939839387 -0.6834322378762864 0.011699544278529256 0.08687571373520737 0.5465314413894191
0.05536818054976136 0.1198885927725392 -0.05059089799959683 -0.07645005965266291 -0.20671612831011987 -0.8471667155606564 0.22068379290342233 -0.1550920804003162
-0.14495165835911414 0.1817964686110522 -0.04505304990318174 -0.02982201119184599 -0.6729820474061985 -0.7060845926008771 -0.3398422851699803 0.6553735404033492
0.3004579698518272 -0.01797245494276413 0.709358800554948 0.03609449993937411 0.23730559443667923 -0.13584962050717278 -0.27893490398544285 0.039208205734319594
-0.27967984316346967 -0.223887559705623 -0.3851737056625407 -0.16666709202141267 0.057002615219248216 0.21441678114475346 -0.4896794517432758 0.02438503285595604
0.05712384573352753 0.34767075481026155 -0.07811693110763512 0.030631958188420804 -0.9414482440314142 -0.5555931664975171 -0.1410943105058699 -0.613452994256472
0.24745743887107233 -0.5760783801582027 -0.0978620883698777 0.10350429662330551 0.6347685452198805 0.683466487311188 -0.08399229784303044 -0.32858616695666687
-0.7189417077087632 -0.1470387299456307 -0.29515734927231196 -0.018705230971846787 -0.49074919219535873 -0.4951476525300308 -0.11574398552581815 0.1436063404489738
-0.37291754670669996 0.31215238014891916 -0.08036371682567843 0.09476517373088966 -0.10321220516035651 -0.010372505694855877 0.127314444969506 -0.774143981249565
0.49617871007869285 0.06715319875593205 -0.26919824591409125 -0.09860120501934551 0.09334912912553904 0.0911857335955887 0.1251221315847297 0.17620614567292356
0.12915742378572237 0.1673428555021976 -0.12775767612108227 -0.22488697875286293 -0.30550347172334275 0.0310815062641072 -0.13386090127727224 0.16279152735921962
-0.2315006355450859 -0.4253813012804745 0.03150751090504527 0.32922798855202096 0.003363967867105016 -0.1143744830969117 0.14017786496312398 0.07184885075368042
-0.11401181597392737 -0.6050279542088538 -0.26186108285265275 0.5286316824675712 -0.3108634221460759 0.16032494373189254 0.02487322535441316 0.08054318759604523
-0.18387962090421736 0.09508681807600976 -0.06914686143818932 0.08157572092900905 -0.23175149082691235 0.5142567981045775 0.4685846530547569 0.073091808732778
0.10444650460583503 0.07657859603448255 0.01602759685394942 0.6078156375151731 -0.6311400971808563 -0.10995699475021492 0.10535187033976343 0.014083281440139083
-0.126030678589681 0.05366665800822524 0.9261137052327667 -0.059081645575824404 0.17856550801897483 -0.6019348408758727 0.05969355814669676 0.16727083046201346
-0.2182684329685984 -0.0243625485582072 -0.22109807477762353 -0.09523559466040177 0.0022050842649470968 -0.1405735736255191 -0.10936454655802828 0.2036515424566876
-0.21627512429171672 -0.19158803061758722 -0.466559891069745 -0.05298583514053762 -0.24039569972755448 -0.06001277810166716 0.5491322757588986 0.21999995255235405
-0.24837644098374623 -0.04956013444317305 -0.2944935172875951 -0.041737652740626005 0.6068525222525094 -0.1443222152031885 -0.21940660417241103 -0.014995454950726196
-0.49636048497081153 -0.04548596830210983 -0.6612327340780106 -0.473208894965013 0.11146842711891085 -0.06566055785568971 0.18984496537730516 -0.21371584020309442
0.1551890509124326 -0.6390865163177353 0.27831694924289485 -0.0444936383049364 -0.031982479596409964 0.5848234302292109 -0.7123889744417184 -0.04807466311389349
0.13572835070753006 0.06432292948774196 0.45964129327336484 -0.0749544835542806 0.048773075395339746 0.11030561921401222 -0.12440778486703692 -0.49917967354455994
-0.13644271782869377 -0.002542252538614699 -0.961210983181918 -0.16190393688622354 -0.0861056386479546 0.38435195880262607 -0.21867486938664502 0.20979233546636444
-0.1714538908107289 -0.1639893729500532 -0.5679579489333205 -0.12493410402898178 -0.9326365859295865 0.019164100140863543 -0.2581678972621562 -0.17751160080533263
0.04888575454646125 0.07963469232425277 0.07782822080723954 -0.5166175925090846 -0.1594032037687409 -0.09116106942394483 -0.20461877665911501 0.2933173536038306
0.03445377794265722 0.019049003708659282 -0.22638106521592782 -0.1227210692502565 -0.11413343781842414 -0.15259535317227266 0.04359225554026217 0.5103438628652676
0.21239932287993016 -0.5213622916729639 -0.22005398150699682 0.055700918300645705 0.13716463815707192 -0.5566844341887865 -0.012094831714418495 0.22678146868635957
0.015583305957212884 0.031472420871615996 -0.6095011603211644 0.3383696127584103 0.13268378338464654 0.15833300102242864 -0.22765850965086049 -0.0067259296157397945
0.4170725881251603 0.19905485860848207 -0.19887829735261894 0.020202241417244887 0.5060963388455071 -0.11006807643418941 -0.012177778455913611 0.12410416039868231
-0.4761435933617392 0.0226165719471974 -0.3334972029008174 -0.07992007313958653 0.2290694598660846 0.057201133469406945 -0.14075901911728822 0.1376709470108713
0.27387854157237185 -0.21912137535724704 0.31451556656695506 0.13211608502732283 0.03126179161460463 -0.3235934559309734 -0.1466671046128196 -0.14541238924753036

module.module.layer_2.bias f8 [128]
00000000: 97c4 a011 7d64 b2bf 704f da65 c456 a13f
00000010: c1c6 3470 22fe a8bf 7e87 cf39 69c1 aa3f
00000020: 7550 2d9c a99c b0bf db9b 96ec 51f3 ac3f
00000030: 84a1 36e1 4057 923f 8c5f 8a67 fb0a a13f
00000040: ec8e 0f0e b60c ab3f faaa 3a20 b24f b13f
00000050: 7a29 d028 9837 b4bf cf70 e7eb 75d0 b73f
00000060: a50e 7920 8473 4fbf d48b 706c 4993 bd3f
00000070: f02e 13e6 0f43 93bf 4843 28a1 1641 a1bf
00000080: bd5d 264e 18ae 9fbf c107 0175 f03c 1abf
00000090: 3ac5 3bc2 10f2 bcbf 35a8 9e3f 1948 c03f
000000a0: 7651 c32a bd50 bd3f b649 39be 8015 b43f
000000b0: 09e4 1bfd 95e2 b1bf 4758 0d81 fb87 b23f
000000c0: 4f6b f0e2 d24a 9b3f a703 d799 61b3 9e3f
000000d0: f594 f7b9 fe23 843f 312c 857d d5e4 b6bf
000000e0: 2fd3 637f eebf a7bf c315 33c8 809d a13f
000000f0: e0f3 f8f1 b3c9 b1bf 98af c11f 1470 83bf
00000100: 6739 a8f9 f453 b1bf a636 76f3 e1c5 bcbf
00000110: a44d 4326 2105 9f3f 1083 dfd8 e1be bc3f
00000120: 592f 3bac 1d48 943f e8fe 1d46 e205 b8bf
00000130: 05bf b032 e1c0 b03f d22e aca7 8ea6 b43f
00000140: cf02 a20b 009f b03f dcc9 d1ba 9363 6f3f
00000150: 27ec 2e85 85cc 943f 7160 3856 003f a1bf
00000160: 1038 5d13 4ad6 c03f a165 3363 5022 b1bf
00000170: de97 67e7 6948 93bf e2a8 6c7b 5e7c ba3f
00000180: 1349 80f4 c6b4 98bf 7702 b3c0 1dca be3f
00000190: 4a87 f204 752b a9bf a891 5b45 eac4 8c3f
000001a0: 10c2 087e 4ea0 ad3f a8d3 8f71 396e 28bf
000001b0: 78d5 d503 c88c 973f e1f6 405b 0bd3 75bf
000001c0: 9e81 eece d854 513f 946c e414 0e5e b23f
000001d0: ae1d 5dcb 1778 aebf 22f8 90b0 b43b 99bf
000001e0: 5af6 7950 62d8 b3bf 2eca 5028 19b1 a03f
000001f0: bcce be3a adde 9ebf 66f5 b935 0f1b 33bf
00000200: 834f 1cf8 4dca b03f 927b a588 3410 46bf
00000210: 0e79 37fb b67e 8b3f cf8d f67a f6a6 a53f
00000220: 6584 7d1f 8838 773f b6eb 6e2c 6907 7c3f
00000230: 4290 90bb 9d3c bf3f be24 952f 4043 b3bf
00000240: b55f 5ad2 6662 bb3f be82 883c fcd0 493f
00000250: ab80 8e46 416b c03f 478d 006f 56dd b53f
00000260: a6fe 543d 590a a73f 01dd b3ac 217c aabf
00000270: a20c 3876 1fe8 9abf 6f80 304c 00e5 a3bf
00000280: 575a fb6f 1a3e 9ebf 63ce cdd9 5b72 aa3f
00000290: 897e 762e c4cb 813f 6c55 7c69 dfa4 ac3f
000002a0: c87b e4d8 b1dd 98bf eed3 5ad1 7b25 a8bf
000002b0: de38 4583 8030 a23f 9c26 9dea 1334 a63f
000002c0: fa04 d087 e819 a73f 9e33 3d3a 38f5 933f
000002d0: 3aae 4085 e9d9 9f3f 5f15 a84e 2d40 b53f
000002e0: 4d75 261b 3263 933f fae7 1f12 ff5c 90bf
000002f0: 87f3 796c c50b a9bf 486a 8e14 2124 813f
00000300: 3eab a230 62ef 993f b93e a52c 17a4 bb3f
00000310: 3ac7 adc5 a9ef aabf a463 6713 d5ee a7bf
00000320: e545 653b 049d a2bf 0be7 0c17 6001 babf
00000330: deb9 05ce a6a2 b23f 4290 0627 a14f b5bf
00000340: cfe5 4c87 4984 98bf 6e2c 7910 f3d0 a63f
00000350: 3107 42cd fbe6 67bf cfa8 881f 8070 a4bf
00000360: 2c36 7c9b 4cff b8bf e0dd 0919 3507 b23f
00000370: 11f8 cc0d fc66 80bf 2974 887d 867a 923f
00000380: f5e1 0d4d 5fc4 94bf ac9a a62b 799e b83f
00000390: cd44 35c0 d406 c73f 77eb 8cef 33c7 aabf
000003a0: e227 c786 d068 c03f 5d88 3d1d 71fb ac3f
000003b0: c025 8542 9e03 913f b32a e652 e944 ca3f
000003c0: e480 4291 08d7 b1bf 4f73 203d 6298 b5bf
000003d0: b3be 13cf 9ec6 c6bf 77b1 b08d c9ca 8bbf
000003e0: ed1b 2063 e26b 943f b06e e10f 466a b63f
000003f0: a595 6752 0fef c23f 38c2 5bdb b96d bd3f
-0.07184583359118545 0.033865106042099025 -0.048813892552414646 0.052256859118428686 -0.06489048064151055 0.05654388440171206 0.01791097044557112 0.03328691138193482
0.05283135339393916 0.06762231146664624 -0.07897330280699136 0.09302460679413403 -0.0009598155165310886 0.1155286683793258 -0.01881050912633858 -0.0336997100568
-0.03093755700100841 -0.0001000901950201352 -0.11306862585094715 0.12720027548249538 0.11451322835939046 0.07845310825476912 -0.06986367635171588 0.07238742733656621
0.026652617551103316 0.029981160177843382 0.00983428006197549 -0.08942922892053741 -0.04638619713833802 0.03440477794496701 -0.06948399217158352 -0.009491116732725222
-0.06768733115334201 -0.1123944491757479 0.03029300495184163 0.11228763146165144 0.0198063503619744 -0.09383978092045775 0.06544311034735635 0.08066646188325002
0.0649261501694227 0.0038316617342897107 0.020311437848914118 -0.03368378689282359 0.13153959222330558 -0.06692984029668604 -0.0188309237945744 0.10346022141735348
-0.024127110169566878 0.12027154879161538 -0.04915967641251358 0.014047460786465418 0.057863667378459493 -0.00018639041152792896 0.022997975572669443 -0.0053282207118720845
0.001057826735383661 0.07174766550126527 -0.05950998647181947 -0.024641822125197284 -0.07752050843006356 0.03260115258344275 -0.030146319113284234 -0.00029152985891996717
0.06558692271602067 -0.0006733185303281367 0.013425282994770995 0.04228945017828389 0.005669147234443538 0.006843005022285567 0.12201867894378984 -0.07524491464313862
0.1069702399785218 0.0007878524421052952 0.12827316231869665 0.08540859422696655 0.04500082849199076 -0.051728298503741506 -0.026276103582870143 -0.038856515217276726
-0.029533780178861182 0.05165373834361444 0.008689434688505375 0.05594537890116666 -0.02428319822604033 -0.04716097765541592 0.03552629091665137 0.04336607207239959
0.04511953981273993 0.019490126185064953 0.031104706533524352 0.08301051302267613 0.018933089167707796 -0.015979752999534448 -0.048917932025665904 0.008369692268208287
0.025327238291235725 0.10797257270791762 -0.05260973489829586 -0.04674402105201317 -0.03635419106525343 -0.10158348620180051 0.07279436616747811 -0.08324629977011092
-0.023942135699348385 0.04456290794458871 -0.002917758751267118 -0.039920810555786106 -0.09764555736566 0.0704224763993504 -0.008008927508509374 0.01804552212898983
-0.020280350759522354 0.09616811099713612 0.17989596734199723 -0.05230104731750534 0.12819868641810134 0.05660584909379971 0.01661536484724535 0.20522800967986185
-0.0696874003065236 -0.08435644142487074 -0.1779364119643013 -0.013570379864255895 0.019942796039710876 0.08755910766324848 0.14792052768386302 0.11495553594046093
