old_models/old_kml_ml/saved/7_ft-33_pct-all_wl-350_epch.pt (torch, 634920 bytes, 8 tensors)

module.module.layer_1.weight f8 [512, 7]
000000 c2 de f7 7f b5 05 06 c0 30 bd c9 ce 91 8d f3 3f
       -2.7527875897902456 1.2220628812463694
000010 ec fb e0 76 e6 5b e4 3f 7d ca 65 dc 05 ab e9 3f
       0.6362182924129889 0.8021268181458506
000020 2f 98 71 91 81 ba f3 3f 5a 07 37 df b5 ab 12 c0
       1.2330337220569267 -4.667685973867117
000030 66 4a 23 34 94 bb e8 3f 57 01 58 6e 27 47 9f 3f
       0.7728978174512349 0.03054486857399871
000040 51 d3 fd f3 20 75 07 c0 65 fe f1 37 64 7c f6 bf
       -2.932191759284628 -1.4053690133440793
000050 11 1d 30 39 0d 93 01 40 07 62 b4 09 43 33 f8 bf
       2.196802565365609 -1.5125151042067289
000060 5c 02 ec b0 2d eb 11 c0 19 a9 0d 45 72 49 08 40
       -4.479666485218868 3.035862483481776
000070 40 18 86 58 a5 f7 da bf 7a e2 d2 b5 19 97 e3 3f
       -0.4213651051035221 0.612194876789615
000080 73 cd 87 9d 09 f1 a1 bf d8 5b 07 4b b3 40 00 40
       -0.03504209564189411 2.0315919744129864
000090 83 aa 59 4f a5 17 eb 3f 8a 57 27 61 d5 df f7 bf
       0.8466364431199768 -1.4921468539300542
0000a0 3e 19 b8 dc 42 17 10 40 28 48 1d 93 fd 8a f4 bf
       4.022715996490943 -1.2839332338958318
0000b0 ac a9 d8 28 bd 8d fd 3f 53 63 82 78 b5 1c 67 3f
       1.8471042247352711 0.0028213066435224614
0000c0 c2 12 ba 6e 75 9f eb bf d4 27 a2 17 1b a9 e9 bf
       -0.8632151758798374 -0.801892801436447
0000d0 1b c7 e9 af 8f 04 0c 40 d6 70 f0 56 5e 32 f3 3f
       3.502227186509925 1.1997970005095815
0000e0 1e bb 7b 10 56 72 ec 3f d1 cb b6 91 0e 09 e8 bf
       0.8889570543231888 -0.7511055799462786
0000f0 77 f5 7e 4e 97 7f 06 c0 31 12 e1 c9 06 4e e1 bf
       -2.81230031323383 -0.5407747214272317
000100 23 7c ab 4f a5 2f 08 c0 38 ce 73 92 fc ae e8 bf
       -3.023264524861149 -0.7713606701276552
000110 af f0 ea bc ac 95 0e 40 af 10 88 09 35 17 0e c0
       3.823083377761655 -3.761331629242782
000120 e6 0a 83 b5 9b f0 d6 bf a5 21 04 94 db 17 e5 3f
       -0.35843556142587685 0.6591623202266886
000130 3b a8 50 f4 4e 7d c4 3f c9 75 9f 2a 8f be f3 3f
       0.16007410935827857 1.2340232529598885
000140 0e aa 9b e4 71 41 c6 bf c2 6e 76 c0 bf 48 f2 bf
       -0.1738722196817694 -1.1427609937735927
000150 f7 ba 10 d0 92 d6 d7 bf d9 26 69 d3 b8 e4 03 40
       -0.37247152632600894 2.486680652281262
000160 69 8e 01 97 e0 2a e4 bf ce cc 3b 0a 6b 4c c4 bf
       -0.6302340459191785 -0.1585820960968704
000170 b9 dc ef 6e 1f 0f db bf c3 99 10 24 0c 30 11 40
       -0.42279802163779895 4.296921313775274
000180 26 fd 06 92 86 e7 0c 40 35 bf 20 9c 98 04 fb 3f
       3.6130496414549667 1.6886221026179105
000190 6a cd 69 64 56 4a 09 40 99 a3 c9 2f 0b 20 ff 3f
       3.1612975926197366 1.945323168440359
0001a0 b5 2b f0 83 c7 ae 0e 40 44 a9 f4 f4 fc 8d 0a 40
       3.835341482893876 3.3193301331677123
0001b0 a1 79 cf c5 9c f4 f3 3f 72 fd ec 74 d9 ba f3 bf
       1.2472198225947084 -1.2331175391589935
0001c0 c8 b9 21 1f 35 b6 36 40 29 4b ad 0f 24 7d d7 3f
       22.71174807141668 0.3670129922003747
0001d0 85 00 d7 52 0b 44 b6 3f 1a b5 42 46 f0 30 eb bf
       0.08697577259499852 -0.8497239467884896
0001e0 d5 11 e2 60 2b 0b c2 3f f8 01 68 08 f0 db b5 3f
       0.14096586447352757 0.08538723187667319
0001f0 dc 3d e3 f3 80 fb b8 bf 7c 2e 7c 76 78 fb e7 bf
       -0.09758764223374022 -0.7494470895921519
000200 43 0e ba 23 7d 8a f5 bf c4 07 d6 f1 99 65 00 c0
       -1.3463107486321781 -2.0496100324098467
000210 c4 ae 83 1c e5 13 ec 3f f6 c1 2d 8b 80 98 0a c0
       0.8774285847589103 -3.324463927587426
000220 e1 a2 bd aa 03 54 10 c0 16 b7 a6 aa a6 66 f3 3f
       -4.082045238327482 1.2125612894118993
000230 6d 31 e3 ed 87 e1 ea 3f 82 d0 dd 85 75 25 f9 bf
       0.8400306364288049 -1.5716452817114548
000240 a3 b9 f5 26 09 3d fa bf f6 47 99 5e 63 4b 01 c0
       -1.6399013063306505 -2.1618106260802916
000250 39 4d 28 47 8b c0 f0 bf 6d fb cf 4b a6 a3 03 40
       -1.0470078258120579 2.4549070284696684
000260 de 56 dd 9c 2f 87 06 c0 61 3a ef 6e 5b 26 e9 3f
       -2.8160087828681375 0.785932270687976
000270 1f 4a 79 13 dd dd 14 c0 8d dd 17 85 35 0f 85 3f
       -5.216663650777746 0.01028291523378646
000280 56 2f 20 7b 99 23 b4 3f a6 90 50 de fa 3b 00 40
       0.0786682057952793 2.0292870872818467
000290 bd 2b 1d 46 b8 7c f1 3f 6e 4f f5 0f 2c 7e da 3f
       1.0929491747690314 0.41395093496725266
0002a0 09 2a df 0e bc 08 0d c0 ea 2a 07 4b 0d 41 01 c0
       -3.62926494234603 -2.156763635784377
0002b0 0d 58 66 5e be a0 f0 bf c4 a2 01 3d f8 d7 ec bf
       -1.0392440497867057 -0.9013634864359905
0002c0 42 f3 d0 46 e4 f2 d0 3f 24 b1 11 b4 f7 a1 d0 bf
       0.2648249332012719 -0.2598857172477145
0002d0 f2 b2 4f 12 13 0d c5 bf 83 14 f3 47 fa e0 08 c0
       -0.16446150201900128 -3.109852373223988
0002e0 af 11 84 31 b2 ab ba 3f 3b 35 89 2d 85 3d 17 c0
       0.10418237408527518 -5.810078345775135
0002f0 d2 a5 a7 c7 07 25 f1 3f 8a 8b aa 4a cf 74 1a c0
       1.0715406226175799 -6.614072004946943
000300 13 09 1c 6f 19 ac f5 3f 6b 08 b2 7c 10 f6 f3 bf
       1.3545164432731027 -1.247574317065779
000310 51 f5 e3 41 4f 38 d5 bf f3 9d d4 f7 85 5f f7 3f
       -0.3315618651830237 1.4608211212997702
000320 e3 a3 ee a9 25 f1 de 3f 07 52 10 86 ea 45 e6 3f
       0.4834684524053598 0.6960346811707162
000330 31 ad f5 7e 64 b2 f6 3f 3e b1 da 87 cb 36 14 c0
       1.4185528716432823 -5.053510782931253
000340 8a 21 ef 88 0e a3 ed 3f 06 0f 67 68 36 51 c1 bf
       0.9261543917173622 -0.13529090974599728
000350 bf af 9c 6d 8b ac fb 3f 40 d1 d1 37 f9 3b cd bf
       1.7296251565667118 -0.22839274621549954
000360 3b c5 ad e9 e9 f2 f2 3f 2c 65 fa 90 6f 82 07 c0
       1.1843051078870548 -2.9386893583693077
000370 bd 6a 45 14 10 aa e5 3f 45 33 35 e3 a5 8f 16 c0
       0.677009620277509 -5.6402812482090825
000380 e8 dd 73 ce 5f f6 f1 3f 1b de c4 7c 77 5b f3 bf
       1.1226499619059442 -1.20983074891945
000390 5a 48 e7 ae 69 e1 f0 bf 11 8b 06 f4 cc 57 09 40
       -1.0550324279943397 3.1678713860031924
0003a0 f4 8e 7f a7 19 fc 04 40 6b 41 af 5e 78 67 1e 40
       2.6230958066752184 7.601045112082242
0003b0 e1 aa 1d 9d 49 84 11 c0 de 5a f8 64 a0 a9 00 40
       -4.379187064109574 2.08282545931739
0003c0 82 0e 22 1a d7 30 e4 3f e7 4c bf 24 bf 00 f1 3f
       0.6309619436655824 1.0626822886886715
0003d0 6f b3 23 c7 da 3e 09 40 22 27 c5 5c 96 98 02 40
       3.155690723206525 2.3245055434862403
0003e0 a5 38 13 22 ea cd 22 40 02 b2 df 50 19 c8 b1 bf
       9.402176918836924 -0.0694595167585206
0003f0 5c c5 c5 d6 a4 64 cf 3f c7 fd 49 f0 8d 23 fa 3f
       0.24525890814724505 1.6336802851000003
000400 65 21 f8 b4 44 47 1d 40 c1 f7 88 db d5 88 ea 3f
       7.31959803356617 0.8292035377305568
000410 ea 71 bb 53 ae 5f f6 3f 71 9b 39 6b 61 29 e6 bf
       1.3983596106328329 -0.6925513357390242
000420 c7 ca 8b bc 0f bb d3 bf a1 61 90 b3 ef ab 13 40
       -0.30829232609464124 4.9179065758584395
000430 de 63 01 7a 47 6b c6 bf 44 f1 f7 4a 50 76 0b 40
       -0.17514890153213875 3.432770333949664
000440 e1 bc 38 d4 55 97 f0 bf cc 36 48 37 33 17 0c bf
       -1.0369470872790816 -5.35786156526781e-05
000450 24 2e 56 dd 2e 1c bd bf b5 0c 94 2c d1 ff 12 40
       -0.11371128944136238 4.749821373497231
000460 ed 30 98 af 43 4d f3 3f 27 3f 6e 28 70 33 f8 bf
       1.2063633784446737 -1.51255813401435
000470 99 89 ba 25 d4 36 0d 40 8f 75 86 8e 0a 3f e5 bf
       3.651771826510594 -0.6639454635330128
000480 49 a8 b4 8b 35 7a 0a 40 a6 47 d4 8b 8b 91 f5 3f
       3.3096724428660633 1.3480334722594107
000490 70 7e ad cd 68 71 c1 3f f7 4e 2c 72 26 26 fc bf
       0.13627347987038574 -1.7593140087018904
0004a0 51 b6 50 98 ff 39 04 c0 28 c2 c4 24 7a f4 84 3f
       -2.5283195399886513 0.010231928107345814
0004b0 bc ec ee 25 1d 2f f2 bf 96 08 59 c6 24 4b f6 3f
       -1.1365024072427294 1.3933456180534782
0004c0 80 0d f8 7b 7f f7 de bf 57 d4 9c ec 31 95 dc bf
       -0.48385607820838317 -0.4466061411542958
0004d0 2f b9 9b b5 e5 d1 72 3f d0 00 2e 50 2d c6 db bf
       0.004594704916355759 -0.4339707644467241
0004e0 fe 65 d9 9f 48 15 0e c0 87 b0 29 4b d9 8e f5 3f
       -3.760392426321004 1.3473751960800955
0004f0 03 d5 f9 d4 de 00 cf bf d9 47 34 25 e3 d0 16 40
       -0.24221406363691508 5.703991490665396
000500 71 82 3d a9 3b 8f 08 c0 85 b3 56 d5 73 e7 0e 40
       -3.06993801325762 3.863013903339779
000510 62 24 b8 cc af 7b 0b c0 71 41 30 d9 7d 64 0e 40
       -3.435393905038425 3.799068161759515
000520 4d b4 b6 4a c5 1a e1 bf 30 ec f0 af 48 1a 01 40
       -0.5345179042102558 2.1378339524649377
000530 30 5b c6 f2 2b ac eb bf 9b 32 7e 8a 35 40 17 40
       -0.8647670499511602 5.8127042426609945
000540 c1 0e 51 c8 94 e6 17 40 ec c8 d6 2c 6d 39 f0 bf
       5.9751769351457265 -1.0140201331637924
000550 f5 c7 94 54 27 bb df 3f ac 0f 85 cd 84 36 f9 3f
       0.49579795131569365 1.5758102443805724
000560 11 28 98 a2 dd eb f9 3f 06 7a e3 9d b0 f6 c1 3f
       1.6200844146101228 0.14034087857631067
000570 7c ad 89 06 85 42 fa bf d9 57 15 8f d1 26 d3 3f
       -1.6412401442892977 0.29924429867730634
000580 44 68 f9 7c 12 0d c2 3f 04 94 a4 34 f1 70 b0 3f
       0.14102393247850575 0.06422336135126733
000590 eb 97 fc 47 11 30 f3 3f d2 0b e9 fd 8d 38 f8 bf
       1.1992352306347083 -1.513807288968327
0005a0 d5 53 4b 49 ce 0d e5 3f 76 ed 6e d0 72 90 14 c0
       0.6579352790382652 -5.141062981386645
0005b0 04 9a bd a2 d5 b2 fd 3f 2c 46 58 3e 10 d3 d7 bf
       1.8561607701354896 -0.3722572907291546
0005c0 16 4a 09 31 2e 4e f6 bf 5f f2 90 de 68 73 e5 3f
       -1.3940870204429578 0.6703380915638028
0005d0 aa 53 e5 03 36 50 f4 bf ba 80 fa 35 23 98 d0 bf
       -1.2695827629261012 -0.259285738671689
0005e0 86 8b 8d de 54 0d e2 bf 17 c0 66 62 26 25 02 c0
       -0.5641273829208877 -2.268139618645374
0005f0 7e 8d b3 fe 73 03 f1 bf 41 6d 55 36 b6 a6 0a c0
       -1.0633430432579583 -3.3314022297687704
000600 a0 0a 31 5f 6b ab 01 40 b4 ac 9b d7 89 53 f5 bf
       2.2087008892861633 -1.3328951284591257
000610 85 23 c7 2c 0b fe 17 40 9f ef 60 b5 4c 8e 09 c0
       5.998089503912415 -3.1944822473723913
000620 c5 90 a1 e9 e9 39 39 c0 1c 85 a5 54 58 b4 e5 3f
       -25.226225473351196 0.6782647755864306
000630 a0 6f bb 43 5f 5c 13 c0 23 23 ec a1 5d 0b 1d c0
       -4.8402071555282475 -7.2610993671776525
000640 49 b1 97 9c 37 41 e9 3f 75 a6 66 ce df b6 b0 bf
       0.7892110880325528 -0.06529043950163234
000650 4e 78 13 65 11 c1 bb bf 2a f3 0d fb f0 b3 0f c0
       -0.1084147331016265 -3.962861977923599
000660 61 c7 04 72 e5 66 eb bf 9c 8e 6a 63 be bc e1 3f
       -0.856310579960546 0.5542900029872331
000670 a6 5a d3 25 23 8b 29 40 55 ef 8e 48 92 f7 15 40
       12.771752531099377 5.491768964504293
000680 8e 5a 40 2c bc 94 ca bf e7 85 76 17 d6 25 c7 3f
       -0.20766403351509094 0.18084217210439066
000690 41 f3 fd 29 4d 58 f9 3f 75 d2 5b c4 6a ec f8 bf
       1.5840579643547275 -1.557719008470625
0006a0 2a 70 13 25 09 cb f8 3f 64 bf 4d 42 e6 8f 17 40
       1.5495692680624509 5.89052680587324
0006b0 a3 25 5a 6a 6c 10 fd 3f af 99 e0 68 79 1a ee 3f
       1.8165096430187553 0.9407317207704206
0006c0 ca fd 47 42 58 a3 aa 3f b4 ee f8 5d cf d7 17 40
       0.05202747162911299 5.96075198013175
0006d0 fb ab 78 51 82 26 ed 3f b6 8d d2 6e c5 55 c1 bf
       0.9109508124578264 -0.1354300299764028
0006e0 0a be 71 a5 1d e7 2b c0 12 a5 ee 89 98 f8 15 c0
       -13.951398058065951 -5.4927693893344145
0006f0 0d 39 df f4 85 4b 8b 3f 29 b8 b0 70 fb 5f b4 bf
       0.01332764295139246 -0.07958957196453355
000700 50 08 c1 b0 c5 9e 12 40 60 22 0a 45 d1 39 c1 3f
       4.655051004201667 0.13457694884370408
000710 ba 05 f2 26 2f a9 0e c0 6b f7 a5 11 32 af e2 3f
       -3.832609466801583 0.5838861794179427
000720 c6 96 cf cd 3c 04 12 c0 af 59 4c 21 44 cb f5 bf
       -4.50413819865725 -1.362125520774139
000730 13 b4 0f 92 1d de e2 3f 9b 6d 3c 29 d3 88 f1 bf
       0.5896137097130371 -1.0959045038970092
000740 bc 31 7d 30 58 30 f8 bf 8b 2d 6a 29 3a 9e f9 bf
       -1.5118028539755946 -1.6011296861423456
000750 c4 40 8e 16 75 60 cf 3f 60 5d b3 82 96 d6 fc bf
       0.24513114549018244 -1.8023896317953003
000760 e4 08 83 63 63 8e 16 40 9a 05 e3 5b 34 5c e1 3f
       5.63905101287148 0.5425054354347367
000770 2e 0c 12 8a 0e 5b 21 40 b3 0b 5d 18 62 a4 fc bf
       8.677845301344941 -1.7901326133439681
000780 10 52 1e 19 09 97 ec bf 53 da 7c 3b 72 a7 b7 bf
       -0.8934369555086636 -0.09239877655350286
000790 d3 55 e6 22 ad b9 fe bf 6f 1c 9f 50 3f 31 e2 3f
       -1.9203311312934275 0.5685116362227641
0007a0 69 29 f1 7f 70 c9 d0 3f 29 b6 60 b8 1f d9 03 40
       0.2622948884424177 2.481017532779124
0007b0 36 a4 9c b2 f0 b8 bd bf ed f8 85 36 5b c0 01 40
       -0.11610321388856523 2.218923974956047
0007c0 cf 3b ce c9 2a b0 fe 3f df f7 61 0d 0c 7d df bf
       1.9180095561057333 -0.4920072680177991
0007d0 e5 d2 73 4a 34 94 13 c0 e5 bc da 4a 64 a5 07 40
       -4.894730723685574 2.9557576988223553
0007e0 f1 2a 18 0b 1b 87 f6 bf 83 2b 37 37 b2 54 e2 bf
       -1.4079847749114232 -0.5728388861110577
0007f0 ac 49 a1 db c9 1e e3 bf 0a e1 3e 54 8b 60 02 c0
       -0.5975083627366096 -2.2971407491387525

module.module.layer_1.bias f8 [512]
000000 0a 4a 13 a9 c0 8d 09 c0 5b 98 7e 4f 01 ac e3 bf
       -3.194215126897011 -0.6147467186572259
000010 25 6a 47 08 f0 86 11 c0 ca 20 c1 e7 ea 56 08 c0
       -4.381775025709918 -3.042440233784963
000020 80 8d a8 56 5d 36 00 c0 45 35 c5 0f 53 d0 ef 3f
       -2.026545216578313 0.9941802318586858
000030 eb d7 78 5c cd 0a 08 c0 1c 32 68 b0 08 9b e7 bf
       -3.005274507940148 -0.7376750417184357
000040 9d 9e 68 62 0f e6 e1 3f 3e 9a 4b 8f da 5d f2 bf
       0.5593335077328053 -1.1479135129426505
000050 5c 39 55 e8 e8 57 df 3f 75 26 c4 76 67 4f 0c c0
       0.4897405880809822 -3.538771560536413
000060 c8 60 d7 f0 9a 89 04 40 c0 b1 9f 8e be 15 f4 3f
       2.5671900573471227 1.255308682560198
000070 df db 1b 9c 33 93 0a c0 47 c5 c2 93 d3 46 e6 bf
       -3.3218757816316464 -0.6961458097413605
000080 e6 ce 9c 12 fc 64 0e 40 08 e7 79 1a e0 81 f9 3f
       3.7993089155296387 1.594207862303337
000090 91 08 2c 33 bf ad f9 3f 7c eb 0e cb 63 8a b6 3f
       1.60491867055001 0.08804916102864796
0000a0 99 e8 6c 61 10 2f 14 c0 8b 97 1e 6a 7f 8e 13 40
       -5.0459609244082 4.889157922856508
0000b0 2d 2d 1c 4f 82 5c eb 3f d5 6d 92 89 61 0f 0a c0
       0.855042604934544 -3.2575102565585703
0000c0 82 a0 58 61 4d 39 04 40 c7 bd e6 1f b4 a1 dc 3f
       2.527979622380429 0.4473696052109201
0000d0 bf be ef 79 f5 1e 03 40 44 58 63 91 cc 59 e0 bf
       2.390116646412792 -0.5109618033991485
0000e0 ba 9a 4a 84 84 23 0c c0 a8 67 c7 66 31 06 0a c0
       -3.517342599417444 -3.2530239133456753
0000f0 2a b9 89 4b d2 c9 10 c0 d1 12 7b f6 50 cc 02 40
       -4.197091274529422 2.349763799315362
000100 6e 86 56 7c dd 1a e1 3f 1c 33 75 52 78 4f ca bf
       0.5345294407345145 -0.20555023218403157
000110 d8 17 9b 88 bb ca fe bf 9c e9 3d 46 1f 5b 14 c0
       -1.9244952522435508 -5.088986489800302
000120 8f c2 52 03 e9 ed 03 c0 77 bb b1 87 c7 c3 ed 3f
       -2.49116709324182 0.9301488542822501
000130 20 b8 db 31 67 94 01 40 0f b4 ca 88 ef 51 db bf
       2.1974624533823004 -0.4268759570939559
000140 ce 5f 1a e3 d4 5b cb bf 5a ee 91 b1 b7 14 ba 3f
       -0.21373997773184644 0.10187862477499135
000150 40 48 0e 0f 23 50 fe bf 5b 74 4e 7c c5 c4 dd bf
       -1.8945646846882624 -0.4651349748544981
000160 61 7d 07 c7 55 f8 ec bf da 21 b1 9b ae 4c 10 c0
       -0.9053143393793271 -4.074884827314657
000170 21 f2 3f c2 b2 74 d0 bf 22 00 2f 16 88 07 d2 bf
       -0.2571226975412931 -0.28170969168059135
000180 3a 07 20 d4 94 37 02 c0 2a 71 a0 a0 9d 04 d1 bf
       -2.277139336802887 -0.26590672193721565
000190 8e f6 c4 fe a4 19 0e c0 c0 ed 71 cf d7 81 00 40
       -3.7625217346056337 2.063399906792
0001a0 0c c7 08 61 8d 3e 10 40 1d a6 59 c7 44 00 f7 bf
       4.061086193238008 -1.437565592490848
0001b0 57 0a 32 83 8c e1 d6 bf 8c f7 23 7c e6 9a e9 bf
       -0.35751641094262737 -0.8001587319010794
0001c0 b2 e9 1d 3d 3d 71 96 bf 13 98 a4 37 14 ca f3 3f
       -0.021916348319317165 1.236835687022453
0001d0 9c 70 2d 74 ef e5 c1 3f 06 15 e1 2c 4a 8d 06 c0
       0.13982957051019163 -2.8189891344251263
0001e0 87 1a b5 b8 1d 85 fa bf 65 72 4b ca 51 d3 f7 bf
       -1.6574990477689953 -1.4890916731011654
0001f0 d9 e6 6b d5 b3 f3 de bf a0 2b fd 20 ff 1c e2 3f
       -0.48362441865866185 0.5660396236720437
000200 7c 8d 2d c9 7c d3 0b 40 18 4a dd 5a de 02 0b c0
       3.478265353872926 -3.376400670889108
000210 9d 05 f2 ac 9e 20 fb 3f 5f cd ee 69 83 01 0a c0
       1.695463824813806 -3.2507389331819208
000220 c0 df d3 b0 52 2a ff bf 1a f9 b5 08 fb c5 f4 bf
       -1.9478327662782107 -1.2983351078287968
000230 1d 27 ab 44 84 02 15 c0 57 3c c5 5f 4a f0 f8 bf
       -5.252457688280427 -1.5586646786721496
000240 ca bd 84 12 47 42 1b c0 95 3f 14 8e f6 f2 f0 bf
       -6.814724244453325 -1.0593171644177108
000250 b6 e7 12 c8 ec d6 f4 bf 5b a1 ae 93 e1 3f d8 bf
       -1.3024719062218373 -0.37889899656376763
000260 91 09 bd 08 0e a3 ae 3f cf 81 0f 97 d4 3d f0 bf
       0.059837759558393995 -1.0150953198245707
000270 fc 73 22 85 85 7c d5 bf 28 69 e1 a9 5f c3 03 c0
       -0.33572519303726245 -2.470397307578555
000280 16 e1 e0 8b be fc e5 3f 3c 45 04 ec ac ef dd 3f
       0.6871025783539462 0.4677536301470189
000290 66 96 dd 10 c4 0f f5 bf a0 db 08 4a de d5 0f c0
       -1.3163490923701828 -3.9794278892472477
0002a0 b9 b2 c5 49 50 60 fb 3f 66 45 c5 55 1d af dc bf
       1.7110140687683908 -0.4481881463626308
0002b0 38 14 ed 82 84 2c 00 c0 9a 9a f9 ca a6 ac f0 3f
       -2.0217371204949153 1.0421512535773787
0002c0 01 6c d3 12 4b 09 01 c0 3f 28 fa d1 b5 f4 e3 bf
       -2.1295377226610985 -0.6236218548886042
0002d0 58 cf 4f 2e 6a 35 fb bf 2d 8c 6a c2 ba f6 f4 bf
       -1.7005407151272802 -1.3102367014296405
0002e0 f0 39 8b 92 72 73 e1 3f 5b 50 17 8b 3b 10 fe 3f
       0.5453427183327317 1.8789630349392812
0002f0 de b6 7f 9b 51 66 f1 bf a6 34 5f db 67 11 0c 40
       -1.0874801706481132 3.5084988726071797
000300 21 8c a3 d9 52 22 f1 bf 71 ed bf ee 20 82 01 c0
       -1.0708797933118677 -2.1885393764802576
000310 89 41 84 ae 31 3f 00 c0 b2 4e 34 45 45 d0 f6 3f
       -2.030856479083188 1.4258473113340355
000320 d5 bb 93 9c a1 88 b1 bf c4 71 55 aa fe f0 c6 bf
       -0.06849107811625228 -0.1792295772273872
000330 49 bc d3 ce 66 36 ef 3f 0a bb 9c d2 89 ff bd 3f
       0.9753908195106159 0.11718045608425257
000340 aa 99 dd f3 d0 b6 f7 3f d2 ee eb 2e 8c 8e d6 bf
       1.482132866478063 -0.3524504144877315
000350 2e c0 a2 24 8a 91 ee bf 9b 63 40 e4 8a 88 06 c0
       -0.9552660670797246 -2.816671164717673
000360 43 88 fb d4 bf 3b 04 c0 b4 a3 4c 63 16 c7 f3 bf
       -2.5291744841825063 -1.2361053351289515
000370 a9 3a bb 1b b9 ea d6 3f b5 4d 52 ee 69 95 f0 3f
       0.35807635982647895 1.0364779767449879
000380 f7 e3 b9 ac 6b 64 ef bf e2 c0 a6 07 bd 44 09 c0
       -0.9810083745534247 -3.15856367089883
000390 41 92 c7 b6 a2 e1 00 c0 a7 eb 75 f8 84 47 e5 bf
       -2.1101736335424737 -0.6649803974863645
0003a0 70 1b 07 c1 0b b8 0c c0 b0 98 da 9a 56 d2 f4 bf
       -3.5898661690038622 -1.3013521241169137
0003b0 54 ba b9 f1 35 88 fd 3f 9f c5 6e 17 7e 75 17 c0
       1.8457545702364273 -5.864738813529953
0003c0 2e 36 37 5f 72 00 09 40 dd 0e cc 2d 99 f9 d9 bf
       3.1252181471561675 -0.4058592746007273
0003d0 91 bf eb 77 6d 52 f6 3f 9e fe bf 82 33 db 02 c0
       1.3951239284906232 -2.3570318426935293
0003e0 c3 96 be cd 49 f0 e7 3f a3 c1 88 1c 23 93 e3 3f
       0.7480820673415213 0.611711078387135
0003f0 d8 ac bd c8 4e 36 03 c0 fb d0 0c 14 15 16 d2 3f
       -2.4015174563297528 0.28259779890073816
000400 4f e1 75 9c 14 25 10 c0 d2 b6 55 75 7e 5d 0c c0
       -4.036211437887984 -3.545651356390274
000410 fa a5 b6 f1 36 bc ff bf a3 ff a1 0b b3 03 0a c0
       -1.9834508363659311 -3.2518063458264392
000420 88 80 eb 77 1a cd 03 c0 08 77 18 0f aa 2c 0f c0
       -2.4751481407875566 -3.8968087367383113
000430 69 d6 08 6e 8f b5 08 c0 c2 9c 93 90 26 76 f6 3f
       -3.088652476925564 1.4038453719638686
000440 a7 85 eb dd 01 d3 f2 bf b5 40 dd dd 94 b8 f1 bf
       -1.1765154522657697 -1.1075638453076355
000450 93 86 b0 5c 19 78 0b 40 4b b7 99 25 21 91 00 c0
       3.4336421243068087 -2.070864003900089
000460 5f 60 9c 71 59 a0 02 c0 ad 8a 70 55 bc 05 d9 3f
       -2.3282956004950814 0.39097507804596426
000470 35 48 bf ee e4 b6 b8 bf 9f 0f 93 c9 1e 45 f3 3f
       -0.096540745056047 1.2043750642778617
000480 ac 2e a3 5b 1a dd f2 bf 5f f3 00 42 71 8c f6 bf
       -1.178980215033259 -1.4092876985807476
000490 9f 46 44 12 f1 4a 07 c0 27 25 1c ff 59 f8 fd bf
       -2.9115926196180477 -1.8731327023727518
0004a0 e4 91 a3 59 8b 02 ca bf 4b 13 57 7c 8d 6c ef bf
       -0.20320264698888402 -0.9820010593908618
0004b0 68 e9 1b 88 b1 e4 e6 3f b2 ca 33 5a 72 33 e8 bf
       0.7154166849498269 -0.7562801133884334
0004c0 20 d4 2a 30 e0 ce 01 40 08 95 30 b4 4b 84 f6 bf
       2.2260135424680954 -1.4072987593329476
0004d0 99 14 52 8d b2 0f d1 3f 42 ec 19 ae b6 d6 f8 3f
       0.26658309746592007 1.5524203110533255
0004e0 e9 26 51 fc c8 89 09 c0 91 84 43 d3 0d 0f be 3f
       -3.1922778808847068 0.1174172058849925
0004f0 6d f2 d2 17 b8 a8 f4 3f 86 5f 21 e1 5c 3e e9 bf
       1.2911911898255781 -0.7888626477315348
000500 d9 5b e8 00 5b 95 f4 bf b6 79 44 7d 4a c7 fd 3f
       -1.2864637408690582 1.86115502293215
000510 cc 53 55 86 19 ca 04 40 b7 4b 60 25 9d 24 01 c0
       2.5986814970769725 -2.142877857209409
000520 f2 e3 76 a6 0f ca ff bf 98 9d 51 25 c4 1b fc 3f
       -1.9868313314930188 1.75677885606442
000530 74 79 ac 22 00 3b 0c 40 83 24 15 c0 67 bb d3 bf
       3.5288088520894068 -0.3083133102232482
000540 4d 02 87 30 2b f8 05 40 f2 2d d1 9e fb 39 f8 bf
       2.7461761275483583 -1.514155979518247
000550 52 78 25 d2 ec 4e 01 c0 2f 9b 9f 0a 2e 0b d2 3f
       -2.1635376374897897 0.28193236386725834
000560 15 6e 68 6c 74 4a f3 bf 34 12 8f c3 cc 2f 08 40
       -1.205677436321712 3.0233397748982274
000570 ca 13 4b 9b dd b1 02 40 35 d5 3d 04 01 78 e8 bf
       2.336848462322881 -0.7646489222376319
000580 e9 65 96 fe fa d3 05 40 31 77 75 59 fb de 0c c0
       2.728506077732835 -3.6088778485272077
000590 53 a9 f8 f4 69 e6 fa 3f 63 9a 58 ed 37 b1 0d c0
       1.6812533921425554 -3.711532453791095
0005a0 ef d7 59 91 a6 78 f4 bf d5 26 61 2b e9 0f 16 c0
       -1.2794557264110116 -5.5155379083677945
0005b0 60 6f 78 ac 96 35 dd bf 89 ab ad 37 f2 ed 11 40
       -0.45639578669373826 4.482369298911075
0005c0 6c eb 57 54 d8 93 12 c0 6e ef 2f 6e c8 a6 f6 3f
       -4.6443799189245105 1.415718489092764
0005d0 42 0e ff 82 e9 89 17 40 14 6b a6 7f 5e 3d 0a c0
       5.884679838960041 -3.2799653980886294
0005e0 2a 83 10 aa 9e e3 c9 bf 89 aa 59 9a ba a2 e3 3f
       -0.20225890449457867 0.6136143698361859
0005f0 a5 d3 2e ac 1f a0 fa bf 3f d8 3a 77 10 5e 07 c0
       -1.6640927053351586 -2.9209298434098225
000600 84 1e 05 0a 02 46 e8 3f 69 8a 91 88 c8 71 f3 3f
       0.758545894213015 1.2152791342456573
000610 c0 d9 3b 28 0e bc ef bf b0 6e 31 f1 f1 39 eb bf
       -0.9917059694114911 -0.8508233748247758
000620 0a 3b 71 9b bf 07 14 40 91 6c fe 49 89 50 12 c0
       5.007566860948609 -4.578648716119589
000630 da f0 cc 98 53 45 e5 bf f8 92 93 34 35 d3 f6 bf
       -0.6647127136598343 -1.4265644124763508
000640 42 3a f7 b2 80 c4 d4 3f a5 62 26 8a 89 18 f3 3f
       0.32449357487795194 1.193490543029989
000650 c1 d8 8b 2e 15 a7 f4 bf 35 b0 dd ba 00 05 f2 bf
       -1.2907916849340355 -1.126221399254985
000660 94 57 80 58 58 5b f6 bf 2f 0c f1 a7 80 11 c1 3f
       -1.3973010499080134 0.1333466358210855
000670 b9 26 cb 52 bd f5 04 40 e3 6a 57 2a fb bf e5 bf
       2.6199900120016903 -0.6796851946813515
000680 52 c7 68 d9 d4 b0 02 40 6d 73 ca e1 35 32 07 c0
       2.3363434777356042 -2.8995168342502695
000690 70 8a 3c fb 6b 63 06 40 b6 ec 48 e4 ea 69 d9 bf
       2.798545801911409 -0.3970896939606051
0006a0 f3 ca 24 8e e1 a3 b2 3f 14 b7 7e 5c 91 00 f6 bf
       0.07281312675767619 -1.3751386273465345
0006b0 92 f8 d9 75 c4 6d 00 40 64 65 48 c6 e0 c6 f4 bf
       2.0535973746437515 -1.2985542054578554
0006c0 79 17 f4 19 87 c6 f3 bf 15 e4 ea 9c d7 30 ce bf
       -1.2359686864669739 -0.23586554681767838
0006d0 e3 c7 0f 85 f0 19 b5 bf 5a 92 5f a4 4c 9e 00 40
       -0.08242705582213676 2.077294620672814
0006e0 a8 81 78 2f 65 69 17 c0 63 3c 75 f7 84 f2 fc bf
       -5.852925054292804 -1.809208838112476
0006f0 a8 55 c3 0c 48 b3 f7 3f bd ec 77 b7 44 c1 d1 bf
       1.4812698839717573 -0.2774211684879438
000700 8c b6 e3 14 ff 3f 11 c0 5b de 56 8f c0 51 06 c0
       -4.312496496580604 -2.7899180601487337
000710 6e 09 d5 eb b4 81 18 40 f0 e3 20 cd 0d 52 f5 3f
       6.126666722181069 1.3325326931792425
000720 83 71 be f0 3f 7a f4 bf 1f 52 b2 c9 22 24 15 c0
       -1.2798461345729215 -5.285288955220067
000730 af 9b c9 d7 a8 cb 00 40 d7 2d 77 27 86 8e 02 c0
       2.09944313606271 -2.3195918162580074
000740 62 7d cd 16 3a 73 12 40 64 fc 87 28 d2 6d ea bf
       4.612526279728032 -0.8259058753609563
000750 56 65 1f 5d e3 6b ea 3f 6f f7 80 c9 32 49 f2 3f
       0.8256699389268458 1.1428707000008804
000760 a7 77 6d ff fc b3 f4 bf 3b fe 9b cd 03 7a fe bf
       -1.2939424493447207 -1.9047887832274586
000770 fb 92 82 f5 14 4b e1 bf 02 f3 a1 ba 92 94 0f c0
       -0.5404152674787776 -3.947545488421725
000780 cb 8a 57 09 6f 77 13 40 84 78 23 a9 9b 2a 0d c0
       4.8666345081025595 -3.645804711718542
000790 6a 48 c5 96 17 e4 bf bf df 9c 0c df 28 a6 e3 bf
       -0.1245741599171041 -0.6140331608229664
0007a0 ed fb d7 66 53 4b dc 3f f0 2b 91 6d b3 7c ea 3f
       0.44209752124146356 0.8277222766859023
0007b0 ab 09 90 60 a0 11 12 c0 9d 52 1e 37 94 44 02 c0
       -4.517213352958076 -2.283485823262096
0007c0 2c 5c f9 d2 98 be 01 40 70 9c 81 a8 bd 0f 06 40
       2.2180649263714454 2.757685963111321
0007d0 0c e8 8e 1d 14 f6 12 c0 8d ef 8c 0a 34 ce 05 c0
       -4.740311109397236 -2.7256851982364823
0007e0 06 97 bf 1c 62 7a f4 bf 93 61 f1 9f 40 79 ec 3f
       -1.2798787234291367 0.8898013233074827
0007f0 52 c0 a7 dc 89 54 d4 3f bb 05 66 32 b7 58 e9 3f
       0.3176598219715788 0.7920795425745192

module.module.layer_2.weight f8 [128, 512]
000000 bf a9 e6 55 05 94 b9 3f 92 1f 42 07 df 47 e5 bf
       0.09991486880486543 -0.6650233403934058
000010 47 7e 0c 2c 6d ed f4 bf ef 7d 3b 95 cf 6b db 3f
       -1.3079654427200624 0.428455253348118
000020 d6 39 02 c0 67 80 d7 bf 06 5f e4 2c a9 d2 f4 bf
       -0.36721223593567964 -1.301430869445484
000030 d5 6e ab 88 34 ba d1 3f 6a d3 cd de fd d7 c4 bf
       0.2769900641121528 -0.16284154299833214
000040 df 14 37 f9 be c1 01 40 e3 6d 13 f5 cb 12 e0 3f
       2.2196025342878865 0.5022945200575432
000050 6d 8d 1b 1d 78 6f f7 3f d8 df 45 69 4f c0 d4 3f
       1.4647141587273282 0.3242376831108209
000060 8a b1 64 f8 e8 d1 fd bf 98 52 eb 7b 20 d3 b7 bf
       -1.8637475684036837 -0.09306529069301417
000070 69 f8 8a f9 2c 9e c5 3f d1 44 e9 6e c2 55 eb 3f
       0.16888963875493637 0.8542186895594118
000080 e5 1d 40 87 54 d8 d9 bf 74 aa eb 8c 2b 88 e1 bf
       -0.4038287468724476 -0.5478723289828182
000090 8b 37 52 76 58 7c b9 3f aa 10 2c 41 88 c3 9d 3f
       0.09955361260128208 0.02906620881823644
0000a0 09 24 93 bf c8 d1 d1 3f a9 6d 74 f7 e4 f8 05 c0
       0.27842920978997704 -2.7465304691702
0000b0 32 01 50 8c 7c ab b7 3f a2 cb e6 52 4f c9 fd bf
       0.09246042657469358 -1.8616479147283163
0000c0 72 86 41 69 f5 84 e3 bf 91 6e 6b ae 3e 24 d7 3f
       -0.6099803024082588 0.36158721001786726
0000d0 f4 2d c0 64 fb 0a d1 bf ac a8 11 3b 26 e5 da bf
       -0.2662952884572569 -0.4202361656995304
0000e0 44 4e cd 17 3d ed fa bf c6 57 34 b7 50 9d f7 bf
       -1.6829195909275692 -1.475907054560126
0000f0 44 a5 cd 3c 29 06 ac 3f 4f 01 a0 63 7a 88 ff 3f
       0.05473450534084148 1.970819844398722
000100 d5 d9 15 2e c9 db e1 3f 5d af fd 58 f9 1b d0 bf
       0.558079328546962 -0.25170739832423356
000110 9e e5 c6 2d 24 8a f7 3f 71 d6 2b b3 36 f1 b4 bf
       1.4712259090577855 -0.0818056285314357
000120 fe a6 02 05 01 ac e4 3f ad 42 ba 4d d8 8c cc bf
       0.6459965799196821 -0.22304824633876788
000130 9d f1 1f a4 93 0b e7 bf 1a 6a d0 42 61 3a de 3f
       -0.7201631742059821 0.47231322789017016
000140 3d a7 fa 09 5a 6b ed bf d0 93 38 4f 34 b0 e8 bf
       -0.9193544573692872 -0.7715093180928481
000150 d3 b4 70 f5 8b f3 fa bf 1d 8d d8 6e 47 d3 cb 3f
       -1.6844596469411968 0.2173852244605791
000160 08 59 fc 19 aa 5a b4 3f 13 c4 6c 7c 56 ad c7 3f
       0.07950842985551188 0.18497735095437004
000170 52 10 a9 a4 08 4a e8 bf 52 94 a1 6e fd 89 d2 3f
       -0.7590373245261708 0.28967223934006825
000180 d5 10 8b 35 f4 82 c5 bf 28 a5 53 8a 06 d1 cf bf
       -0.16805889715590774 -0.24856645349726958
000190 23 99 5c ba 2f 1d e1 bf 95 b6 31 49 0d 68 c2 3f
       -0.5348127975346738 0.14380041192946594
0001a0 38 9f 42 3c 81 46 06 c0 69 bd 3c dc 64 6a f7 bf
       -2.7844261844474225 -1.463475094129388
0001b0 8b 95 35 ec ac 01 aa bf 87 58 d5 60 57 58 03 c0
       -0.050794032892365136 -2.4181354107959723
0001c0 05 94 74 6b 84 b9 ee 3f c0 3b f8 fc e6 d9 e9 bf
       0.9601461504686318 -0.8078494015516
0001d0 06 24 10 7f 95 66 d8 bf dc e6 40 da cb 04 eb 3f
       -0.3812612286424727 0.8443354857219805
0001e0 e3 1b c2 e1 b3 fc 02 40 07 37 55 98 42 18 ff 3f
       2.373389972435221 1.943422884989049
0001f0 b9 aa b3 20 25 06 b6 3f 5e ab 40 ff ce 59 f0 bf
       0.08603126572021837 -1.0219259234242695
000200 5c 8e a2 27 ad 9c 03 c0 8a ab 84 81 68 09 ea bf
       -2.4515021416171248 -0.8136484651234792
000210 13 43 75 5c fb df f0 bf 63 b9 ea ed 02 1e df bf
       -1.0546830760615122 -0.48620675310202993
000220 19 5d 96 23 d8 2b e1 bf 4f bb 23 cd 54 f5 f6 bf
       -0.5366020865502917 -1.4348953259720536
000230 2c d4 f8 0e c7 4c e7 bf bd e5 01 e4 38 cc b1 3f
       -0.7281222622319823 0.06952243391596986
000240 ea 3e 32 e7 2d ab f1 bf f8 80 44 71 d7 77 d5 bf
       -1.1042918234924692 -0.3354395490769231
000250 a6 d5 14 e3 5a 63 e0 bf bc 79 ff 96 af fb ab 3f
       -0.5121282992537786 0.05465458601223669
000260 c6 99 97 27 73 9f cf 3f f0 e5 87 19 95 aa c9 3f
       0.24705352242672357 0.20051826235412262
000270 23 c1 7f 2b 26 5b 9c bf 39 15 e8 8d 3f b2 02 c0
       -0.027691456227274657 -2.3370352827502328
000280 fb f6 94 3c 22 3d da 3f 54 ab 8d 0c eb 02 cb 3f
       0.4099813071842246 0.21102655518492475
000290 96 c5 92 78 1f 6a f3 bf 70 01 5b e6 73 0e d8 3f
       -1.2134089193244555 0.37588212485936534
0002a0 d5 4b 16 89 3e 0e d2 bf 76 0c af 1c a9 12 e5 3f
       -0.2821194018117102 0.6585279045324473
0002b0 6d d5 a0 31 3f 96 e1 3f f5 6f 13 bf 6c 17 e4 3f
       0.5495906800557983 0.6278594715072346
0002c0 23 bc 98 a5 18 1d c3 3f 40 4a 01 a4 59 31 f1 3f
       0.1493254479005098 1.0745483786055416
0002d0 46 e0 e3 b9 4a b8 d2 bf 95 27 ed b4 ea 4e ea 3f
       -0.2924982848485381 0.8221334012716733
0002e0 3b 91 f8 1a 0a 6b e9 bf b3 c6 74 f4 13 40 e1 3f
       -0.7943163420464211 0.5390720152410807
0002f0 70 de b6 df 3d f4 bc bf d1 42 a8 b6 47 f2 c6 bf
       -0.11310183250213313 -0.17926880282222737
000300 6e 9f 2a bd 30 8e e0 bf 2b 7d 1a 63 c0 5a f7 bf
       -0.5173572249086484 -1.4596561309079543
000310 e4 e2 c0 94 58 49 ac bf 10 b6 f7 26 ab 12 e3 3f
       -0.05524708572233353 0.5960288773619045
000320 ac 33 51 c0 aa 7e b9 bf 2e 6e 79 8c 71 62 b6 3f
       -0.09958903498882304 0.08743962935971503
000330 1c c8 41 9c 36 e5 cd 3f b9 80 3c 5f 25 c7 9a bf
       0.23355753545507774 -0.026150306642308083
000340 e6 7a 3e 9e a1 ac ca bf 4e 89 10 57 54 66 00 c0
       -0.20839328982125166 -2.049965553466939
000350 75 b7 e0 f5 1d c1 f4 bf 65 3e 9e 37 30 87 fd 3f
       -1.2971477131463562 1.8455049679359032
000360 b8 be 8b 78 19 82 e1 bf 6c 58 7c 11 0e 38 c2 3f
       -0.5471312860881516 0.14233566144747856
000370 f2 5a 1f e0 cc ed c5 bf 95 35 01 b4 10 b3 e5 3f
       -0.1713195890758566 0.678108550616957
000380 3c 7e 10 ff db 78 e7 bf 69 9c 6d 43 18 08 b8 3f
       -0.7335033399321627 0.09387351652331834
000390 fc 33 e6 69 03 8c bf 3f 17 1a e8 79 32 2f a0 bf
       0.12323018393927038 -0.031610085850889806
0003a0 f3 e9 73 5a f0 81 d2 3f 1a 0c ce f1 99 58 0b 40
       0.28918083985595827 3.418262375927509
0003b0 9e 67 3d 98 f0 32 08 40 66 71 3a 9b 55 7e c9 3f
       3.0248729604472393 0.19916791991716848
0003c0 e8 87 6a fb 5d f3 e4 3f 8d e6 e9 72 7d 54 cc 3f
       0.6547079000922595 0.2213284312345433
0003d0 af 2c c4 e4 fd 7d d7 3f 27 82 4b b5 6b 56 fb 3f
       0.36706492748698855 1.7085988122781914
0003e0 48 20 76 86 df 3d 02 c0 2e 85 da 36 11 4f d7 bf
       -2.280211496810839 -0.36420088154598573
0003f0 3a 73 1d b0 54 61 e2 3f d8 93 08 1a 3e 8e 9c bf
       0.574381202673613 -0.027886362399062253
000400 d7 24 cb 49 fc 5d d2 bf 73 77 bc 08 86 70 b0 3f
       -0.28698641973876476 0.06421697343145442
000410 4d 41 21 2d a2 4c 08 40 6a 8f 63 21 df b3 d5 bf
       3.0374187017224927 -0.33910349140773255
000420 f9 82 53 0b 56 6e ca 3f 48 4b db 2a 31 8a 02 c0
       0.20649219086683226 -2.3174765918896902
000430 da 6d 79 d8 c6 dc eb bf 9e 72 63 53 ca e2 d3 3f
       -0.8707002857221895 0.3107171835270409
000440 56 08 ef 12 8d c7 f1 bf d7 67 f4 4b 39 98 d7 bf
       -1.1112185229872202 -0.36866600434734437
000450 26 8c 28 57 70 ca f8 bf bd 77 f9 39 92 f1 b4 bf
       -1.5494235424637366 -0.08181108394043597
000460 2e b9 bd 08 e9 d7 c6 bf c0 ad 5a 5d cc 50 e9 bf
       -0.1784640591317354 -0.7911130736660468
000470 06 0d 39 ff b4 40 f1 bf 34 dc 58 bf d4 ac de 3f
       -1.0782976121561787 0.4792987698196527
000480 4a 8d 34 fe 47 1e 02 c0 90 53 6f c6 46 22 da 3f
       -2.264785753229863 0.40834206941991
000490 e0 7f 75 e1 6a 19 e0 bf ed 94 8d c8 04 39 db bf
       -0.5031027225013496 -0.4253551443601527
0004a0 47 38 ed 87 f5 48 f3 bf 71 02 05 64 26 f7 de 3f
       -1.2053122815737127 0.4838348366502379
0004b0 81 dd d1 1b b1 54 03 40 ec 87 4c 15 65 ed fa 3f
       2.4163534329815666 1.6829577285757251
0004c0 37 08 dc 84 e1 8f f4 bf 17 90 ff 97 f0 27 d0 3f
       -1.2851271810363991 0.2524377331121754
0004d0 13 8d a3 6d 70 72 e7 bf 4d 4f 6d aa fb c0 d0 3f
       -0.7327196256050307 0.2617787517858588
0004e0 39 b7 02 9e 8f 11 fb 3f 85 9e fa 74 e9 6b d1 bf
       1.691787354687632 -0.2722114221928467
0004f0 26 10 ff 23 88 49 de bf 86 f7 5a 20 97 28 b8 3f
       -0.473238024857212 0.09436935939717558
000500 17 38 9f 82 21 3a f3 bf 25 e4 96 18 53 53 e2 bf
       -1.201692114107123 -0.5726714592229923
000510 80 f3 73 53 1c 9e 03 c0 e1 40 4e 5e ca f9 06 c0
       -2.4522024650345315 -2.871968018305879
000520 e6 e7 10 6e 02 62 dd 3f 1a 16 cc 0c 35 42 da bf
       0.45910702465664455 -0.41029096841552504
000530 84 f5 3c 9f b9 78 ec 3f 9a 1a 57 70 5d 01 fc bf
       0.8897369489783817 -1.750333250836468
000540 92 fc 70 b2 96 55 fd 3f 57 e7 a1 4a a8 e9 00 c0
       1.8333956690183055 -2.1140905218752937
000550 ea b1 2f 6e 6c 82 d8 3f 97 11 ba 33 48 e8 e0 3f
       0.3829604221380395 0.5283547411241213
000560 00 b1 93 09 cd 5b b7 bf b8 22 62 8b 0d 8d fe 3f
       -0.0912445209866668 1.909436745134526
000570 37 6b 96 ce 7e e9 fc bf 23 e9 70 d0 d0 c7 c6 3f
       -1.8070056981875504 0.17797289064203267
000580 01 59 0e 88 6f 90 b1 3f 18 2c 4f b8 f1 5b e0 3f
       0.06861016341858674 0.5112236594953883
000590 a4 a9 28 24 e7 ce f7 3f 0a f5 76 5f 9e 61 e8 bf
       1.4880134022192602 -0.7619163384003127
0005a0 dc 0d 46 76 9e fe cb bf 55 7e b1 9b 87 ba f3 3f
       -0.21870785498695866 1.2330394822855812
0005b0 ee f7 68 5e 90 ae d9 3f 49 a1 7b 93 36 84 02 c0
       0.4012795373890857 -2.3145572206596268
0005c0 3d 6a 73 23 47 bf de bf c4 32 27 a4 5d 46 9d 3f
       -0.4804246755790336 0.02858873667155383
0005d0 b8 5b b6 65 f5 c0 07 c0 54 d9 91 df ed d7 c6 bf
       -2.9692180582310037 -0.17846463600626328
0005e0 26 15 c2 c0 16 a7 e0 bf a7 d6 d1 da b8 24 ce 3f
       -0.520396591644986 0.23549566921763196
0005f0 29 ef 21 29 d3 87 ee bf 89 a1 15 dd 3d e6 c0 bf
       -0.9540801814432359 -0.13202641768590365
000600 fb 76 69 0f 28 86 80 bf 5e 54 1d 58 97 c2 d8 bf
       -0.008068383188568165 -0.3868769035810312
000610 53 0f 89 93 c4 9a ff bf 2d 68 a4 f1 0a 96 c4 bf
       -1.975285126028173 -0.16082894133507022
000620 25 db 37 a1 11 90 0a c0 b1 34 0c 57 cc ad b3 bf
       -3.3203461260958584 -0.07687070012271381
000630 9e 7a 11 a6 1c f7 f7 bf cd 02 be 97 e5 a1 de bf
       -1.4978300559084015 -0.4786313993318288
000640 24 4b bc 8f 38 b7 e2 3f fe 43 56 49 9b 40 d7 3f
       0.5848658377966314 0.3633182731801411
000650 72 f8 ac da 27 08 fb 3f 0c 18 08 52 5b b3 fe bf
       1.6894911329286768 -1.9187882618293797
000660 d8 a1 e4 8f 5e 08 de bf b4 66 4e f8 0e a8 a5 bf
       -0.4692608266073228 -0.04229780942041597
000670 9a e8 31 bd b5 5b f5 bf d0 28 b3 6c 1f 9c d5 bf
       -1.3348901167324017 -0.3376539765855684
000680 00 30 77 6c 5d 47 b6 bf 0c b7 86 7c 7b d1 d2 bf
       -0.08702644250951153 -0.29403578911556916
000690 e8 6a 0c d4 73 43 da bf e7 ea 8a 76 9c b2 d7 3f
       -0.4103669710909075 0.3702765615122829
0006a0 41 a1 73 14 9d c3 e6 bf fa 63 0f e3 0c 0c c6 3f
       -0.7113786124655591 0.17224274718208205
0006b0 03 da b4 5f 1b ef cb bf 44 9a 06 49 f6 75 06 40
       -0.21823446438948232 2.8075986580982164
0006c0 a9 f9 e0 9a 36 94 01 40 67 1b 94 1e 8d be f3 3f
       2.197369775763225 1.2340213007425633
0006d0 6c 49 bb 1d da 58 f1 bf 0c 91 91 4d 43 b0 8d bf
       -1.084192386759777 -0.014496351055818944
0006e0 5e 76 6b e8 3e 2d cf 3f ab 30 30 ac a7 91 03 c0
       0.24356829022046872 -2.446120591374059
0006f0 a6 42 7d 3a 6e 9e b9 bf e8 77 a4 d9 ed df d7 bf
       -0.10007370880090125 -0.37304254774232826
000700 a3 bb 2d 7b 79 0a b1 bf 91 c1 56 7b 31 ef d4 3f
       -0.06656607873240587 0.3270991997224196
000710 38 11 13 e6 22 aa fa bf 57 36 52 56 f2 08 fa 3f
       -1.6665371882709916 1.627184235755882
000720 de 47 97 3e 41 73 e4 3f 21 b4 8a 93 ba 1e ed 3f
       0.6390691969374946 0.9100010759044644
000730 e8 43 4f 89 31 1b f0 bf 61 69 19 54 0a 85 b2 bf
       -1.0066390384347361 -0.07234253457264607
000740 99 80 f9 15 89 6d f2 3f 0e a6 6c 36 d0 cb dd 3f
       1.1517420633681807 0.46556477846988364
000750 c4 ef 3c 95 1c e6 e4 bf f6 ce 58 4e eb 25 d7 bf
       -0.6530898012929289 -0.3616894021135829
000760 79 37 c1 3a 5e f9 ec 3f f7 c8 14 4a 94 0c d3 bf
       0.9054404399446262 -0.297642776818193
000770 23 5b a9 19 2e bf 8a 3f 2f 1a 8d 44 d8 2c e5 3f
       0.013059959562423956 0.6617242182626962
000780 d8 45 32 18 c2 9c 01 c0 7e ef 71 7f 9a 4e bc bf
       -2.201542080911832 -0.1105743943352859
000790 66 a1 82 a4 eb 1f d9 bf a4 27 98 f0 08 06 ca bf
       -0.39257327142197196 -0.2033091711785434
0007a0 7f 4e 09 c0 37 bd dd bf 31 12 b7 0a 70 a7 df 3f
       -0.4646739364008922 0.49459458395384376
0007b0 61 41 6b 85 37 88 e1 bf 42 95 74 79 9d d4 ec 3f
       -0.5478780370558917 0.9009539959121542
0007c0 52 56 44 b2 9b 04 ec 3f 90 66 28 73 e8 55 e6 bf
       0.8755625230575765 -0.6979868172813486
0007d0 53 ea e4 5b f1 57 d7 3f 60 c2 0c c2 cb 54 ea 3f
       0.3647426030544569 0.8228510656391101
0007e0 45 5e 59 63 d2 72 c4 bf 2a ba 69 91 73 b8 fb bf
       -0.159754084120083 -1.7325320892520133
0007f0 ed f7 7d a4 8a 9f d0 bf be c5 9d 5d fa a5 da bf
       -0.25973764480283884 -0.4163804926129976

module.module.layer_2.bias f8 [128]
000000 24 38 fb 09 0b c1 cd bf 67 b0 60 b4 12 c1 b5 3f
       -0.2324537085282269 0.08497731117012251
000010 b5 88 34 f0 24 cb c3 bf 95 03 1c c1 d5 08 c7 3f
       -0.1546369717480666 0.17995712212725992
000020 63 0a 31 64 3b 26 a8 bf 4a ef 45 20 75 80 b4 3f
       -0.04716668699304163 0.08008510625762458
000030 0f 8a 0e 54 db 98 aa 3f 2d 0d 2d a4 90 6e bb 3f
       0.05194745446285164 0.10715583809092229
000040 0f 26 1a af 1a ad bc 3f c5 17 d6 f5 bc 5e c8 3f
       0.11201636099772137 0.19039117816663356
000050 6e d1 54 ad 0d b6 a8 3f 6f 27 6a d1 ee 6f c5 3f
       0.048263957413300015 0.1674784204990902
000060 f5 8d f3 d7 36 64 ac 3f 39 9e 2f 78 47 ce c6 3f
       0.0554520739185839 0.17817014091927932
000070 24 50 9a 06 3e 16 c2 bf 50 6e b1 95 d0 e3 7f 3f
       -0.14130378076936367 0.007785620483527447
000080 10 f3 5f 0f a9 a2 bf bf 5c 58 4b c0 4d 52 de 3f
       -0.12357575059281722 0.4737734201311292
000090 27 9d e9 ea 98 23 cf bf b6 3e 58 a3 b0 65 e0 3f
       -0.24327384443606911 0.5124133291555697
0000a0 76 f7 5e 79 8e 64 d2 3f 66 40 1d 1c 72 d5 c9 3f
       0.2873874840987506 0.2018263470913581
0000b0 fd a6 15 4c 4c 70 d6 bf bf 0c ff 1b 2e fb d9 3f
       -0.350604128171298 0.4059558175469639
0000c0 fa ec fb a6 00 0d a2 3f bb 39 eb db 81 a0 b2 3f
       0.03525545156841221 0.07276164645302334
0000d0 5b ee c9 87 ec 00 b7 3f ef 88 bb 9a fa 9f d1 bf
       0.08985784831195913 -0.27538933859444986
0000e0 a9 10 12 fb a6 1d e0 bf c3 00 1d 53 2e 80 d1 3f
       -0.5036196616861349 0.2734485446599246
0000f0 a5 fa ba ea 52 4f b6 3f 66 f7 dd 80 3e db ab bf
       0.08714788656923618 -0.05440707514843161
000100 b8 14 87 cd ff 19 c1 bf da 53 19 06 41 76 ce bf
       -0.13360593352823513 -0.23798382566260906
000110 d7 54 7b bd bf 6e c5 3f 0d 32 4b a0 77 a5 cd 3f
       0.16744229080237602 0.23161216093866735
000120 4b ba a0 84 d0 98 c0 3f ea b2 cf e3 e0 da ca bf
       0.12966352916687848 -0.20980464099502366
000130 84 9e 3c 5e 73 5f c4 3f 56 05 a2 79 b7 4e ce 3f
       0.15916292287260003 0.23677724303346775
000140 e6 45 cd 0b 38 bc c3 3f 65 61 16 cb 5f 64 b0 3f
       0.1541814859033785 0.06403158863247922
000150 a4 d0 69 93 8a a6 be 3f 05 46 b6 e2 0b 68 b3 3f
       0.1197287187476968 0.07580637249909479
000160 30 fb ba 62 87 ea d6 3f 9a ad 46 08 ee 60 d0 bf
       0.35806450502052467 -0.2559161263295323
000170 6c 50 d8 c5 0a 27 a4 bf a2 a9 fc 99 40 d8 d5 3f
       -0.03936036744212931 0.3413239959505977
000180 f5 52 32 9a 81 20 a5 3f 31 cd 34 00 cb 93 d9 3f
       0.0412636280754323 0.39964556713239846
000190 42 fa 5e 4c a5 11 b6 bf 15 c7 60 5a c4 ce cf 3f
       -0.08620675196196095 0.24849752820005536
0001a0 b5 c3 f8 be ad 9d ce 3f 90 f7 a0 33 0d 31 b6 3f
       0.23918697190086183 0.08668596754520608
0001b0 b7 52 ed cb 39 be ba 3f 00 38 4d b6 5c ad a3 3f
       0.10446511486709197 0.03843202329026951
0001c0 85 a8 34 34 e3 13 b5 bf ca 68 1f 9a 9c 62 d7 3f
       -0.08233470940163741 0.3653937821487828
0001d0 6a 95 73 ae 04 07 c9 bf 79 f7 b4 c1 8a 10 87 3f
       -0.19552668111934263 0.011262020145860184
0001e0 8b 19 3e 35 3f 73 d2 bf c7 28 4a 91 62 5a 92 3f
       -0.2882841129252475 0.01792291652467595
0001f0 10 f5 00 33 9e 5a b9 bf 83 39 f5 7b 7e 17 a4 3f
       -0.09903897042473297 0.03924174559743945
000200 13 2a 15 e1 54 a3 cc 3f 35 74 82 66 65 d5 98 bf
       0.22373448362698464 -0.024251541501701907
000210 e6 cb b5 8d 3a a4 cc 3f 3e d6 8d 43 02 66 b5 3f
       0.22376186294022132 0.08358778142231757
000220 c0 05 9f ac 47 f5 db 3f a2 61 ac 8d dd 2a 96 bf
       0.4368457017663694 -0.021647893688255267
000230 52 31 73 2a 2a 09 d1 3f b5 42 59 4b 9d ac c2 bf
       0.26618436952118885 -0.14589277438292006
000240 4d 43 c4 13 29 15 d7 3f 81 6a b2 f4 9d 12 ce bf
       0.36066653185212233 -0.23494314621060045
000250 59 80 77 1e a1 90 dd 3f 10 b7 0d 0c 8b d4 ca 3f
       0.461952476265656 0.2096113022666306
000260 9f 16 fd ec 62 c0 be 3f bb ab d3 c3 d6 81 b5 bf
       0.12012308393340242 -0.08401243477753344
000270 13 84 e3 1e 8f 72 b6 bf 1a 3c 95 84 72 49 ad 3f
       -0.08768553260917171 0.057200983700220046
000280 21 1b 0d fb 68 df be 3f b2 a3 07 88 70 9b 8b bf
       0.12059646729640551 -0.013480071212102238
000290 17 c9 cb ce 6f 27 ae bf 3d 09 1a ae ae 69 c9 3f
       -0.058894628518731 0.1985376691919302
0002a0 ff ac ed 0d d3 ad ab bf bb 17 4b cc 18 3d c6 bf
       -0.05406055016541166 -0.17373952842006965
0002b0 d1 1c 94 22 33 d5 b7 3f ce 1d 55 ac cf 03 da 3f
       0.09309691995814552 0.4064826186117586
0002c0 2f e4 63 fc 22 18 cf 3f 72 a6 30 38 f9 01 e0 3f
       0.24292409251919042 0.5002409074269976
0002d0 2a fe 82 3a 95 07 b5 3f 4d 8f 65 2a 36 31 ce 3f
       0.08214695623882365 0.23587681837227095
0002e0 bd 7b 61 ee a6 68 c7 3f ef f1 4e ce 7e 04 a0 bf
       0.182881227871773 -0.0312842966882022
0002f0 0e e6 56 14 7f f6 be bf 74 c0 6f 12 2d 31 ba 3f
       -0.12094873663490821 0.10231286716566662
000300 29 32 9a c8 aa 50 be 3f f0 9c 7e dd e7 c4 de 3f
       0.11841838262098094 0.480768171599677
000310 f8 99 95 0f 0f 1b b3 bf f0 13 1d 46 21 78 bb bf
       -0.0746316350028805 -0.10730178796536882
000320 be c8 5c 39 6f 65 b0 bf 9a 20 fa a7 08 45 c9 bf
       -0.06404776716661595 -0.19741924478535539
000330 27 e0 39 ef 8c 71 c3 3f 1e 5a 1f d8 e3 77 b8 bf
       0.15190278702698487 -0.09557937647273504
000340 40 3b 86 12 89 49 a6 bf 24 f8 27 4b cb c9 bb 3f
       -0.04352978087546555 0.10854788384310204
000350 e4 61 11 78 95 3b b2 bf cb cd 8b 84 25 91 a0 bf
       -0.07122167760224546 -0.03235738032335752
000360 d6 cb 90 b8 80 01 d7 bf d7 90 6e 40 3d 52 c0 3f
       -0.35946672462449436 0.12750974317635297
000370 78 c6 bd 94 32 41 bf 3f 73 fb 7f 33 ee 48 ac bf
       0.12208858615283613 -0.05524391535435926
000380 97 d0 8d 3f 4b 51 7a bf e2 a8 d3 d2 5d a3 d3 3f
       -0.006425184191233189 0.3068460997443606
000390 9b e5 3c 5e 0c 11 d9 3f 39 02 0e ec ea 9d cf bf
       0.39166554644506285 -0.24700676466092533
0003a0 cb c7 ff 80 de 60 d5 3f a9 a4 bc ea f8 2e cd 3f
       0.3340374240643739 0.2279959818054398
0003b0 c7 47 a9 f8 7f 4a c5 3f e8 39 33 98 e9 1b c9 3f
       0.16633605615294142 0.1961643212475359
0003c0 24 dd 8e f1 aa 40 db bf ec ff 95 d7 84 3d d2 bf
       -0.42582200612692334 -0.28500481656374066
0003d0 96 6b 25 dc 7c ea d4 bf 5c f7 58 14 08 85 b1 bf
       -0.3268119954934091 -0.06843615051999791
0003e0 1a 9b 47 64 10 93 b0 3f 1a 36 47 88 61 e6 c8 3f
       0.06474401901469343 0.19453066972930416
0003f0 41 65 de 0b 28 86 e3 3f 50 db 06 a1 51 16 cb 3f
       0.6101265174685652 0.21161861765514312
