old_models/old_kml_ml/saved/model.pt (torch, 622952 bytes, 8 tensors)

module.layer_1.weight f8 [512, 5]
0	0xbfde453b8b5453eb	-0.47297562223803763
1	0x3fc6a307328e6c6a	0.17685022324153304
2	0x4002a7b98014e064	2.3318967825289736
3	0x3fe4fa2e22121abb	0.6555395760959394
4	0x3f88ce54a5954c2a	0.012112294486234704
5	0xbfe87af3e1769b29	-0.7650088695125749
6	0xbfdbeafbf7c0d3ac	-0.4362173003640304
7	0xbfdd2f7ffe4f6a4e	-0.45602416834814086
8	0xbfdd9af5f9ca5cf8	-0.46258305924989385
9	0xbfbfdab2bede34cb	-0.1244308200823127
10	0x3ff68eea4721eaf9	1.40989139352922
11	0x3fc528c67a1d7b3f	0.16530686342863452
12	0x3fff5800021b9d15	1.9589843828524114
13	0xbfa68671453ac57d	-0.04399446458900067
14	0x3ff52d0d1dac9263	1.3234988364357825
15	0xbfc99b648cc8bf23	-0.2000547110960663
16	0x3fe9f48dc9df9a36	0.8111027663079031
17	0xbfe7d19e0a3f927e	-0.7443380546724965
18	0xbfeb3693d2d425d0	-0.8504122846363149
19	0xbfe8d7f87c2ee75f	-0.7763636041120029
20	0xbff002a899bbd54f	-1.0006490712379053
21	0xbfcede75d6f32b8d	-0.2411639499244668
22	0xc0008490fa6f15ff	-2.0647296490813
23	0xbfca91c6567e3220	-0.2075736925438756
24	0xbfd975dfca68572d	-0.39781946913113836
25	0x3ff40c6c8a341175	1.253033199173925
26	0x3fdbe7acfe1127f2	0.4360153657077027
27	0x3fe3c5c1154dcfbd	0.6178899208157344
28	0xbfd2b1cdaed8c1b1	-0.29210226130364975
29	0x3ff630c41a30ca55	1.3869057677335566
30	0x3fe883095582e3e1	0.7659956617491127
31	0xbfe21a761389e20f	-0.565730131303157
32	0xbfd7ba6deacec627	-0.3707537453693441
33	0xbfd8a1dacaed4af5	-0.3848788243969204
34	0x3fb84051f509557e	0.09473144752822368
35	0xbfcbc62d6ac81e88	-0.21698539461089106
36	0xbfd9966a499ef528	-0.39980561437171724
37	0xbfed10489dd57e04	-0.9082377512640396
38	0x3fd54369c4e85593	0.33223957280400745
39	0xbfee2bc35c241302	-0.942842178309178
40	0x3fdc99db5296fd0d	0.44689066949281725
41	0xbfe0863c23e653b2	-0.5163860989729214
42	0x3ffff6d8d87f40e7	1.9977653939168307
43	0xbfeac8626c97bcef	-0.8369609948112194
44	0xbff1e4fbd9c1ce55	-1.118404245961661
45	0x3fd4a7e689026f9d	0.32274783496699816
46	0xbfd69f6eafc62121	-0.3534809795896923
47	0xbffdcf2fdb4d1401	-1.863082749028081
48	0xbfe226453e7db07d	-0.5671716900374261
49	0xbfd655892f539657	-0.3489706957028366
50	0x3fe558a03473107b	0.6670685791400638
51	0xbfabe01115aca944	-0.05444386853771957
52	0x4006e9abbf185958	2.864097111635754
53	0xbfcdd2bb63bf78ea	-0.23299352999214956
54	0x3fdb48f8a90cdb0f	0.42632881649790105
55	0xbf96ca83279d521e	-0.02225689820564202
56	0xbfe1743f99c7edc1	-0.5454404834303476
57	0xbfdca974aaacb274	-0.4478427569145318
58	0xbf9aa50b76de49c2	-0.02602022088064771
59	0xbfe74768fb297d25	-0.7274670510777567
60	0x3fee79767ff7f4a1	0.9523270129572162
61	0x3fd81eb72ad6030b	0.3768747251815944
62	0x3ff4f3485984c22a	1.3093951699085076
63	0xbfdfd0725d86a46d	-0.4970975793208428
64	0x3ff5b09c217735f3	1.3556176478626838
65	0xbfd159f4d3a672b6	-0.27111550015414865
66	0xbfd192ab6888bf03	-0.2745769997445537
67	0x40001c0474af3a3b	2.013680373761671
68	0x3fe2a4c0477c81d7	0.5826112171380896
69	0x3feac8bd212c5b3c	0.8370042465129255
70	0xbfeeb95841d39602	-0.9601250920938471
71	0xbfce000d72c1828c	-0.23437660315814346
72	0xbfe22f887bfe637b	-0.5683023854972896
73	0xbfddde7f75658d37	-0.46670519318122977
74	0xbfdfdc82413efc17	-0.49783378955538765
75	0x3fe35e323d476de0	0.6052485653739801
76	0xbfc32ef5bb9da208	-0.1498706022350833
77	0x3fde128653187fb6	0.4698806582909997
78	0x3fb7e226a852f7be	0.09329454049563332
79	0x3ff3e4a65dfb00d8	1.2433227225410999
80	0xbfe1e97e7a16bb47	-0.5597526917025356
81	0x3f94c4cc626ae925	0.020281976229605498
82	0x3fd0faad47696562	0.2653001019840159
83	0xbfee9d3c7ee362d7	-0.9566938856397326
84	0x3ff1fc620f22f089	1.1241169539708002
85	0xbfd141ce7ffac870	-0.269641518573855
86	0x3fe2907328a5378f	0.5801330369811114
87	0x3ff321bbbc7e5571	1.1957356799151422
88	0xbfd1b339034e18eb	-0.27656388590584297
89	0x3fea66b46ddbdc26	0.8250372071914895
90	0x3fd2090940d74c25	0.2818015225613542
91	0xbfe34d48bf28ae2b	-0.6031841023991026
92	0x3fec7e27166d4533	0.8903994977974093
93	0x3fe3e807ee71f6f2	0.6220740944988548
94	0x3ff13b5a0a009c2d	1.0769901648252571
95	0xbfeb3666546c7914	-0.8503905915165739
96	0xbfdbf635ea756e1a	-0.436902502978883
97	0x3fd89ea5fadb99bb	0.3846831273825974
98	0xbfcd5801588902f0	-0.22924820731170525
99	0xbfca5cfb7ee0fbb1	-0.20596259780174145
100	0xbfe0344e99949388	-0.5063851356140825
101	0x3fd8a3cba4489a5c	0.3849972824413379
102	0x4005e0c72a576ab6	2.7347548778464796
103	0x3fe3949f6fc18e8e	0.6118924315200773
104	0x3faa6751d183a4a7	0.0515695160154988
105	0xbfe38f0426e4b72d	-0.611208034480773
106	0xbfdcdd2c8711abf7	-0.45099938574156745
107	0x3ff040dc12c9687a	1.0158348783357085
108	0x3fe133cac15354b1	0.5375722671402824
109	0xbfe1bdf114938c24	-0.5544362451440787
110	0xbff85ac86a753ad3	-1.5221637876999707
111	0xbfe1a1d49da2aed4	-0.5510047034090015
112	0xc000ddfe364d45b1	-2.1083950273830045
113	0xbfe4bc1ec04558ae	-0.6479638819971762
114	0xbfefa59b4ce18b93	-0.9889656545241102
115	0xbfeded265061b78c	-0.9351989335971083
116	0xbfd8a58b7358cd3f	-0.38510404838890006
117	0xbff9611ac4c8a207	-1.5862071692337183
118	0xbfd5a23a035ba1f9	-0.33802652671741346
119	0xbfe589528231ce02	-0.6730129759657191
120	0xbfda5c8c40928d1f	-0.41189867311386935
121	0xbfd2bb997555b175	-0.2927001615378438
122	0xbffebb2470c957c4	-1.920689049312828
123	0x3fc3ba7d4cd9411b	0.15412870647788499
124	0xbfcdfb62df07aec1	-0.23423419847619267
125	0x3fec8b95998a292a	0.8920391081640322
126	0x3fc587230e060a3a	0.1681865519022539
127	0xbfe52b38dde860d9	-0.6615261396537121
128	0xbfe3c7dc2b324605	-0.6181469768218341
129	0x3ff6f19e18d741be	1.4339886637063581
130	0x3ff26c2ad736483d	1.151408043548613
131	0x3ff4af2133f28d21	1.2927562741468324
132	0xbfd54b7c450511f1	-0.3327322649022611
133	0x3fe89734eeefec18	0.7684578577749361
134	0x3fd481dc3a35d1a6	0.32042604145615383
135	0x3fc89f9b9c8ac9bb	0.1923708452573701
136	0xbfe39545e0da11a5	-0.6119717971455897
137	0x3fed59b2891d06e9	0.9171993902202448
138	0x3feb369b87df8b2f	0.850415959718111
139	0x3ff213785fa1d475	1.1297534690504822
140	0xbfa7183cdafe5dfe	-0.04510679410230621
141	0x3fe84233a91a891f	0.7580812743001707
142	0xbff253fefa1f31ea	-1.1455068369278885
143	0xbfd958c7fbf2b3a1	-0.396043773692151
144	0xbfe51e3ade6601cf	-0.659940180179598
145	0x3ff1b4d46ee76c48	1.1066479046046585
146	0x3f70e0c1b06cc191	0.004120594595221753
147	0x4007242c4897dff4	2.8926625892017857
148	0xbfc49902e3f8441a	-0.16091953402840958
149	0x3fef8ef37c111125	0.9862000868966204
150	0x3fd76cd08833f7f9	0.3660165147883841
151	0x3fd28ab33ae85276	0.28971558335005143
152	0x3ff229ef3ee75a53	1.1352379281212464
153	0xbfe58f622429ef7a	-0.6737528520893499
154	0x3fd094d42322b58a	0.25908378058633075
155	0xbff4111c0056dda2	-1.2541770947699225
156	0xbfd0217faff02197	-0.2520446031708387
157	0x3fd1d72ec3ad6225	0.2787587080870558
158	0xbfe6a130c7e85b71	-0.7071765808530995
159	0xbfe84a3e145d2a07	-0.7590628049595701
160	0x3fedab11cae02776	0.9271325075544457
161	0x3fda0afd21617b38	0.40692070255129265
162	0xbfecfafefde3a025	-0.9056391676686003
163	0x3fdee85e40bffed1	0.48293262789955543
164	0x3ff1fae3adfcac58	1.123752288471925
165	0x3fd49d956ed38e8f	0.32211814711465875
166	0xbfd83db5ce4bada4	-0.37876649042183375
167	0xbffa07c6797a57c9	-1.6268982644300982
168	0x3fc87cac724409a8	0.19130473689444938
169	0xbfe5c2cf9c3dc820	-0.6800306369389126
170	0x3fefc660a869c923	0.9929660119362648
171	0xbfe3c925ce7fc4d1	-0.6183041604218947
172	0xbfe673d41f1bc778	-0.7016392333591588
173	0xbfe80a949924977e	-0.751291560275362
174	0x3fd54a14232d8304	0.33264640269594303
175	0x3fdd94288e8602a8	0.46216787260349657
176	0x3fb4b4498e3f28ca	0.08087596628971308
177	0x3ff0b952cf0ab8cb	1.0452449882100605
178	0xbfbb66936dc1c3ea	-0.10703393392192564
179	0xbff05db200e01b9a	-1.0228748354145183
180	0xbff69dd0cb1c524a	-1.4135291990288743
181	0xbfd783d1c593a6ef	-0.3674206189594846
182	0xbff853f4084cd023	-1.5204963993283023
183	0xbfe1ae32d55def58	-0.5525144736597936
184	0xbfef0e859dd00daf	-0.9705226976661175
185	0xbff60aac76f18a76	-1.3776058813315593
186	0xbfd22508f8b72df7	-0.28351043976428464
187	0xbfd2079d2419781f	-0.2817147114309381
188	0xbfe10d471b177132	-0.5328708199627157
189	0xbff1aa017df04ba8	-1.104005329082364
190	0xbfdb1573b888d067	-0.4231843282789271
191	0xbfd1358f110fa36e	-0.26889397302743745
192	0xbfc046cffde908de	-0.12716102502788024
193	0x3fde3bc7630e7b9a	0.4723986117696143
194	0xbfdb2765b312b9fd	-0.4242796181451068
195	0x3fdfcfd8aa30f60f	0.4970609342597933
196	0x3fda695b5889de60	0.41268046995489804
197	0xc00219b8dc08ca43	-2.262559622781994
198	0x3fe57bde98dfc2e9	0.671370791036762
199	0xbfdf570f36a761b4	-0.48968868577278646
200	0xbfea351d4c6326be	-0.8189836971225402
201	0x3fd4d0bae63391c1	0.32523987274751326
202	0x3ff7fb31c243aaef	1.4988267506075166
203	0xbfd17b79b8ee5822	-0.2731613450972664
204	0xbfdac302e27433b4	-0.41815254320755035
205	0xbef175e300c4d792	-1.6651625672290853e-05
206	0xbfd9fc25fd8f16b4	-0.40601491700759174
207	0x3fe14c5695a8b024	0.5405686305070998
208	0xbfe27190c93ae071	-0.5763629846833408
209	0x3ff1895439b305bb	1.0960275892142437
210	0xbfd995daec05b6a5	-0.3997714333444072
211	0x3fe62748f8c88bf4	0.6922955378580569
212	0xbfded5a4aa88928f	-0.4817897477499082
213	0x3fed20adf2c935db	0.9102391950524934
214	0xbfd0c2d987cbc332	-0.2618926836139962
215	0x3fdba91f638ecc61	0.4321974251026344
216	0x3fd75ed981b1d688	0.3651641623067481
217	0xc0019f6992e38408	-2.202838084762792
218	0xbfc0eaa8cd2a9f5a	-0.13216123597998825
219	0xbfdf7b7a6f2edd75	-0.4919115148327003
220	0xbfd81c3630d27b4f	-0.37672190444748294
221	0x3fe478d69f988706	0.6397507779222174
222	0xbffed71375984d77	-1.9275087922622711
223	0x3feda1d63524c6a6	0.9260054624521288
224	0xbfcb8f834b2206b2	-0.2153171650752959
225	0x3fd21c484cda42d4	0.28297622208724005
226	0x3fe49dffa6533e98	0.6442869423426201
227	0xbfee1f4666dc7707	-0.9413177498824731
228	0xbff55d84473c5224	-1.3353312285081609
229	0xbfdd24867651c2e0	-0.45535432390810904
230	0x3feae726d060e01e	0.8407167501345645
231	0x3fb73d2af48a1371	0.09077709646414946
232	0x40045520611bcbdf	2.541565664921549
233	0x3fd5a4fbce87bbec	0.33819480103460253
234	0x3fb446419551f4f8	0.07919702430259068
235	0xbfd86a4107ce9e9e	-0.38148523104107734
236	0xbfc897babaa76f77	-0.19213041414229412
237	0x3fecadf7c6dd66c6	0.8962363132552233
238	0x3fdf8a2c84999ba1	0.4928084654733827
239	0xbfd6af0ff039ca68	-0.3544349523500956
240	0x3fd69daa2a8a6546	0.35337309030872566
241	0xbfcf1c8488addf3b	-0.2430577914599271
242	0x3ff6396421795e3f	1.3890115077573595
243	0xbfe98c84d0f38e4b	-0.7984031754571758
244	0x3fce60e6a904fbe5	0.23733218434242
245	0x3fca0d3c90a95b6e	0.20352894843628228
246	0xbfe02c81ff0e8b36	-0.5054330808237413
247	0xbff1da5b3b649100	-1.1158096618683544
248	0x3fb8e5cd27809996	0.09725649084484753
249	0xbfe87e4de301fd46	-0.7654179986711049
250	0x3fd7f96745d184e9	0.37459737604338145
251	0x3ffaa61248aaa451	1.6655447805917627
252	0xbfe266da83b11fdb	-0.5750553676707527
253	0xbfd28222f466e820	-0.2891929041612702
254	0xbfe5df7427f3cc6c	-0.6835270672148801
255	0x3ff0bc6978ba7877	1.0459990230515623

module.layer_1.bias f8 [512]
0	0x3fbdbd967e7ae02c	0.11617413127794468
1	0x3fb9179d6bf8c8c7	0.0980165852168141
2	0x3fe372a055d58bdb	0.6077424694489041
3	0xbfd20bc9b18224f5	-0.28196947417070756
4	0xbfe44c10b3a2d6de	-0.634285307742825
5	0x3f8f8e73c3110752	0.015408424749810887
6	0x3fd1dc7cf9feb2e5	0.27908253110471853
7	0xbfdd824fb8b8063d	-0.4610785774130795
8	0xbfd1e7e131cc616b	-0.2797778116523861
9	0xbfd342b24cea9d9c	-0.30094583045362255
10	0x3fe54a6df0386553	0.6653356258204134
11	0xbfb916d032c920bc	-0.0980043529499452
12	0x3fd29b5c7cc3fe84	0.29073249992504935
13	0x3f97c266e39d9fe8	0.023202521936951742
14	0xbfaa0285ab086716	-0.05080049240878119
15	0xbfc0a2f5b086676d	-0.12997313613305597
16	0xbff19e4632f8ef30	-1.1011411658391346
17	0xbfc6605a1e620b4a	-0.17481543048423936
18	0xbfebe9c672bfa661	-0.8722870103058079
19	0xbfc231848abd9984	-0.14213616156048314
20	0x3fdd94e80bdf3ec6	0.4622135272920612
21	0xbfe2b7862a08fcdf	-0.5849028416631902
22	0xbfed255421be5975	-0.9108067187360535
23	0xbfdde63e3de58657	-0.4671779255350876
24	0xbfe050d38a6d5593	-0.509866495480923
25	0xbfa53527336ca54a	-0.04142115118731711
26	0xbfc01f1e2894d2bf	-0.1259496400977209
27	0xbfe5a6f66bb60242	-0.6766311744432374
28	0x3fb7049d989135e5	0.08991417860780578
29	0x3feef9b1f79b4f37	0.9679803691928787
30	0xbfd09d29417635ca	-0.2595923556590064
31	0xbfed14baf267add5	-0.9087805494759161
32	0xbfd2756b48cbc25c	-0.28841669186571095
33	0xbfd33856c0eb1a7f	-0.3003136524170386
34	0xbfd48b919aec7654	-0.32101860169664076
35	0xbfc10e37ac29acc7	-0.13324638277422293
36	0xbfe1e4a93f489029	-0.559162734604347
37	0xbfca7961b9e1dc11	-0.20682927681238586
38	0x3fcdf3429172eb7c	0.23398620702741002
39	0xbfe51d724b5bc38a	-0.659844538864591
40	0xbfbad166db85a59b	-0.1047577176992917
41	0xbfd8fb4c176607e5	-0.39033796582236696
42	0x3fd87ce88701ab3c	0.3826237982199705
43	0xbfd55254d4193f6a	-0.333150107505381
44	0xbfe0a726212f1014	-0.5204039238092286
45	0xbfd44cab3d074b91	-0.31717949828924313
46	0x3fd3eef0118d2de5	0.31145860399257536
47	0xbfe4c7caf26e60a7	-0.6493887648566855
48	0xbfc54faf853e37a1	-0.1664943123436702
49	0xbfe1d86807651a2d	-0.5576667923385848
50	0xbfd111f5cdc930a1	-0.2667212018611825
51	0xbfd671f06745faeb	-0.35070428929604586
52	0x3fbdb44df72a847a	0.11603247913673612
53	0x3fd8fb218c69bbd5	0.3903278228016778
54	0xbfb2d8edd05b63bb	-0.07362257325020398
55	0xbfcd724eb5cee919	-0.23005088689189604
56	0xbfe446a92c1880a9	-0.6336255894894026
57	0xbfd2806a9e867488	-0.2890879200074967
58	0xbfde1119f93a97ec	-0.46979379023321033
59	0xbfcef00b6b08a749	-0.24170057989368335
60	0xbfcb848216b9ebb1	-0.21498132810287765
61	0xbfaa8e447b5d0a15	-0.05186666494275386
62	0xbfe6ffab56eb36e7	-0.718709630740446
63	0x3fe21fdb9dcb95e0	0.566388900941714
64	0xbfdf0be4c2ea536f	-0.48510092768383734
65	0x3fb09f7451053409	0.06493308046374592
66	0xbfc0b60486f2b89d	-0.1305547388960279
67	0xbfc9f426947250ef	-0.2027633881413133
68	0x3fda5f72fdf38226	0.4120757560722573
69	0xbfbbbe7e060a95bc	-0.10837543151372747
70	0x3fa7986b9ebc1dd6	0.04608475029641183
71	0xbfc1434fd6df3c50	-0.13486669532582818
72	0xbfe76dccac053816	-0.732153259255713
73	0xbfe3a63d072af0c2	-0.6140427722925994
74	0xbfe35523d709f847	-0.6041430664042843
75	0x3fd14d35a2357f27	0.2703374942848193
76	0xbfb479d8f43df88d	-0.07998424494687324
77	0xbfda6b0b99f95de6	-0.41278352772266513
78	0x3fbd9f701ec82666	0.11571408034810701
79	0xbfb1f07fd7268d7d	-0.07007597925853833
80	0xbff5f835c14ae17e	-1.3730981398094566
81	0x3fed65a75da1dfa3	0.9186589077717041
82	0x3fc3e5b0e8e821b3	0.15544711468124958
83	0xbfea738fca464b0a	-0.826606650416893
84	0xbfd58a1c8fba10b6	-0.33655466113874455
85	0x3fcc02cdec831488	0.2188355831951052
86	0x3fdd2f39b1e17c61	0.45600740786716726
87	0xbfe3b71bfbfe69d7	-0.6161022111658053
88	0xbfc0a9be3a0ef5d3	-0.13018014750370685
89	0xbfc6fb7b86d35b89	-0.1795496376350594
90	0x3f80d9cbbe4bf365	0.008227912659543877
91	0x3fccbdea6e886d6d	0.22454576871028156
92	0x3f9cb28ac8661e36	0.02802483413827713
93	0xbfc1168058316234	-0.13349918657583404
94	0x3fcaddbb10a1003a	0.2098916846462105
95	0xbfed5e729cc7e70c	-0.9177792608381607
96	0x3fe029b7e44815d2	0.5050925692200343
97	0x3fc24c572084cf37	0.14295472228843106
98	0xbfdfc937872982f6	-0.49665630530766636
99	0xbfdb745fc7a9bba4	-0.42897791384069195
100	0xbfca8274595a756b	-0.2071061550422358
101	0x3fd0d832eb98c151	0.2631957340954801
102	0xbfdc83f38a3057dd	-0.44555366988185857
103	0x3f9e04fdfb42f519	0.029315918408191786
104	0x3fb5da0de7f444bb	0.08535849488204665
105	0x3fddcf4df5fc34fd	0.46577786466589527
106	0xbfd398bd5e1b03e8	-0.30619749250405315
107	0xbfdfee646a8c3476	-0.4989253082756656
108	0xbfd0043c1003a8c6	-0.25025846065421964
109	0xbfd4dc4585f6e992	-0.32594431002112245
110	0xbfe579b3167bd617	-0.6711059035430392
111	0xbf76427d89f471fa	-0.005434503923677609
112	0xbfe038e5aa58edd4	-0.5069454505059476
113	0xbfd57f566d9354d8	-0.33589707089170195
114	0x3ff01b32cd3d1e7f	1.0066402451647318
115	0xbfcb3763c42c21f1	-0.21262785986642954
116	0x3f6a4d912a7bf12e	0.0032108149788411455
117	0xbfb6f49f077820f0	-0.08967012340884017
118	0x3fd896b7fa73afc1	0.3841991372889844
119	0xbfd8484ae9578e68	-0.37941239154154127
120	0xbfe6e23a728d0509	-0.7151157605477759
121	0xbfdccd28926319a6	-0.45002188010803434
122	0xbfa22ce71421b52e	-0.035498830039481497
123	0xbfea139da6a41336	-0.8148945097642357
124	0xbfca74dd4ed23d46	-0.20669142101949428
125	0x3fdddb5a487df594	0.46651322440433174
126	0x3fc45de6b3cef991	0.1591156366320772
127	0xbfe0d795de451929	-0.5263165799340516
128	0xbfe173020769423c	-0.5452890534161905
129	0xbfd4f7b47df4f5fd	-0.32761871624447264
130	0xbfb4495e32683b15	-0.07924450617450092
131	0xbfd4db4518bf9fb5	-0.3258831731495733
132	0xbff150b8b1deac8f	-1.0822073886909356
133	0x3fc2ee82b2edc604	0.14790376412160822
134	0xbfdc2904863598ab	-0.4400035200727738
135	0xbfe7f5bb92808977	-0.7487466679925053
136	0x3fd2069d1683fd47	0.2816536636236901
137	0xbfe089a0ae5ee941	-0.516800251548638
138	0x3fd0cde0e9765a27	0.2625658302216913
139	0xbfd2638a0bc34bb2	-0.2873253931876959
140	0xbfde461971119762	-0.4730285267054254
141	0xbfd07c0dd712cea2	-0.2575716591193019
142	0xbfc1b1ae2fa3e81a	-0.1382348759287318
143	0x3fd5fc6aa70f081c	0.34353128732993965
144	0x3fe6c1401751b429	0.7110901313259365
145	0x3fd321ac693cad07	0.2989302661614634
146	0xbfeb7906964bca4b	-0.8585236487836679
147	0x3fde0481b12cfd84	0.46902506162947355
148	0xbfe8c2220aba2d6c	-0.7736978730694495
149	0x3fbbcfa3675a5f1b	0.10863705895678459
150	0xbfe635576ba77235	-0.6940114119166255
151	0xbfe4dd78364ab2cc	-0.652034860647825
152	0xbfd53f9dcc51488a	-0.3320078368461813
153	0xbfe72c26ce7f5e00	-0.7241395981936307
154	0x3fdee01095313489	0.4824258286433368
155	0xbfdbd0553b728557	-0.43459063344388
156	0x3fc01f55c4342417	0.125956269075943
157	0xbfdb80feb4a69e2b	-0.4297482265633074
158	0xbfdd0b4eaafaf451	-0.45381514260572425
159	0xbfe101b003f0becb	-0.5314560009919317
160	0xbfc7c28cfb0c7b13	-0.1856247163604726
161	0xbfd878e3b51cd843	-0.38237850844177873
162	0x3fa73e9febab8620	0.045399663465797824
163	0xbfd3c077c19e0bf8	-0.3086223021311407
164	0xbfd3b6af4b958cc1	-0.30802519208209495
165	0x3fdddc9b233711be	0.4665897220513918
166	0xbfa3ccab5cddd9c2	-0.038670878492598884
167	0xbfe2fee79abd9b52	-0.5936162969854684
168	0xbfb5639192271bbd	-0.08355054681952274
169	0xbfe0dfe4ba142648	-0.5273307451581752
170	0x3fe0f2f8028f1060	0.529659276006452
171	0xbfe328187f50f4c9	-0.5986444937367646
172	0xbfd74304a5734bdd	-0.36346546323073686
173	0xbfca495e4e5e5dd0	-0.20536402536957477
174	0xbfbe01bbade077c1	-0.11721394534148911
175	0x3fafa56a814cd4e3	0.06180889919634482
176	0xbfe33da118f58ae9	-0.601273106335012
177	0xbfe59d0621245254	-0.6754179618170135
178	0xbf9c8d22860ab670	-0.027882136756196052
179	0x3fea7a2cd837548a	0.8274139616938936
180	0xbfe0daa40e17eb88	-0.5266895556700186
181	0x3fcca8d3147dfd0c	0.22390211582749264
182	0x3fe3aa000071ce8b	0.6145019539530535
183	0x3fdab38f93adce76	0.4172095243622843
184	0xbfe4f467527f2a34	-0.6548344241394433
185	0xbfed04d77044c7aa	-0.9068410103557103
186	0xbfe9ed04db37fa98	-0.8101829797377205
187	0xbfe61f300e8ae695	-0.6913070949587615
188	0xbfe2598b65d10032	-0.573430727825331
189	0x3fc7c3de5f4b77a3	0.18566493657175184
190	0xbfc1794dde8944a2	-0.1365144096949154
191	0x3fe10dbac645a794	0.5329259750844693
192	0x3fcdc79dbbe3b954	0.23265430139822263
193	0xbfd753a68fe2f7f0	-0.36448062945771564
194	0xbff0d83e0bf8bef3	-1.0527935474055397
195	0x3fc215e66f1e8341	0.14129333902112687
196	0xbfe8dcc9edd533a5	-0.776951756016946
197	0x3fc6d8644cc1b445	0.17847875354655876
198	0xbfcb963ad2194f5c	-0.2155221486924529
199	0x3fcecd6be9e7ea24	0.2406439678305371
200	0xbfcdef7300850473	-0.23386991048213054
201	0xbfd69f3e9c917c61	-0.3534695176112504
202	0xbfc32328b7fe6ff0	-0.14951046928479128
203	0x3fe0eea3b1557b4e	0.5291307891419395
204	0xbf95ea5cf383b257	-0.021401836741392035
205	0xbfe88b38e27739b1	-0.7669948981436417
206	0xbfef4cf6b6f9f611	-0.9781449865110422
207	0xbfc0b2247bdbb88d	-0.13043647811668216
208	0x3fe2120e96391368	0.5647042211572684
209	0xbfdbc85991283b2b	-0.43410338569167334
210	0xbfe2f75cdb408e76	-0.5926956445950526
211	0xbfc6700018fe15af	-0.17529298038804828
212	0xbfd345c2bfcb8ab3	-0.3011328576086882
213	0xbfd99b272b57329f	-0.4000947879074292
214	0xbfe15bc9215df5aa	-0.542454304857235
215	0x3fc379496eb56872	0.15213888078398302
216	0x3fd25583ea292be2	0.2864694391943755
217	0x3fd91836fcaf7274	0.39210295368483306
218	0x3fd5696ea53584fe	0.3345600713128788
219	0xbfd7af13b9a7060a	-0.3700608551990575
220	0xbfc6f9f1091c5bba	-0.17950261063444178
221	0xbfd0e8a3012ebfdd	-0.2641990195797897
222	0xbfdd52fc3e98e15e	-0.45819002259260866
223	0xbf7c2e041f0130b3	-0.00687982187089291
224	0xbff62fabe2fb9263	-1.3866385332595648
225	0x3fd7066bc56ae711	0.35976690558492047
226	0xbfd43f687210afae	-0.3163701166074543
227	0xbfe6ed43604ac216	-0.716462791509971
228	0xbfddb9cb1b577ff9	-0.4644649283418399
229	0x3f153581f4e45858	8.090596859164475e-05
230	0xbfb103a667ec6eaf	-0.06646194493481049
231	0x3fc2947b501aacc5	0.14515630160653906
232	0x3fcb4583ca7f50d1	0.21305892360272208
233	0xbfd4fe0cefc999b1	-0.3280060140299624
234	0xbfd9c1e8d1e42344	-0.40246029374298
235	0x3fc241f5d28bc3d8	0.14263794689716636
236	0x3fdaabeea1fdc87b	0.4167439062067683
237	0x3fd26a19af70053b	0.28772585041595605
238	0x3fd05b5db57521be	0.2555765411421155
239	0x3fc0eff4e040f811	0.1323228926648317
240	0xbf8e301d2de8e513	-0.014740207637361757
241	0xbfe32df24d5deaec	-0.5993587027618026
242	0xbfe4fb552f42fd3f	-0.6556802676276802
243	0xbfe680b91222ae9e	-0.7032132486542257
244	0x3fe47b5416e5d497	0.6400547454092188
245	0x3fda7467380438d5	0.4133546874080712
246	0xbfee7f53fbf1d74d	-0.9530429764551883
247	0xbfdbdaa1cf0d9c13	-0.43521924228701997
248	0x3fe19af435f1761b	0.550165276868657
249	0xbfc946b2043cf50b	-0.1974699516958157
250	0x3fd026bd1d614c9b	0.25236442441127743
251	0x3fe75c2d146d3345	0.7300019644695587
252	0x3fe4ce06ccc1f8fb	0.6501497267888959
253	0xbfc35913f3955ad6	-0.15115594285699413
254	0xbfe37abbdb22ce6b	-0.608732154846121
255	0x3fe0dff2a86a0918	0.5273373879756802

module.layer_2.weight f8 [128, 512]
0	0x3fce16e08a37cd0e	0.23507315396236844
1	0xbfc0d7cce8c5a2d1	-0.1315857063848598
2	0x3fdec5fd1b9735f4	0.48083427137757373
3	0xbfc17ce6d5f93a76	-0.13662419746329463
4	0xbfd580bf2f55a484	-0.3359830820323355
5	0x3fd6274000811be8	0.34614563035250834
6	0x3f9db4d684779924	0.029010154566912708
7	0xbfd0085c379a8310	-0.2505102675441302
8	0x3fbad725b437d986	0.10484538698060505
9	0xbfca65b684dd6a89	-0.2062290333513668
10	0x3fdc5ed35bc2808e	0.4432876964656395
11	0xbfc544a3b167c0d4	-0.16615720903747067
12	0x3fdab6a6bb72e75c	0.4173981504969697
13	0x3fd477f34f2a0f12	0.31982119303596435
14	0xbfce630b624ef2cd	-0.2373975973149726
15	0x3fcb0976a74e7ad6	0.21122630280748095
16	0x3fc16f2e9fd7bee2	0.13620550923177804
17	0x3fc58826a005d7ab	0.16821749509443626
18	0x3fd1fef511e1b7e0	0.2811863588930219
19	0x3f7ea7aa9b070f96	0.007484117916138807
20	0x3fd29577a582cb43	0.29037276423621367
21	0x3fb767ff6a966fc1	0.09143062927472469
22	0xbfdff12b16dd2394	-0.4990947459487469
23	0xbfd6630faa01f176	-0.34979621507934355
24	0xbfc5c980200bc96c	-0.17021180691478877
25	0x3fccd68f8efb7218	0.22529787522843558
26	0x3fbc976cf98a77d3	0.11168557255083948
27	0x3fd16bdd05bc2a56	0.27220845756588596
28	0xbfcc801ad5a165a8	-0.22265944892096212
29	0x3fe0f5c21060dafc	0.5299997634782296
30	0x3fc1b286c13a9033	0.13826069293020424
31	0xbfbfe0a1208968ae	-0.1245213226733621
32	0x3fbc8576b48f51dd	0.11141149433326043
33	0xbfd0ba12341ad139	-0.2613568791232584
34	0x3fb84d206d5a019a	0.09492685956684568
35	0xbf94d9b971ad5b98	-0.020361802638344167
36	0xbfdd39a90168873f	-0.4566442979577125
37	0xbfcc2313043836f6	-0.21982038217577554
38	0xbfb33094b5949ea5	-0.0749600356399421
39	0xbfd242e073b08dc1	-0.28533183381861354
40	0x3f7ff4895270dfcf	0.007801567472647221
41	0x3fca49587c99f614	0.20536333164265896
42	0xbfc58616876d131d	-0.16815454113579956
43	0xbfd3f976f45274ed	-0.31210111484126807
44	0xbfced1ff43200308	-0.2407836034544959
45	0xbfb8d622d57f7304	-0.0970174571261389
46	0x3fd9d90d19608ad8	0.40387275198206174
47	0x3fbab2188fdefad4	0.1042800284621806
48	0x3fc7fd2842c0f62e	0.18741324672184717
49	0xbfc30f529017d463	-0.1489051059321894
50	0xbfc0e68bf5a1aaa7	-0.1320357274410828
51	0xbf825b9c2caab10b	-0.008963794816132983
52	0x3fb2a47041602b98	0.07282163234792305
53	0x3fdb70d59f2f4794	0.4287618689096402
54	0x3fc5f8e2a04b35d8	0.17165787531705123
55	0x3fa9c629541e04df	0.0503399768049435
56	0xbfa7aaadf02dad30	-0.04622405583253408
57	0xbf92571a60b75373	-0.017910396721919363
58	0xbfcad5e549fd097e	-0.20965257752147787
59	0x3fd0893040b44940	0.2583733207585688
60	0x3fd1bfcaacea50ff	0.2773310364366494
61	0xbfb602302df0d258	-0.0859708892974792
62	0x3fc5f883b30c4671	0.17164655916762997
63	0xbfc72583cdac4a2e	-0.1808323625815133
64	0xbfb378e27ad97296	-0.0760633039403252
65	0x3fce43a89f592d3e	0.23643977909737574
66	0x3fc455087fcb3c47	0.15884500732360804
67	0xbfccea070fcad85e	-0.2258919551001694
68	0x3fd7ff2a0f3b4f82	0.3749489926096815
69	0x3fb9488a4bfe19d8	0.09876312594688075
70	0x3f95959b85d2fb0a	0.021078519862153512
71	0xbfcb0becf64c5e48	-0.21130144144329877
72	0x3fa0d97285968ad0	0.03290899162972993
73	0x3faa0476ee95d834	0.05081531202715475
74	0xbfbf1572e4a07ac5	-0.12142103273115896
75	0xbfcc11768c8e464b	-0.21928293097566817
76	0xbfc767ee2fd22b04	-0.182859204626162
77	0xbfd450da2b972684	-0.317434828346997
78	0x3fc1761beb23d16e	0.1364169023651231
79	0x3f985131505427b2	0.023747225311161642
80	0xbfe20633e95cd4b3	-0.5632571752418215
81	0x3fe31a02f7d63ad8	0.5969252434313956
82	0x3fd1f8d9f22be267	0.28081368112137856
83	0xbfa5219298917143	-0.04127176391986833
84	0xbfbbd6e101e638a6	-0.10874754234666514
85	0xbfc72d1569f1913a	-0.18106334374454908
86	0x3fcd6cf6819916dc	0.22988778427150336
87	0x3fba45981fffef5b	0.10262442380183982
88	0x3fc297172b07c455	0.14523591614809797
89	0x3f9d24fe837f835a	0.028461434150702437
90	0xbfb3df586f30ca13	-0.07762673105825284
91	0x3fb23f841ede85ee	0.0712816787113508
92	0x3fd7a85aa4afb4d6	0.3696505172982375
93	0x3fc253f92267fd7b	0.1431876581191139
94	0x3fdef5c844a2bd1d	0.4837513609190454
95	0x3fb7828468ce6fe9	0.09183528479337578
96	0x3fd0806b333757d4	0.2578380584867521
97	0x3fd24158047e868d	0.28523827017679865
98	0xbfd053c1a3c2ddca	-0.25511208526901596
99	0xbfd1e71d33ea215d	-0.2797310835817564
100	0xbfd02f77f4f932ff	-0.2528972523039527
101	0x3fd436759435c5d7	0.3158239314426203
102	0xbfd444fe3bc78999	-0.31671100461803686
103	0x3fd11790d931ba37	0.26706334314704655
104	0x3fd3eca4dcd25677	0.31131860317814336
105	0x3fd7f1847ade58cb	0.37411605833893863
106	0xbfcf2e7c0c505d99	-0.24360609627977395
107	0x3fbf5dac60bad661	0.1225230919033833
108	0xbfa1337eb5ed719f	-0.033596000392864804
109	0x3fa7f9ce0a2b6368	0.04682773470057705
110	0xbfb84a65e6c3adfe	-0.09488522418876497
111	0xbfd10d88196d1fc3	-0.26645090563806323
112	0xbfd9895519ec8954	-0.39900710612905255
113	0xbfc5be23aa06b2be	-0.1698650913434871
114	0x3fe304ccb77ad95d	0.5943358977881804
115	0x3fc267bd442a751e	0.14379087284479736
116	0xbf7daf9b00af2ee9	-0.00724754856032537
117	0x3fcf4340f90e0ff4	0.244239923104146
118	0xbf8b27d45014c5ff	-0.013259562200434337
119	0x3fb7292fff933624	0.09047222127556914
120	0xbfb85f504bdd96c7	-0.0952043709963518
121	0x3f787f34619ab5b4	0.005980686773609124
122	0x3fd2c499720a811e	0.2932494748765907
123	0x3faace58b2a6504f	0.05235554867536562
124	0xbfc297c6b52d334f	-0.14525684210311815
125	0x3fd760ef0a1aa1d3	0.36529136645051813
126	0x3fce971be7183ab2	0.23898648055952304
127	0xbfd4004e54134926	-0.3125186749504273
128	0x3fc1fe3ba0fba8c6	0.140571073155405
129	0x3faedf8d6dfee1ba	0.06029931991310229
130	0x3fc149772bc608b2	0.13505448949223858
131	0x3fbc9ca7503ccada	0.11176534375116934
132	0x3fd04deb82c743d3	0.2547558571941952
133	0x3fb702c046c39cbd	0.08988572814597524
134	0xbfc4e4f5be0fe583	-0.16323730259300015
135	0xbfdda2a4ba13de84	-0.46305196925775527
136	0x3fb44fdb9ba925b1	0.07934353399573159
137	0xbfc1d5c4106bb77e	-0.1393361168078932
138	0x3fa0ed6ce6c30791	0.033061412018937315
139	0xbfa61430e252628a	-0.043122794749426666
140	0xbfd55200010e018b	-0.3331298837947762
141	0xbfc01ed752e0fa40	-0.12594119593446074
142	0x3fd3a23be2893c3d	0.306776972986828
143	0x3fba0bef7475ea4e	0.10174461930538678
144	0x3fdb14ad679e77b1	0.4231370460419113
145	0x3fd2787573e0d37e	0.2886022216437637
146	0x3faf49148392ee63	0.061104432164452736
147	0x3fb1e47e2b5754f4	0.06989277418263723
148	0xbf799b77f65d6f43	-0.006251782038670775
149	0xbfb317285c96759d	-0.07457210789148978
150	0x3fd2ce06bbbb16eb	0.2938248475369238
151	0x3f6fd561c0cd59ac	0.003885928081597009
152	0xbfc6f8b5eeaa5eef	-0.1794650473936978
153	0x3f934e4bcbd93ffc	0.01885336333936037
154	0x3fd592a50810a8ae	0.3370754793892371
155	0xbfc2c5aca8b7a292	-0.1466575454535542
156	0x3fb1cdc6b5d07b35	0.06954614580943715
157	0xbfacb6a6b6bfe8d1	-0.05608101826506274
158	0xbfd20bb149b30955	-0.28196365544512975
159	0xbfd412b8bc2d87ff	-0.3136426770853404
160	0x3f9074247326f074	0.01606804802735025
161	0xbfb6eef99c2260a9	-0.08958396970627071
162	0x3fc61c0540425ad3	0.1727301181569688
163	0x3fc887b11d98a7f9	0.19164098687298273
164	0x3fc683bea3701d3a	0.17589552860611396
165	0x3fdd178f547eacaa	0.4545629811424968
166	0x3f8c5c6fef04f107	0.013848185045042273
167	0xbfcb1c5710708bdd	-0.21180237105099212
168	0xbfb6ac26e7ca8dc4	-0.08856433066335173
169	0xbfcdfc033595e755	-0.23425331226809
170	0x3fce6b96175ec596	0.23765827313540616
171	0x3fc75621ad8ccf32	0.1823160264408386
172	0x3fbfeb4fb6d1527d	0.12468431676217935
173	0xbfb37708affda120	-0.07603506371163293
174	0x3fa0c4b42b84c99d	0.03275073081239841
175	0x3fcec15e7b438110	0.24027615565047045
176	0xbfbe4ba780d38963	-0.11834189315007886
177	0x3fac3915daefb366	0.05512302682459484
178	0xbf839b2ea6251140	-0.009573330350243325
179	0x3fe1431ffc792881	0.539443963157524
180	0x3fc579c3647eb9b3	0.16777841956122827
181	0x3fd108883547cd9f	0.2661457557980728
182	0x3fd590f4d99478f4	0.3369724392704392
183	0xbfc2b865e7f54074	-0.14625238252711237
184	0x3fa99ca885265ac8	0.050023332837715595
185	0xbfd9436af483bc90	-0.39473985556009783
186	0xbfce602e0aa39f6d	-0.23731017608156027
187	0xbfdb4ed09c7ae4f8	-0.426685478985362
188	0xbfccde641c70e61a	-0.2255368365165829
189	0x3fd58db913b78fe9	0.3367750828313079
190	0x3fd5ee7d0c2696bc	0.34268118082614385
191	0x3fdd81f9381837ba	0.4610579536246139
192	0xbfc7da3546fadf61	-0.18634668317622086
193	0x3f81210541a4a8ff	0.008363762918254468
194	0x3fa26fbd4c172105	0.03600875428998233
195	0xbfb7e3cd9d27aa18	-0.0933197506598521
196	0x3fc2927e3d3b3786	0.14509561528978682
197	0xbfc169a7309432f7	-0.13603677627579433
198	0x3fae9c86389e62f6	0.059787935649358845
199	0xbfb0211cf49bcb1d	-0.06300526592148654
200	0xbfcd21893738f879	-0.22758593746579317
201	0xbfc027355e37d5da	-0.12619654751294612
202	0xbfa617e4d02aa229	-0.04315104523749753
203	0x3fcc4ae5a32ce6a5	0.22103567569302132
204	0x3f3f1b52b51ff945	0.0004746510431913496
205	0x3fc4d3df768bb6d5	0.16271584785811535
206	0x3fd2ee5ec732fab9	0.2957989640525898
207	0x3fc1f90077edddb0	0.14041143279949386
208	0xbfacb6b582879e50	-0.05608145922070362
209	0xbfcca08e57fd1d35	-0.22364978119206005
210	0xbfd3f6bf22e276ab	-0.3119352188749455
211	0xbfc670c23909a342	-0.17531612191239715
212	0xbfb22eced71eb974	-0.07102673294023082
213	0x3fd0b1ed542a8133	0.2608598062452245
214	0x3fccfca6ad19b487	0.2264602990357256
215	0xbfa6fd6b7f50aef5	-0.04490219048633818
216	0x3fc0a2b025fd61e8	0.12996484618157855
217	0x3fcf360366595e66	0.24383585450663076
218	0xbfd1e611fef8a745	-0.27966737651387447
219	0x3fb81542de46bccf	0.09407442022960598
220	0x3fc8bd503efc3545	0.1932773883385527
221	0x3fd24f1fc5cd7af4	0.28607935253778227
222	0xbfd6178284be3c4c	-0.3451849266356859
223	0xbfbed6355a41bc9e	-0.12045606092009328
224	0xbfe2a72fa9245718	-0.5829084685853756
225	0x3fd1eae2a3765bfc	0.2799612613975453
226	0x3fb3e252d736c6a0	0.07767217401740334
227	0xbf8d3a77137e4932	-0.014271669657123984
228	0xbfc83e7c48f0cef6	-0.18940690576129499
229	0x3fd345265c3c7389	0.3010955715888533
230	0x3fc4c3eac88f3ed9	0.1622289161009494
231	0x3fd47be0c1b33781	0.3200609103777126
232	0xbfb6a8352b0ffbbe	-0.08850414563492756
233	0xbfcdaee689683b4e	-0.23190004071553932
234	0xbf813d33294c63de	-0.008417510698153604
235	0x3fd2e91001a12fb2	0.2954750076212306
236	0x3fc8c8719a24cc37	0.19361705805349214
237	0xbfbcf2fbb457075a	-0.11308262970763164
238	0xbfd3d8a4a4defa7b	-0.31009784794506573
239	0xbfc48692913887a0	-0.16035682764873815
240	0x3fc385303eded858	0.1525020892128761
241	0xbfcd27ec1be1e9ec	-0.22778083192299847
242	0xbfd6d7a67de762b2	-0.35691225333497834
243	0xbfd33436a91639a7	-0.3000618602026414
244	0xbfb578840e368e2c	-0.08387017580985717
245	0x3fb74f5b38c29513	0.0910546315740997
246	0x3fc371c6b000fdb3	0.15190967172564526
247	0xbfce3f7db1eec8c9	-0.23631259143946284
248	0x3fa94551101d502b	0.04935696908674488
249	0x3fd27e9572af7104	0.288976060864812
250	0x3fc08f6b243e2413	0.12937678594269694
251	0x3fdb6c2749c3da82	0.42847616389864396
252	0x3fd96dbf453032d2	0.39732343441646123
253	0xbfd6c3dee6152705	-0.35570499867445476
254	0xbfd7ca3e7fdca5c8	-0.3717190025950825
255	0x3fd904973b8ecb95	0.3909051972979623

module.layer_2.bias f8 [128]
0	0x3fbb8a954d7ad7b8	0.10758336202238084
1	0x3fb7fe0c68a33830	0.0937202220404465
2	0x3f1542ee13c40e1d	8.110597713444812e-05
3	0x3fb710a7f50e41b0	0.09009790165715148
4	0x3face5af01c5bdc9	0.05643984696041177
5	0xbfaa81232363b670	-0.051766489095695145
6	0xbfaaafd7e2872e03	-0.05212282791361746
7	0x3fbf4e597b37cc57	0.12228926904917735
8	0x3f99d19b1db28f96	0.025213645637122882
9	0x3f9456d602fcb288	0.01986250298721129
10	0xbfa3b197414b3120	-0.038464285583901026
11	0xbfac0e17d76c489f	-0.054795022055388325
12	0xbfb2bed8a09e79aa	-0.07322458192218187
13	0xbfa421ae73646fab	-0.039319469057061816
14	0xbf9f9c566619024f	-0.030869817716167976
15	0x3fa0718b9184ba2f	0.03211628104542218
16	0x3f68b67a4b883694	0.003016699655069408
17	0xbfa8e5c5656e1553	-0.04862801421317422
18	0xbf8dc7e7deaebe4c	-0.014541446192963957
19	0x3fac20f7a69b8cbf	0.05493902119430904
20	0xbfa41c0dd1015158	-0.039276534808467545
21	0x3fc5f19eef5b07cc	0.17143618285450513
22	0x3f98551615cab62d	0.023762078361576556
23	0xbf42ea94423b8413	-0.000577280418351591
24	0xbfb0f396e255d20a	-0.06621687913668253
25	0x3f730727eba3b266	0.004645496310541652
26	0x3f8419584302f3a5	0.009813966317205056
27	0xbf7e7ec0127b48d3	-0.007445097238546877
28	0x3fb4d8c85c1a2026	0.08143284081063537
29	0xbf925b1ea4e382d1	-0.017925719083794093
30	0xbfa9f22695a823e2	-0.05067558838715748
31	0x3fc79d9ded70502f	0.18449758619010612
32	0x3f7da121bb6df1ae	0.0072337453519789995
33	0x3fa30e9e2034e395	0.03722089903971618
34	0xbf8401b70af5e1cb	-0.009768896123873902
35	0xbf9f31919aba819f	-0.030462527340775144
36	0x3fa35fd3b80da79f	0.03784047719712124
37	0x3f91cb1246745630	0.017376218366811524
38	0xbfa3c66782674b68	-0.038623079937358196
39	0x3f9cb7d6c7f32591	0.02804504008671455
40	0xbfa83096ffa1bc2b	-0.0472457110453138
41	0xbf9aea4a2729ef4e	-0.026284369125718236
42	0x3f8243af52c0a601	0.00891816111841859
43	0xbf9fc6aa8c8c6d28	-0.031031288936998497
44	0x3f687c8fdb5bda6e	0.002989083261918871
45	0x3fb5965502e46d6d	0.08432513542759575
46	0x3f99148f91915c87	0.024492495784525416
47	0xbfb5a92004e0888e	-0.08461189383572984
48	0xbf936a4c842abcb6	-0.018960185591535526
49	0x3fb1bdd3c98a9f0b	0.06930278463789478
50	0xbf94828f1495a986	-0.020029292708764433
51	0x3fb0aaaa4a52270b	0.06510414423442172
52	0xbfc9a4a41b5f21b6	-0.2003369458818846
53	0x3fb2939420643b9e	0.07256437102135613
54	0xbfa4bf1c4547af3c	-0.04052055688575115
55	0xbfa7ad04509eccfa	-0.04624188884863574
56	0x3fb7b0a62ab62555	0.09253920119058041
57	0xbfa75eda1ad95b12	-0.045645538117858334
58	0xbfa482ea83c85d26	-0.040061310374023315
59	0xbf9a5443c92f76a8	-0.025712069658644282
60	0x3fb57c2db8225e0b	0.08392606492486025
61	0x3fb6b0570cb4dc35	0.08862823543755456
62	0x3fc6ecb54752e398	0.17909875853163437
63	0xbfcca55cfa7e81d5	-0.22379648429070068
64	0x3f904c369dd90bdf	0.015915730842845362
65	0xbfa868518a3e5e33	-0.04767088711303948
66	0x3fa0ef310478d706	0.033074886127378675
67	0x3f9f848eca063b3b	0.03077910526331638
68	0xbfad1ee243bcc1d2	-0.05687625004646048
69	0xbfada64cb35bc430	-0.05790939034876208
70	0x3fc1a216064014d3	0.13775897317115113
71	0x3fa976eedb6ca46f	0.04973551205177606
72	0xbfb3797585b8ab0b	-0.07607206835443152
73	0x3f96b92df4344d54	0.022190778760955723
74	0x3faf48e41ecc285c	0.0611029899210542
75	0x3fc6d8e6d2919910	0.17849431306530805
76	0xbf7eef22076241ce	-0.007552273678939915
77	0xbfc1db07e929ba1e	-0.1394967926493828
78	0xbfb80f1d29a15e0f	-0.09398062006345519
79	0xbf9a214dcd932216	-0.025517669365202243
80	0x3f7740e9cd55b8e4	0.005677140511904908
81	0x3fb511ce0481e56b	0.08230292902034868
82	0xbfb19cc0c2031250	-0.06879811035748529
83	0x3fa3225944d1ab26	0.037371434832343106
84	0xbfc185666cbbb432	-0.1368835478710096
85	0x3f99e7726fc7d6e5	0.02529696280722406
86	0x3f7339ccbb6bee05	0.004693793997599287
87	0xbfc99ec42e598eab	-0.20015766394782494
88	0x3fa97b285142cc1b	0.049767742080256215
89	0xbfb2b56a49ceb2ca	-0.07308067609728677
90	0x3f8a476cb83c7239	0.012831544277610895
91	0xbfa2f6f40fbe3240	-0.037040354654071184
92	0xbfa3faa6a28e4c64	-0.039021689742320814
93	0x3f31ba536e8e7b77	0.0002705053034847619
94	0x3faf0f1ec7e11795	0.06066223325664947
95	0x3fa4aac988155cbe	0.04036550317931063
96	0x3fc8bd69020b0f65	0.19328034019246867
97	0x3f8db51523707159	0.014505543846148926
98	0xbfb55dbfad14f4a1	-0.08346174216872494
99	0x3fc26ea908a22de1	0.14400208398397665
100	0xbf9efcd61d13750c	-0.030261369251879208
101	0xbfc147c4325cc1b9	-0.13500263651941483
102	0xbf8a2b0127a09e5d	-0.012777337095101144
103	0xbfc97458100f78b3	-0.19886303695870353
104	0x3f944439f72940aa	0.01979151316692255
105	0x3f98b99d67ebf128	0.024145564525484137
106	0x3f73051873468631	0.004643531331028281
107	0x3faa9eab9a193bd6	0.05199180847250033
108	0xbfa4da295a5bae69	-0.040726940422101184
109	0x3fac696ddd634435	0.05549186065184878
110	0x3f876944b8fe4c96	0.011431252379941175
111	0x3fc160fddb325220	0.13577244952161127
112	0x3fb5b7117fabe346	0.08482465140322146
113	0xbfb29c827ff2410e	-0.07270064948739138
114	0xbfb2103af7640911	-0.07056015529454764
115	0xbf90094ade1aa7a7	-0.015660447889480313
116	0x3fb17f6ffe1695cf	0.06835079148603217
117	0x3fafe5591704d795	0.0622966614341031
118	0x3fa030696713c144	0.031619352181112365
119	0xbfacaf4b50051448	-0.05602488853268334
120	0xbfc3c28b4faf1c8e	-0.1543745173532653
121	0x3fbba928d728c751	0.1080499196330298
122	0x3facb231a159202b	0.05604701132375597
123	0xbf91f2fc79f1da0e	-0.017528481429019797
124	0xbfb11d98abb1d69f	-0.06685785476460147
125	0xbf6391ccfb1468e7	-0.002388859131895338
126	0x3f8c35b575fc5f67	0.01377431646646672
127	0x3f948687a9f02618	0.02004444098205313

module.layer_3.weight f8 [64, 128]
0	0x3fd25c846df53ccd	0.2868968080337709
1	0x3fe35acf2218015d	0.6048350969213449
2	0x3fd477a71c06c5f5	0.31980302559813306
3	0x3fd38d5070369b75	0.3055001350243665
4	0xbfd3d1589030349e	-0.3096524627770324
5	0xbfdaa79bc5b4709d	-0.41648001010049446
6	0xbfc68856d7e6bbf7	-0.17603574316078127
7	0xbfb5b7a12b1f4a3b	-0.08483321478642207
8	0xbfc16f9555be27bf	-0.1362177532831179
9	0x3fb38118b56cf1e6	0.07618860654196843
10	0x400845faf4c93543	3.034170067205794
11	0x3fe149da8257964d	0.5402653260941378
12	0xbfb252cf1d34eb2f	-0.07157606566481144
13	0x3fe0ef9fcabf4f75	0.5292509994419407
14	0x3f6801f78bf06b95	0.002930625428701326
15	0x3fa2a41615d0ff37	0.03640812889398009
16	0xbfd8883b88a2c9a8	-0.3833149751982554
17	0x3fd858860b6003bc	0.38040305243344696
18	0xbfd4c4d58834ebf4	-0.3245138006347468
19	0x3fe3dee52a40fe66	0.6209588837882165
20	0xbfd30269da36b36c	-0.2970223074906275
21	0x3ff04fc80b4bc9c8	1.0194778863193381
22	0xbfa7805c76cf09f4	-0.045901193144818025
23	0x3fb059cbfb3dce4c	0.06387019046615555
24	0xbfcec67f4193be2b	-0.2404326505852493
25	0xbf9c1390dfc79db5	-0.027418388040954606
26	0xbf88bf1dc59c3461	-0.012083275406917506
27	0xbfcf4fee6a256b26	-0.24462680991094848
28	0x3f8180ddf3f9f078	0.008546575553957533
29	0x3fdd3326429e9e83	0.456246914919099
30	0x3fe08a5f2d208a34	0.5168910867108196
31	0xbfd2fc1bdfcaad4a	-0.2966375050989042
32	0xbfd1d9017615b58b	-0.27886997729987034
33	0xbfc313c83c05357f	-0.14904120379143745
34	0xbfe6a86f43167a7b	-0.7080608663853377
35	0xbfbe44f2a11473ff	-0.11823955948462127
36	0x3fc762a11fcd0ca9	0.18269743016035037
37	0x3fcf2e0d326616a9	0.24359288178327645
38	0xbfe2911a945c37c9	-0.580212869421069
39	0x3fc3a0f8c089f465	0.15334996606171383
40	0x3feab515d20f25a3	0.8346051314085127
41	0xbffa047d06d3c17b	-1.6260957972227448
42	0x3fe89f5cba88e0ea	0.7694533961539751
43	0x3fe82d09c78fd8aa	0.7554978273099284
44	0xbfcb8867019419d9	-0.2151001699168791
45	0x3fa599b23809e626	0.042188233700425834
46	0x3fe0ce3bfeb66d3f	0.5251750922065311
47	0xbfbc46285e0bbc7c	-0.11044552131692059
48	0x3fca38d9fa3e6f8e	0.20485996931972433
49	0xbfce96cd558065a5	-0.2389771144378702
50	0x3fec8022fc6c4822	0.8906416826378101
51	0x3fd2716967bf7311	0.28817210322977
52	0x3ff835c56d9c5b85	1.5131277352972756
53	0xbfa18a07b33338b8	-0.03425621092320469
54	0x3fd09478d5d57794	0.2590620125027894
55	0xbfdc0c9f49b03fec	-0.43827039905681775
56	0x3fd088429fae4d42	0.2583166655906163
57	0x3ff0c5c668585300	1.048284919355126
58	0xbfd948de0668de4e	-0.39507246614400493
59	0x3f7e4047afb19088	0.007385520958539733
60	0xbfacf5e5cd988202	-0.056563550326476544
61	0x3fb46ed546868d6d	0.07981617900673195
62	0xbff3e948772fc679	-1.2444538741805486
63	0xbff41f71ac96f3c7	-1.2576767675193297
64	0xbfd0b372ac3d79cc	-0.26095263309789796
65	0xbfd4abc514ad342d	-0.3229839994353963
66	0x3fe9fe819c5cc3b3	0.8123176626160017
67	0xbfcf4cca47c61e6b	-0.2445309496363167
68	0xbfcb77fa8d6fa17f	-0.21459895998055953
69	0xbfd0d39d3f9969d3	-0.26291590891710576
70	0xbff24d316ae287bb	-1.1438459563437238
71	0x3f94a6b9d2f5961f	0.02016725874036329
72	0xbfd9cbc1dbfcce05	-0.4030613563838588
73	0xbfd3c31668785799	-0.3087821979728403
74	0xbfd4f3d142cd94c9	-0.32738143466697217
75	0x3fe6a866074c1aea	0.7080564634823905
76	0xbfeed30d555d8aaf	-0.963263193826
77	0xbff397d84c0245f1	-1.224571511182486
78	0x3fefd8015a53f188	0.9951178325859908
79	0xbfb3916599c07a5c	-0.07643733028133098
80	0x3f8f4175b62d5e1b	0.015261573431117495
81	0x3fae0f4f86bb222c	0.05871056098618896
82	0xbfd22dac91825592	-0.28403772554278206
83	0x3fcebd44e7299c22	0.24015103614075978
84	0xbfe3a47596337769	-0.6138256009687498
85	0xbfccc80c09c2e210	-0.2248549506819164
86	0x3fd876866bc8a0b4	0.3822341969084946
87	0xbff829b1eb7d8a30	-1.5101794432490685
88	0x3fc0401ff8ae068b	0.12695693628852597
89	0x4003bdef17c2497c	2.4677411895910932
90	0x3fc32dc156796382	0.14983383867618377
91	0xbff184b76e088ce4	-1.0949014948062592
92	0xbfd8370ba7847215	-0.3783597122108245
93	0xbfd645f8eeda4d8e	-0.34802077603782144
94	0x3fa9ff4baac5e261	0.050775875660239896
95	0x3fd09fe38da652c1	0.25975884278276956
96	0xc00418b648640ccc	-2.5120664268048127
97	0x3fdc449b36a315c4	0.4416873963894796
98	0xbfccb754e6f3921a	-0.22434483792234589
99	0x3fad5d963db8fa89	0.05735463622521759
100	0xbfb773129c7180eb	-0.09159962005060478
101	0xbfd03b9febc9f91a	-0.25363920236840587
102	0xbf62bbff7a7943e4	-0.0022869100392104314
103	0xbff0eae309be76a5	-1.057345426619045
104	0x3fc90f86e8abbe02	0.19578634606249073
105	0x3fc2797c798db617	0.1443324655078164
106	0x3fd3171e8d1215cf	0.2982860925333996
107	0x3fc53b95113022e3	0.16588080729731933
108	0xbfdb7df716af4322	-0.42956330504698503
109	0xbfe91814f67ecdae	-0.7841896833764872
110	0xbfe984240800ddbb	-0.7973804622951585
111	0x4004bfb9fe8800cb	2.593616474652753
112	0x3f90b0fa9d0149e0	0.016300121147944213
113	0xbfe3fe61d54d80b8	-0.6248025098866696
114	0xbfc356fbb5164ee7	-0.15109201757569865
115	0x3fd885a3b2bfb118	0.38315670448243244
116	0x3fd24eab753591a2	0.28605162092415004
117	0xbfdee7942684f77e	-0.48288444291744514
118	0x3fb2bc99db103387	0.07319032285904657
119	0xbfcfab443a408bd6	-0.24741413921682803
120	0x3ffaed9739ec4429	1.6830055487264508
121	0x3fbf6b936dd7f67a	0.12273522788742666
122	0xbfda162c7d00cf85	-0.4076033802732513
123	0x3fcb9a6f9c9057a3	0.21565051216810813
124	0xbfc0f84993e52c78	-0.13257713052221098
125	0xbfd05105cfde6e72	-0.25494523334211927
126	0xbfd3f23a8afbc7d6	-0.3116594655285757
127	0x3fde682e45f0a646	0.4751086886413741
128	0x3fac09d35a687eb5	0.05476246336570282
129	0xbfdd98947bf1d43e	-0.46243774513215274
130	0xbfbaf2fabaddf58d	-0.10527007162268927
131	0x3fce9ceecbb671dd	0.23916420885951953
132	0xbfcb6411ce802885	-0.2139913805297661
133	0xbfd9620d5a0bae99	-0.396609628615559
134	0x3fcf0a94f2b05f13	0.24251043176695272
135	0xbff1e9c1a3b8ed1f	-1.1195694346814162
136	0x3fb8afc6a455f76b	0.09643212806801464
137	0xbfe53f5e5813d659	-0.6639854164374795
138	0xbfe8175853c3a5e6	-0.7528497348804961
139	0xbfd048e16b8fa994	-0.25444827560445415
140	0x3fca71e28d97342f	0.20660049356084317
141	0xbfcc0691eed0d523	-0.21895050202298547
142	0x3fd683ae3e495184	0.35178714831024416
143	0x3fc073aa602a2f66	0.12852983184381656
144	0x3fc53249567c228b	0.16559712145705804
145	0xbfd4fa6c24fc6e26	-0.3277845727149916
146	0x3fc8a4af50898109	0.19252578194119277
147	0x3fe79f78cadc7e9c	0.7382167780051136
148	0x3feae5cfd6790d7b	0.840553206341084
149	0xc006916c2a10c518	-2.821007088314797
150	0x3fc61c21d238c6f7	0.17273352398620265
151	0xbf941890a54ec7da	-0.019624958123763615
152	0x3fdad0cfde5cc03c	0.41899487223691145
153	0x3fc325a5201eb949	0.14958633488044829
154	0xbfd17b57ab55216f	-0.2731532262009954
155	0x3fc0433b0f64965a	0.12705171825034506
156	0x3fb2d292aa097415	0.07352558757106949
157	0xbfc92cc30e25d449	-0.1966785258370314
158	0xbfd77e7e56d5ad3f	-0.3670955512995597
159	0xbfdcc7dad8d821c4	-0.4496981732959535
160	0xbfd557dc4bd7648f	-0.3334875813139399
161	0xbfb5a2073890db26	-0.08450360423090028
162	0xbfcb5d587ad56731	-0.21378618238196048
163	0xbfd81c067abbe6ae	-0.3767105291914089
164	0x3fd14b852c5c2cfe	0.2702343877032972
165	0x3fca88e94916c091	0.20730320042412534
166	0xbfd303d73fa63b29	-0.29710942474132424
167	0x3fcafe3aef38b2f8	0.21088349037872667
168	0xbfd9c36ba28a8612	-0.4025525176349173
169	0xbffbe330933df69d	-1.7429662467615465
170	0xbfdf0c4660488708	-0.48512420084635766
171	0xbfe30cfbdef13998	-0.5953349451390748
172	0x3fb14380112041c3	0.06743622224917716
173	0x3fc52bc3d285a13b	0.16539809970277894
174	0xbfc6d8803caf0d40	-0.17848208392215703
175	0x3fd44739df6b0dab	0.3168472940271509
176	0x3fd4f0206d364f0e	0.3271561686062662
177	0xbfc67a61ee4ff371	-0.17560981880515272
178	0xbfc1e4b1a7d5f5a9	-0.13979168601137573
179	0xbfc543f74fea6e16	-0.16613665964256147
180	0x3fe73399f5fdbefd	0.7250490002170121
181	0x3fe6a7af4dc0f5e2	0.7079693335178343
182	0x3fd2815bf2600831	0.28914545697637367
183	0xbfbc99bd0cf3581c	-0.11172086301971301
184	0x3fcc07c67c577c14	0.2189872843873394
185	0xbfd64747093bf641	-0.3481004324129096
186	0xbfd55a71f65a61d3	-0.3336453347961001
187	0xbfda39d9a27678d9	-0.409780892043171
188	0xbfbc9c6ab8f59c00	-0.11176173225031505
189	0x3fd01c4e4a3939fd	0.2517276501502293
190	0x4001fb81b12ace4d	2.247805961722213
191	0xbfe3b8a5724420f4	-0.6162898284683522
192	0x3fc6f54aebb679bc	0.17936073789037532
193	0xbfc3dca9e8b2abbf	-0.15517162191585318
194	0xbfb68e6b8373f51c	-0.08811065635014298
195	0xbff43012f8a80954	-1.2617368424549413
196	0xbfd58f175bb7c7ee	-0.3368585963900149
197	0xbfd015f873ce4876	-0.25134097394141663
198	0xbfe320e8e4556180	-0.5977673015250247
199	0x3fbb610ed55086bc	0.1069497366702547
200	0xbfca1981ae5c5dcb	-0.2039033986445545
201	0xbff1aee9f5f5ff92	-1.1052035911415925
202	0xbfd5d6bd9e40b49a	-0.34123173193331413
203	0x3feee656a5904ab9	0.9656174882569167
204	0x3fd1a1688c335645	0.2754765862603999
205	0x3fa28d199cae3089	0.0362327579269684
206	0xbfcb5ec91d78a7a5	-0.21383012713459695
207	0xbfd4a360d9d028c1	-0.3224718215066212
208	0xbfcf24b723733ced	-0.24330796462024953
209	0x3fc37b5805494c11	0.15220165498848862
210	0xbfcd3648de3b26ce	-0.22821913577199954
211	0xbfe22ea50101c37d	-0.5681939143815807
212	0x3fb2b0834dc1ce21	0.07300587318768993
213	0xbff16bfa102e44c0	-1.0888615257320424
214	0xbfe3e938bb92fa3d	-0.6222194350774043
215	0xbfb3800c8455d5a5	-0.07617262106744833
216	0xbfd17bbb04c12c58	-0.27317691292109236
217	0xbfef51d5e88bafb7	-0.9787396947772241
218	0xbfc84cf936e99dcf	-0.1898490446212535
219	0xbfd2d17145fa05fa	-0.29403335412652576
220	0xbfcf6eb97385f76e	-0.24556654110704862
221	0x3fc8d83974b62129	0.1940986461525054
222	0x3fcf5091735b282f	0.24464624531384646
223	0x3fd2b07eeca540ad	0.29202244863428
224	0x3fc27cce7f32649e	0.14443379603179535
225	0x3feafc4a2af9f8f3	0.8432970847495923
226	0xbfbfb3b063c84bf7	-0.12383558689207051
227	0x3fd03aa80c8eca35	0.2535801050791265
228	0xbfd25ed39833c750	-0.2870377527570911
229	0xbfd3bf8c97715fd9	-0.30856623448698667
230	0x3fd4bcd308b5868f	0.3240249238061574
231	0xbfe3f85f19c294a7	-0.6240687850119188
232	0x3fbb178ea4ce3045	0.10582820437974856
233	0x3fc869efd5549f31	0.19073293606310807
234	0x3fc2be667d40df16	0.14643555751694554
235	0x3fbf54445521d4d6	0.12237956121846891
236	0xbfe0050e63fb2a62	-0.5006172135120546
237	0xbfc25486bd647ede	-0.1432045388000835
238	0xbfe2d92b0f828dcc	-0.5890097906998846
239	0x3fdfedc4c9cad1f0	0.4988872500064465
240	0x3fed28b171f2770b	0.911217424920069
241	0x3fee650b5b8fa38c	0.949834517317059
242	0x3fee78cd9130f8bf	0.952246459557294
243	0xbfc3c894f86526cb	-0.15455877426784634
244	0x3faebb1400da3b2d	0.060021042923031544
245	0xbff0ccc74eaefd90	-1.0499947618080547
246	0xbfc863feec392e30	-0.19055162939399528
247	0xbfd314c93650a804	-0.2981436758442444
248	0xbfeb9774d9f719dd	-0.8622383362897456
249	0x3fc7c1e7088e42cb	0.18560493390807262
250	0xbfde3039a8d0042f	-0.47169343457796037
251	0x3fb16cf5cd56f07f	0.06806885016607288
252	0xbfc693edc323dcce	-0.1763894274551831
253	0xbfc1621620ba1886	-0.1358058605002876
254	0x3feb459921a4bc18	0.852245870313598
255	0xbfd3b3b7333c373a	-0.30784397128524044
