old_data/oltp_leaky_relu_16/latency_125.pth (torch, 14386 bytes, 9 tensors)

weights.0.weight f4 [8, 16]
000000 87 7a a5 bf dd cc f9 be c7 08 eb be 17 bf 2c bf
       -1.2928017 -0.4878911 -0.45905134 -0.6747908
000010 a1 4c a2 bf c7 ff 06 bf d5 6f 3a bf 29 70 29 bf
       -1.2679635 -0.52734035 -0.7282689 -0.6618677
000020 c4 c7 aa be 13 c6 57 be f2 8a 52 bf 60 51 63 bf
       -0.33355534 -0.21071653 -0.82243264 -0.88796043
000030 77 3b 61 bf b9 57 ae bf 01 75 19 bf f0 db 80 bf
       -0.8798136 -1.3620521 -0.5994416 -1.006712
000040 03 88 74 bd a8 64 16 bd 11 cd 8e bb dd 66 f2 bd
       -0.059700023 -0.036717087 -0.004357942 -0.11836026
000050 13 3a f2 bd 53 0d 7a ba ca 2b bf bc 3c e3 97 bc
       -0.11827483 -0.00095387286 -0.02333631 -0.018540971
000060 d5 e7 7a bb a8 9e d9 c0 cb 97 9e bc 51 1c 07 be
       -0.0038285155 -6.800617 -0.01935949 -0.13194396
000070 0b 97 e2 bd 8c 8d 1a be 63 ec 10 be 86 c7 5d bd
       -0.110639654 -0.15093058 -0.14152674 -0.05414536
000080 4b a3 98 bd 07 f7 ad 3d 49 6e 22 3e f2 11 b8 be
       -0.07453021 0.08494382 0.15862383 -0.3595119
000090 1c 2f cd be ed e9 a4 be e5 f8 c0 be 4e b4 69 3e
       -0.40075004 -0.3220972 -0.3768989 0.22822687
0000a0 ac 10 54 bd 56 a1 98 3f 5f f8 69 be 4a 0f b7 be
       -0.051773712 1.1924236 -0.22848652 -0.35753852
0000b0 4b 71 90 be 24 dd a7 be 41 15 11 bf 92 a3 61 be
       -0.28211436 -0.32785904 -0.56673056 -0.22035053
0000c0 af 3d 53 3d cc 59 d1 be df 1d 51 bf 7a d0 38 bf
       0.051572498 -0.40888822 -0.81686205 -0.7219311
0000d0 4e 49 00 bf 18 49 be be 07 73 c5 be 5d f5 db bd
       -0.50111854 -0.3716514 -0.3856432 -0.10740159
0000e0 b8 a3 4a be 01 f6 06 c1 86 f7 fc bd ac 01 01 bf
       -0.19789016 -8.43506 -0.12351899 -0.50393176
0000f0 05 91 9b be 31 80 e5 be d4 0e d2 be d3 31 4b be
       -0.3038408 -0.44824365 -0.41026938 -0.19843225
000100 f8 b2 ac be 63 40 22 bd e8 0a d7 3d 5c 68 b3 bc
       -0.33730292 -0.039612185 0.10500127 -0.021900348
000110 89 77 73 be 1b ab 08 be e6 c2 e6 bd 2d 8b 77 be
       -0.23776068 -0.13346522 -0.11267643 -0.24174185
000120 e4 80 50 be be 3f 06 c1 08 e9 cf be 1d f2 1c be
       -0.20361668 -8.390562 -0.40607476 -0.15326734
000130 d4 12 de bd a5 d6 5d be 65 66 3a bc 9b f2 bb be
       -0.10843435 -0.21663912 -0.011376952 -0.3670853
000140 2f ff ee bd 91 68 a6 bc 00 f2 e7 bb 60 b7 43 bd
       -0.11669766 -0.020313533 -0.007078409 -0.047782302
000150 e9 cc 98 bd 31 13 81 bd 5c f5 e6 bd 56 78 28 bd
       -0.074609585 -0.063024886 -0.11277267 -0.041130386
000160 3a fc 58 bb 3a 90 d2 c0 77 e8 e8 bc 06 22 28 3c
       -0.0033109323 -6.580106 -0.02843116 0.010262018
000170 c5 9b 90 bd f0 a7 ee bd 82 4e c1 bc 6a b6 d4 bc
       -0.07060961 -0.11653125 -0.023597006 -0.025965888
000180 a2 c0 9f bd 1f 6a 70 bd f3 ec 3e bd 3b be 45 bd
       -0.07800414 -0.058694955 -0.04661269 -0.04827712
000190 54 01 ae bd a7 b1 7b bd ab 41 e1 bc c1 86 42 bd
       -0.08496347 -0.06144872 -0.027497133 -0.047491793
0001a0 a7 5d 7c bd 02 a6 92 3f f2 06 87 bd 2e 12 e5 bd
       -0.06161275 1.1456912 -0.065931216 -0.11185108
0001b0 f4 72 88 bd 5c c3 bc bd 75 03 3c bc 38 35 98 bd
       -0.066625506 -0.09216949 -0.011475434 -0.07432026
0001c0 99 6a f8 bd 07 5f 47 be 8b 17 42 bc 0e 0d dc be
       -0.12129707 -0.19469844 -0.011846433 -0.4297871
0001d0 57 da f8 be 4d b6 07 be ff 1c df bd cb 69 cc bd
       -0.4860408 -0.13253136 -0.108942024 -0.09981116
0001e0 d1 ae 42 be 13 a4 3c bf 19 41 2c be 61 22 c6 be
       -0.19012 -0.7368786 -0.16821708 -0.38698104
0001f0 f8 a2 ae be d7 22 f3 be 65 4b e2 be fc 1c d5 be
       -0.3410871 -0.47487518 -0.44198146 -0.41623676

weights.0.bias f4 [8]
000000 90 86 b9 40 69 b2 17 c1 c6 e3 30 42 09 c0 5e c1
       5.797676 -9.481057 44.222435 -13.921884
000010 1a 7b ed c1 2a 16 b5 41 9d 6e 5a 41 2b ce 5e 42
       -29.685108 22.635822 13.652005 55.701336

weights.1.weight f4 [4, 8]
000000 14 2c 3f 3c 86 c2 39 3e 30 3a e0 3d 38 4f d9 bc
       0.011668224 0.18140611 0.109485984 -0.026527032
000010 38 98 f7 3b 4e 2e 4d be c2 d9 aa 3d 82 7c d7 bd
       0.0075559877 -0.20037195 0.08342315 -0.10521795
000020 1e c3 8c 3f 55 43 17 40 bf 5e c4 be ea c2 25 3f
       1.0997045 2.3634846 -0.38353536 0.6475054
000030 98 82 ef 3f f4 71 1a 3f 1f 16 4b bf 9e 41 98 be
       1.8711729 0.6033013 -0.7933063 -0.29737562
000040 1b d9 cf 3f 9c d4 d6 bf f0 34 ae 3d e2 3a 26 bd
       1.623813 -1.6783633 0.08506191 -0.0405835
000050 6f 4d a6 bd 99 8b b9 bf bd c0 fb be 8c 93 86 3e
       -0.08120238 -1.4495727 -0.49170485 0.26284444
000060 75 18 89 bd 44 db ec be 41 f2 4e c0 2b 81 bf 3f
       -0.06694118 -0.46261036 -3.233536 1.4961294
000070 4b 03 a2 3e a2 12 2e 3f c2 58 21 bf 9b f2 6c 3f
       0.31643137 0.6799718 -0.6302606 0.92557687

weights.1.bias f4 [4]
000000 fe 4f 96 c2 ae 7a d6 41 1c 3a 84 c1 86 26 fa c1
       -75.156235 26.809902 -16.528374 -31.26881

weights.2.weight f4 [2, 4]
000000 6e 95 0a bd ee 30 8f bf 48 aa a8 3f 17 1c 8e 3d
       -0.033833914 -1.1186807 1.3176966 0.069389515
000010 bc cc 24 bf c4 4d 46 3f 20 57 a6 be a5 b3 1e c0
       -0.643749 0.7746241 -0.32488346 -2.4797146

weights.2.bias f4 [2]
000000 ac 0b 6b 41 6c a4 8e 42
       14.69035 71.32114

weights.3.weight f4 [1, 2]
000000 49 37 8f bf 40 e1 45 c0
       -1.1188747 -3.0918732

start.weight f4 [16, 144]
000000 6c 29 8a 41 eb 84 81 bc f4 93 c5 ba e0 bc 11 bd
       17.270226 -0.01581045 -0.0015074001 -0.035580516
000010 cf b9 8f 41 62 71 93 41 d7 e2 a5 41 01 af 56 42
       17.965727 18.430363 20.735762 53.670902
000020 35 90 e0 c0 2d fc 1f 41 97 a7 9e bd 1a a6 9c 3a
       -7.0176034 9.999066 -0.07746809 0.0011951358
000030 fc 35 88 bd 6b 94 cb 41 e6 44 98 41 5d f4 82 41
       -0.06650922 25.44747 19.033642 16.369318
000040 28 70 48 42 f7 ad 4b c0 d8 8a df 40 cb 05 18 bc
       50.109528 -3.182493 6.9856987 -0.009278725
000050 bf 4b 4d 3b c3 d8 3c 3d 09 58 b6 41 24 06 95 41
       0.0031325666 0.046105158 22.792986 18.627998
000060 87 f4 79 41 05 fd 4f 42 d5 3f 4b c1 8e bf 2d 40
       15.622199 51.99709 -12.703084 2.7148166
000070 50 a2 57 3d 72 c8 d8 3c 2b 84 4d bc 81 2c b8 41
       0.052645028 0.026462767 -0.012543718 23.02173
000080 ef 83 91 41 5d 53 7c 41 42 eb 53 42 98 0d ba c0
       18.18942 15.770352 52.979744 -5.8141594
000090 fe 13 00 40 ae b9 0c bd ce 68 33 be ee f1 69 bd
       2.0012202 -0.034356765 -0.17520449 -0.057115488
0000a0 0a 50 cf 41 3b 9f 9b 41 48 3c 5e 41 2d a4 5b 42
       25.914082 19.45275 13.889717 54.910328
0000b0 5d 45 b4 c0 8e f4 ec bf 6e 11 4f 3d 36 d1 d7 bc
       -5.633467 -1.8512132 0.05055373 -0.026344877
0000c0 68 d6 74 bd 36 5f c0 41 a4 e2 97 41 6f 4e 59 41
       -0.059774786 24.04649 18.985664 13.581649
0000d0 4e 7f 58 42 9d dd d7 c0 51 c7 2b bf c4 9e 9c 3d
       54.12432 -6.7458024 -0.6710101 0.0764747
0000e0 a7 05 c3 bc c6 fd 81 bc 61 f3 ba 41 06 cb 99 41
       -0.023806406 -0.015868079 23.368837 19.224133
0000f0 cb 3a 61 41 39 11 46 42 bd 65 8b c0 02 81 0f 40
       14.076854 49.51682 -4.356169 2.242249
000100 d8 d9 9b 3d 6c 51 b6 bc fe 5e 20 3d 1a 6d b8 41
       0.0760991 -0.022255622 0.03915309 23.053272
000110 9f f1 9a 41 ec a4 54 41 89 84 41 42 11 56 57 c1
       19.36798 13.290264 48.37943 -13.458512
000120 a9 51 9a c0 98 d1 8c 3d 08 fb 8c be 0b 29 00 bc
       -4.8224683 0.06875914 -0.27535272 -0.007822285
000130 e7 19 cf 41 4e ce 9d 41 bb d3 63 41 4b 96 39 42
       25.887648 19.725735 14.239192 46.39677
000140 b1 c9 ae c0 f7 29 05 c0 4b 7e 27 bd 3c 32 99 39
       -5.4621205 -2.0806863 -0.040891927 0.00029219862
000150 b6 fa 9c bc 9b dd b4 41 07 40 9b 41 80 fa 63 41
       -0.019162517 22.608206 19.406263 14.248657
000160 0d 3f 41 42 16 ce d6 c0 69 9f be c0 66 60 8b 3c
       48.311573 -6.712657 -5.9569592 0.01701374
000170 f3 69 4c 3e 76 0d da 3c 48 87 bd 41 af 92 9f 41
       0.19962291 0.026617747 23.691055 19.946623
000180 bf 2e 44 41 c7 94 43 42 e7 a3 37 c0 90 aa e0 c0
       12.261413 48.89529 -2.8693788 -7.0208206
000190 ff 49 89 bd 98 ae df bd b3 07 98 bd 42 34 b3 41
       -0.06703567 -0.10921973 -0.074233435 22.400517
0001a0 e7 00 a0 41 f2 fe 46 41 db 40 3b 42 94 ba 87 c0
       20.00044 12.4372425 46.813335 -4.2415257
0001b0 c9 d3 b0 c0 f3 fa 9a 3d 72 67 e7 bd 7b 70 8c 3d
       -5.5258527 0.07567396 -0.112990275 0.068573914
0001c0 09 bd b0 41 26 16 9a 41 2a d7 5a 41 4f 05 41 42
       22.092302 19.260815 13.67753 48.255184
0001d0 24 54 d6 c0 ae f6 5e c0 33 71 57 bd b3 ad b6 bc
       -6.697771 -3.4838061 -0.05259819 -0.022299623
0001e0 20 84 7c bd 36 91 88 41 4d 66 99 41 dc eb 67 41
       -0.06164944 17.070904 19.174952 14.495083
0001f0 2e e4 47 42 dc 0d b0 c0 16 b0 b5 c0 6b f9 92 3b
       49.97283 -5.501692 -5.677745 0.0044852993
000200 de 0a 4b be 56 90 eb 3c 43 a3 bf 41 e5 6e a7 41
       -0.19828364 0.028755348 23.954718 20.929148
000210 ac da 6d 41 5a ad 3b 42 95 fa a2 c0 25 77 75 c0
       14.865887 46.91929 -5.0930886 -3.835397
000220 ee f4 27 3d f6 86 3d bc 80 52 14 3d a7 cf 9b 41
       0.041005068 -0.011567822 0.03621149 19.476393
000230 13 f6 9a 41 a3 9d a3 41 de b5 4b 42 9f 03 c4 c0
       19.370153 20.451971 50.927605 -6.125442
000240 45 fd fa 41 78 09 43 bd 63 4c d5 3d 88 65 71 bd
       31.373667 -0.047616452 0.1041496 -0.05893472
000250 88 f0 ca c1 e2 19 36 42 09 56 bd 41 cd 52 4a 42
       -25.367447 45.525276 23.66701 50.58086
000260 e7 35 06 41 34 e8 95 41 a6 cb 9b bc 0f 1a 2c 3d
       8.38816 18.73838 -0.019018006 0.04201704
000270 80 44 33 bb 0d 8f c3 c1 10 89 39 42 0d 3c ad 41
       -0.0027354062 -24.444849 46.38385 21.654322
000280 fb d1 4b 42 0a a8 2a 41 49 b7 3b 41 2a fb a1 3d
       50.95506 10.666025 11.732247 0.07909234
000290 92 97 18 3c c0 51 f6 bb 12 e7 a0 c1 15 66 3e 42
       0.009313481 -0.0075170696 -20.112827 47.59969
0002a0 0d 94 a5 41 db 55 4a 42 6a e6 46 41 30 49 b9 40
       20.69729 50.583843 12.431253 5.790184
0002b0 f4 2e 91 bd 8e a3 06 3e ea 8e a4 bd 50 b6 aa c1
       -0.07089034 0.13148329 -0.08035071 -21.33902
0002c0 ef de 3e 42 22 c7 a9 41 08 e7 46 42 fd a4 46 41
       47.71771 21.222233 49.725616 12.41528
0002d0 a3 74 02 c0 cf d0 a0 3d 63 1e 6f 3d 96 df 64 bd
       -2.038369 0.07852327 0.05837859 -0.05587729
0002e0 ec f6 b0 c1 71 d9 39 42 b0 3e a6 41 4e 69 45 42
       -22.120567 46.462345 20.78061 49.352837
0002f0 b4 28 10 41 eb bf b3 c0 46 6b c1 bc ad 81 7d bd
       9.009937 -5.6171775 -0.023610722 -0.061891247
000300 e0 63 1b 3d 0d 48 c9 c1 d8 c9 38 42 0a 2a a8 41
       0.037937045 -25.160181 46.197113 21.020527
000310 1d d2 40 42 fa 1a dd 40 95 c6 89 c0 b6 17 8e 3c
       48.20519 6.909543 -4.305491 0.01734529
000320 53 07 91 3d 18 2d 60 bd 9e 79 ca c1 11 67 39 42
       0.07081475 -0.054730505 -25.309383 46.35065
000330 e5 36 a1 41 83 f2 50 42 e2 cd 25 41 03 8e 74 c0
       20.151804 52.236828 10.362764 -3.8211677
000340 d8 f2 61 bd b8 e3 01 3e 9e 35 89 bd fd d6 bb c1
       -0.055163234 0.12684524 -0.0669968 -23.479975
000350 5c 58 37 42 c9 5e 99 41 d3 e4 50 42 5d 98 2f 41
       45.83629 19.171282 52.22346 10.974698
000360 cd 0e f9 c0 40 a3 13 bd 55 82 e2 3d b0 25 19 3d
       -7.7830567 -0.03604436 0.11060015 0.037389457
000370 ca 0d d1 c1 a3 d3 34 42 ff 35 98 41 5c 36 5c 42
       -26.131733 45.206676 19.026365 55.053085
000380 9e bd 1e 41 e3 2a 31 c1 26 84 f0 3c 5a 88 03 3e
       9.921293 -11.07297 0.029359888 0.12844983
000390 e0 ea d3 3c da d0 be c1 c7 ce 32 42 32 c0 95 41
       0.025868833 -23.851978 44.70193 18.718845
0003a0 c6 bb 52 42 18 28 16 41 97 47 04 c1 ee d5 08 bd
       52.683372 9.3847885 -8.267478 -0.033407144
0003b0 13 3a 22 3e 16 13 55 3d c0 96 bf c1 33 c0 2f 42
       0.15842466 0.052020155 -23.948608 43.937695
0003c0 8a 4e 94 41 44 f0 51 42 23 ff 0f 41 74 89 e6 c0
       18.53835 52.484634 8.999789 -7.204279
0003d0 43 22 a8 bd 9a e2 9d 3c 67 15 85 3d 62 4d c2 c1
       -0.0820966 0.019273091 0.06498223 -24.287785
0003e0 8f 35 2e 42 eb 99 9b 41 12 50 55 42 79 cb 1f 41
       43.552303 19.450155 53.328194 9.987176
0003f0 a2 1c 7b c1 78 25 85 3d d1 a1 48 be 70 9d 90 bd
       -15.69449 0.06501287 -0.19592978 -0.07061279

start.bias f4 [16]
000000 3c 5b 3f 42 39 9d 5b 42 94 ae 87 42 5a 1c fb c1
       47.839096 54.903538 67.84097 -31.388844
000010 e2 52 96 40 a4 75 27 c2 9b a2 f0 c0 7b e7 52 c1
       4.6976175 -41.864883 -7.5198493 -13.181514
000020 fb eb 14 c2 9d e4 87 42 83 a5 0c 41 f2 f1 3e c2
       -37.23045 67.94651 8.790408 -47.736275
000030 c3 f6 10 41 2d c8 4b 41 ed 85 11 c2 6d 56 28 42
       9.060245 12.736371 -36.380787 42.0844
